checkpoint_critic_20_agents.pth (torch_old, 549477 bytes, 9 tensors)

fcs1.weight f4 [400, 33]
0.50399214 0.24865751 1.1615957 -0.8240032 1.2217301 -0.2462497 1.2063373 0.58426785
0.14848575 0.7726401 -0.04641422 -0.5586374 -0.060578767 2.1064937 -1.0643224 -1.0197048
0.12514843 -0.15297802 -1.9108961 0.001178278 0.09997917 -0.16340725 0.639887 0.46647066
-0.34788394 -0.45805335 -2.4730966 0.017384691 0.16894181 0.017553288 -0.018825449 -0.039752174
5.0245876 0.12186867 0.8318098 -0.084348835 -2.3092408 -3.747098 -5.4101257 -4.463863
0.67955136 0.50545466 0.46476316 0.15938097 0.30817857 0.27222168 0.0061838664 0.9829784
-0.50131774 1.1695286 -1.6365755 1.6459649 -0.3217896 -0.027634421 0.35561135 -0.38840505
-0.055623237 0.34493124 -0.0025907357 0.11757727 0.039276343 0.62333095 0.029552873 0.04654752
0.010181725 -6.7458935 -0.07644286 0.39199644 0.58113563 0.5728963 2.6303022 -0.040454425
-7.025115 0.45275256 0.5037282 1.3375678 -0.5314398 0.8835391 0.4435419 -0.5151985
0.07180139 0.19942519 -3.1311822 2.2025304 -0.45722193 0.24110514 -0.111336134 -0.022017188
0.1678414 0.12951456 0.5562394 0.10127243 -1.0663229 -0.014587001 1.2434685 -0.021480834
0.04693017 -0.03459961 -2.5081322 -2.3615558 1.4582242 -0.60187435 1.449284 -0.9584012
-2.166843 1.1454844 -0.47569278 -0.071875416 -2.4378133 -0.6031945 0.804678 0.38627318
1.4033374 -0.6803547 0.5146243 -2.599846 -0.88932145 -0.34967184 1.2176512 0.980638
0.28771782 -0.43265873 2.5455356 -0.011175912 -0.31363523 -1.0838572 0.03728731 0.37734908
-0.006041415 -0.033340752 0.048847165 -1.1746365 0.99944496 1.2257584 -1.3523192 1.0551838
0.14411636 3.0633857 3.7180362 -0.6457585 2.0495555 0.90220046 -0.5554595 0.8577854
-1.0813645 0.38404587 0.17027551 0.35905135 0.20857382 0.12009526 0.17037831 0.39303723
-0.42630187 -0.41025883 -1.0066329 0.83467203 -1.1175572 0.62870383 -1.0475868 -0.023254005
0.8030526 0.028630082 -0.0021902814 -0.0006784424 1.8880104 0.54876286 2.0232553 -1.2302867
0.14797527 1.7538573 -1.682649 -0.60551584 -0.9767213 -0.5502536 1.1514845 -0.29172817
-0.08965094 -0.00014997569 0.3081315 0.08399432 -0.124432646 -1.4696488 1.6538526 1.0841744
0.033558175 0.3455767 0.19969933 -0.67190236 0.87220436 0.15303236 2.286417 -0.64734054
-0.02250775 2.1475627 0.03983335 -0.011880341 0.030804288 -2.5788352 -0.9725717 0.609227
1.4917005 -0.7315637 1.2167432 -0.5768601 -0.68938965 -0.112798855 -0.24007672 0.43994722
0.067397125 0.35153404 -0.11787102 1.5043811 0.21271719 -1.3325008 -0.5949634 0.061458357
-0.16083574 -0.6515647 0.0041077104 0.021521313 -0.08922825 0.5011456 0.13111041 -0.4514735
-1.5341064 0.022004299 -0.043785438 -0.034947157 0.0452063 -0.047816426 5.4258637 -0.8161136
-1.4739841 -1.2532246 3.642357 -1.1642373 -1.5974326 1.2934142 0.037614584 -0.65750515
1.0345287 -0.19869499 0.21815011 -0.37711853 -1.0243107 0.522367 -1.096313 -0.45994335
1.6990554 -0.96644473 -5.018745 0.085174605 0.75845754 1.0474524 -0.18457583 -0.24382627
00000000: a105 013f 13a0 7e3e 2baf 943f e0f1 52bf
00000010: a761 9c3f e228 7cbe 4369 9a3f 9492 153f
00000020: a60c 183e becb 453f d61c 3ebd dc02 0fbf
00000030: 7121 78bd cbd0 0640 b73b 88bf b085 82bf
00000040: e926 003e 45a6 1cbe 3e98 f4bf 7370 9a3a
00000050: e1c1 cc3d 3b54 27be a2cf 233f 3ed5 ee3e
00000060: d81d b2be f885 eabe 3747 1ec0 576a 8e3c
00000070: 15ff 2c3e eacb 8f3c d437 9abc 2dd3 22bd
00000080: 6cc9 a040 4896 f93d 7df1 543f 15bf acbd
00000090: 9aca 13c0 74d0 6fc0 c01f adc0 f7d7 8ec0
000000a0: 14f7 2d3f 7a65 013f 70f5 ed3e c434 233e
000000b0: 95c9 9d3e a460 8b3e 08a2 ca3b 79a4 7b3f
000000c0: 5c56 00bf 1db3 953f 4e7b d1bf faae d23f
000000d0: 9bc1 a4be 9561 e2bc b112 b63e 07dd c6be
000000e0: 31d5 63bd d49a b03e 55c9 29bb 5acc f03d
000000f0: 3be0 203d 9e92 1f3f de18 f23c 9da8 3e3d
00000100: 40d1 263c 5cde d7c0 138e 9cbd c2b3 c83e
00000110: 4ec5 143f 55a9 123f df56 2840 8ab3 25bd
00000120: becd e0c0 2fcf e73e 55f4 003f 6c35 ab3f
00000130: 700c 08bf 9e2f 623f ed17 e33e 0de4 03bf
00000140: 9b0c 933d 1e36 4c3e 4a65 48c0 42f6 0c40
00000150: fe18 eabe 44e4 763e 3304 e4bd 645d b4bc
00000160: 9ede 2b3e 779f 043e b565 0e3f eb67 cf3d
00000170: 457d 88bf 51fe 6ebc fa29 9f3f 93f8 afbc
00000180: da39 403d 52b8 0dbd 3d85 20c0 bb23 17c0
00000190: 17a7 ba3f 7014 1abf 2382 b93f c859 75bf
000001a0: 8ead 0ac0 3c9f 923f 018e f3be 6b33 93bd
000001b0: 2205 1cc0 f46a 1abf 61ff 4d3f 99c5 c53e
000001c0: 8fa0 b33f ba2b 2ebf 6bbe 033f e063 26c0
000001d0: 92aa 63bf 3008 b3be ffdb 9b3f 180b 7b3f
000001e0: c04f 933e 7285 ddbe 0eea 2240 2c1b 37bc
000001f0: cc94 a0be d5bb 8abf 94ba 183d e633 c13e
00000200: 10f7 c5bb 5090 08bd f713 483d 7d5a 96bf
00000210: a0db 7f3f a7e5 9c3f cc18 adbf 4310 873f
00000220: 3d93 133e 830e 4440 4ef4 6d40 6e50 25bf
00000230: eb2b 0340 9cf6 663f 9832 0ebf d397 5b3f
00000240: 276a 8abf a9a1 c43e b45c 2e3e 94d5 b73e
00000250: 6094 553e 81f4 f53d a777 2e3e 2d3c c93e
00000260: 3d44 dabe 720d d2be 59d9 80bf 11ad 553f
00000270: 1d0c 8fbf bcf2 203f 5317 86bf 2f7f bebc
00000280: db94 4d3f a289 ea3c d38a 0fbb 80d9 31ba
00000290: 53aa f13f b97b 0c3f 047d 0140 097a 9dbf
000002a0: d486 173e 657e e03f 0b61 d7bf 1603 1bbf
000002b0: 680a 7abf 6cdd 0cbf d863 933f 655d 95be
000002c0: e99a b7bd cb42 1db9 69c3 9d3e 3705 ac3d
000002d0: 8bd6 febd 741d bcbf 71b1 d33f 3ac6 8a3f
000002e0: 4c74 093d 6eef b03e fb7d 4c3e cb01 2cbf
000002f0: c948 5f3f 84b4 1c3e a854 1240 1cb8 25bf
00000300: 2c62 b8bc ab71 0940 4b28 233d c3a5 42bc
00000310: 4659 fc3c a30b 25c0 75fa 78bf 4df6 1b3f
00000320: 0bf0 be3f c247 3bbf 3ebe 9b3f 1aad 13bf
00000330: d77b 30bf 1603 e7bd acd6 75be c340 e13e
00000340: 8107 8a3d 45fc b33e 5d66 f1bd 8f8f c03f
00000350: 89d2 593e 638f aabf 854f 18bf c2bb 7b3d
00000360: 20b2 24be f2cc 26bf f999 863b 774d b03c
00000370: 4dbd b6bd 144b 003f cf41 063e 8927 e7be
00000380: 995d c4bf 5c42 b43c 5c58 33bd c024 0fbd
00000390: 3e2a 393d 28db 43bd ada0 ad40 d2ec 50bf
000003a0: 83ab bcbf aa69 a0bf 611c 6940 ba05 95bf
000003b0: ac78 ccbf 998e a53f c011 1a3d 4252 28bf
000003c0: 706b 843f b376 4bbe be62 5f3e ae15 c1be
000003d0: 9d1c 83bf d8b9 053f fc53 8cbf b27d ebbe
000003e0: a67a d93f ec68 77bf 8f99 a0c0 0670 ae3d
000003f0: 462a 423f ec12 863f 7201 3dbe 98ad 79be

fcs1.bias f4 [400]
-0.080467634 -0.07053095 0.16964692 0.02778535 -0.14798854 -0.1543186 -0.14997645 -0.12632573
-0.1048185 -0.09230168 0.12905736 -0.071525104 0.16028033 -0.039933447 -0.14088674 -0.06353755
-0.0772521 -0.11975508 -0.16292161 0.005900515 -0.13531817 -0.050149944 -0.04550997 -0.100462005
-0.0065214466 -0.13500078 -0.05698995 0.15406337 0.16093533 0.015643517 0.04006887 0.15448251
0.16672388 -0.08206679 0.026930152 -0.034216713 -0.120020725 0.15476643 0.13791469 0.0074828477
0.14384057 0.04668881 0.119002715 0.07370858 0.082194544 0.061777312 0.08705777 0.1524922
0.06812262 -0.111140236 0.06404917 0.17404242 0.1440472 0.109654605 -0.06618831 0.17206079
0.031864118 -0.0938652 -0.0063387873 0.12553582 -0.15960744 -0.039637286 0.12977538 -0.04823748
-0.07014958 -0.047165945 0.056650244 -0.13430032 0.021808319 0.044689924 0.04583214 -0.003994808
0.08545577 -0.012908812 0.13447481 0.115399964 -0.12031724 -0.033490613 0.13584785 -0.017261505
-0.05316947 -0.011434021 -0.040174782 -0.060855415 0.038495187 0.14649849 0.024994599 0.09778977
0.13503139 -0.11224761 -0.123751834 -0.024927154 0.052273188 -0.020410856 -0.08135935 -0.12005578
0.0043905363 0.12968944 0.008015909 0.16609113 -0.089053474 0.16045465 -0.110947095 0.13801005
0.020363217 0.1731299 0.16568594 -0.059204772 -0.012621067 -0.04719925 0.039465535 -0.085804105
-0.040470738 -0.10541885 0.10698133 0.13746366 0.018962948 -0.0050571873 -0.13056445 -0.15862145
-0.13463664 -0.12889083 -0.14315115 0.081699006 -0.13282762 0.08370838 0.115983434 -0.0004969415
0.041006856 0.10900148 -0.15756592 0.1502837 0.17131256 0.16584428 -0.06791581 0.10687881
-0.06382193 0.027438484 0.14606524 0.03640264 0.06374773 -0.046200037 -0.08247449 0.14210817
-0.15734091 0.030644212 -0.016954247 -0.048827995 -0.17013566 -0.10353529 -0.09940835 0.026201444
0.06740388 -0.1581406 -0.06667731 -0.16607939 0.11920685 -0.1599629 -0.023181537 -0.024667213
-0.095348306 0.12477606 0.07426966 0.09400017 0.1225216 -0.08677798 0.084539555 0.14089292
-0.039769445 -0.014465652 0.016329546 -0.17109872 -0.01862841 -0.02062456 -0.12766427 0.12749913
-0.15337127 -0.06813365 0.102540284 0.027154258 0.06956381 0.00735357 -0.1617305 -0.12476056
-0.05831722 -0.117244266 -0.10864195 -0.056382872 0.15530373 0.13461909 0.034375906 -0.108970575
-0.104892544 0.1699229 0.02103074 0.019472681 -0.098899476 -0.08912816 0.085383 -0.01493375
-0.017175715 -0.08574421 -0.12908787 -0.11247814 -0.17187874 0.1595763 0.025416085 0.024529474
0.13049446 0.087400876 -0.025192525 0.1078065 0.0027868538 -0.1699274 0.14094892 -0.103285074
-0.1315205 -0.03982596 0.04262952 0.13703111 -0.17267454 -0.16276295 -0.115973905 -0.110523134
0.17096172 -0.0027812067 0.12654144 0.04922311 0.101363 -0.0903571 0.07577613 0.063200526
0.059673995 -0.1308275 -0.05998126 0.14786778 -0.03852523 -0.12673938 -0.14778613 -0.035703544
0.07838799 -0.051079772 0.12350438 0.07429163 -0.13926515 0.0017028609 0.15903473 0.108330965
-0.062445 -0.12966657 0.04520439 0.08353984 -0.0357217 -0.14859012 0.16824538 0.08428936
00000000: 37cc a4bd 8872 90bd ecb7 2d3e 1a9e e33c
00000010: 4f8a 17be b205 1ebe 6d93 19be 885b 01be
00000020: 15ab d6bd aa08 bdbd 9d27 043e c17b 92bd
00000030: 8720 243e 4191 23bd 9d44 10be fa1f 82bd
00000040: 5936 9ebd 2742 f5bd ecd4 26be 1b59 c13b
00000050: d990 0abe 076a 4dbd aa68 3abd 06bf cdbd
00000060: dcb1 d5bb a53d 0abe 4b6e 69bd cac2 1d3e
00000070: 3bcc 243e d526 803c 411f 243d aa30 1e3e
00000080: aab9 2a3e a212 a8bd 9f9c dc3c d326 0cbd
00000090: 6dcd f5bd 177b 1e3e 8239 0d3e ad32 f53b
000000a0: f14a 133e c43c 3f3d b2b7 f33d 86f4 963d
000000b0: 9d55 a83d 350a 7d3d 584b b23d ea26 1c3e
000000c0: df83 8b3d 7e9d e3bd 362c 833d 2d38 323e
000000d0: 1c81 133e 9892 e03d bd8d 87bd b430 303e
000000e0: f383 023d 663c c0bd 9ab5 cfbb 768c 003e
000000f0: 2270 23be b55a 22bd d6e3 043e aa94 45bd
00000100: 95aa 8fbd 1431 41bd 160a 683d 0686 09be
00000110: 5ca7 b23c c80c 373d 7bba 3b3d e1e6 82bb
00000120: 6f03 af3d 7b7f 53bc c4b3 093e d156 ec3d
00000130: e368 f6bd 742d 09bd b31b 0b3e 0068 8dbc
00000140: 3bc8 59bd c355 3bbc 508e 24bd 8743 79bd
00000150: 21ad 1d3d b303 163e 79c1 cc3c 0146 c83d
00000160: ab45 0a3e 13e2 e5bd 9a71 fdbd 0834 ccbc
00000170: 691c 563d ab34 a7bc bb9f a6bd cedf f5bd
00000180: 7dde 8f3b 4fcd 043e 2955 033c cb13 2a3e
00000190: ab61 b6bd 394e 243e 3b38 e3bd 8252 0d3e
000001a0: c3d0 a63c f748 313e 93a9 293e b480 72bd
000001b0: 98c8 4ebc 0054 41bd 9da6 213d 10ba afbd
000001c0: a5c4 25bd d7e5 d7bd 0719 db3d 46c3 0c3e
000001d0: 2f58 9b3c c3b6 a5bb b0b2 05be a96d 22be
000001e0: 30de 09be f5fb 03be 3796 12be cf51 a73d
000001f0: f703 08be 4d6f ab3d b988 ed3d 2e45 02ba
00000200: cef6 273d 2b3c df3d f658 21be f8e3 193e
00000210: 8f6c 2f3e 15d3 293e 7217 8bbd 47e3 da3d
00000220: 12b5 82bd acc6 e03c 2092 153e ef1a 153d
00000230: 2b8e 823d 403c 3dbd 63e8 a8bd ce84 113e
00000240: fa1d 21be 9209 fb3c a2e3 8abc ddff 47bd
00000250: 0b38 2ebe 4f0a d4bd 9b96 cbbd 69a4 d63c
00000260: 0c0b 8a3d 9cef 21be 1d8e 88bd b710 2abe
00000270: b922 f43d 51cd 23be 35e7 bdbc e512 cabc
00000280: f945 c3bd 978a ff3d b11a 983d 2983 c03d
00000290: 9bec fa3d a7b8 b1bd 1323 ad3d 3c46 103e
000002a0: 49e5 22bd 5801 6dbc 8ac5 853c 8134 2fbe
000002b0: 9b9a 98bc d6f4 a8bc 6cba 02be 228f 023e
000002c0: 5c0d 1dbe a889 8bbd a400 d23d 9b72 de3c
000002d0: 7977 8e3d 37f6 f03b ae9c 25be 7782 ffbd
000002e0: 0ade 6ebd c31d f0bd ac7f debd baf1 66bd
000002f0: f107 1f3e 96d9 093e c0cd 0c3d f72b dfbd
00000300: e7d1 d6bd 4500 2e3e a948 ac3c 2c85 9f3c
00000310: cf8b cabd d388 b6bd 48dd ae3d b0ac 74bc
00000320: 16b4 8cbc a99a afbd 9c2f 04be f05a e6bd
00000330: fb00 30be f867 233e 6535 d03c 09f2 c83c
00000340: 57a0 053e 3bff b23d 8e60 cebc a7c9 dc3d
00000350: a6a3 363b 7301 2ebe ea54 103e 2087 d3bd
00000360: 4fad 06be 8c20 23bd 4b9c 2e3d e251 0c3e
00000370: 98d1 30be 55ab 26be ba83 edbd f459 e2bd
00000380: 9710 2f3e e844 36bb 1494 013e 2c9e 493d
00000390: 6897 cf3d 250d b9bd 8430 9b3d 476f 813d
000003a0: b86c 743d a5f7 05be e9ae 75bd a76a 173e
000003b0: a2cc 1dbd f8c7 01be 3f55 17be e13d 12bd
000003c0: e289 a03d 0639 51bd ddef fc3d 3626 983d
000003d0: 869b 0ebe 8832 df3a 00da 223e a0dc dd3d
000003e0: 54c6 7fbd 50c7 04be 3d28 393d f016 ab3d
000003f0: eb50 12bd 0228 18be 8448 2c3e e69f ac3d

bn1.weight f4 [400]
0.49255425 0.49046645 0.4783516 0.3429643 0.057775017 0.2999044 0.41802213 0.29968625
0.31665656 0.58797824 0.32134762 0.570033 0.36155832 0.17443977 0.39476818 0.34368703
0.16982591 0.36701515 0.50760525 0.4525541 0.38950118 0.4976762 0.54158956 0.47693786
0.54966867 0.24739338 0.56450325 0.23529766 0.6329068 0.8517975 1.512307 0.36492488
0.22098961 0.009647403 0.5374781 0.40753806 0.22108878 0.13417551 0.29044038 0.1651161
0.1259304 0.1597765 0.7321757 0.4769395 0.46785614 0.5755739 0.2595724 0.41982302
0.06851755 0.46544373 0.012111802 0.12281251 0.252948 0.2650293 0.4156168 0.10558441
0.51009554 0.31583548 0.5278141 1.5968661 0.31838107 0.18975556 0.26178783 0.22442877
0.4803252 0.2930096 0.43374622 0.34196204 0.3665741 0.24743748 0.12714486 0.32586646
0.4503002 1.3908721 0.5671175 0.5118867 0.2486016 0.5704574 0.20102006 0.6349379
0.3583806 0.45121157 0.050371435 0.40109575 0.43731526 0.4126641 0.6831388 0.09902247
0.50199676 0.25177768 0.56082535 0.24021289 0.28099954 0.4080139 0.22679687 0.33558917
0.18827732 0.3652244 1.0818714 0.1422367 1.3254186 0.41095254 0.6322139 0.36789528
0.2880776 0.13529462 0.20680004 0.2043125 0.40037563 0.31016606 0.49132207 0.0011530536
0.21892123 0.23961066 0.46059465 0.2935641 0.58886075 0.41399232 0.008907298 0.26768214
0.21125118 0.012913419 0.50430655 0.48146245 0.04062603 0.6406471 0.024491213 0.35549363
0.30506727 0.32750732 0.3140485 0.34363675 0.3243845 0.52622473 0.46330383 0.38619918
0.6636324 0.4666677 0.6294262 0.601001 0.5797097 0.008589584 0.2646098 0.6222916
0.39724255 0.38114047 0.28364167 0.30416524 0.23911445 0.29988348 0.5268377 0.5071185
0.5980141 0.23680386 0.31360617 0.13947268 0.20103788 0.2804259 0.2720544 0.63816154
0.5419164 0.61679554 0.2575476 1.2731645 0.25899163 0.18376027 0.5875813 0.33653754
0.5155876 0.5496282 0.27815247 0.49531692 0.6363803 0.47626203 0.27338108 0.54100835
0.2462407 0.50328594 0.55876416 0.18958092 0.2035869 0.40429994 0.14555526 0.6323518
0.41584542 0.25631863 0.269706 0.24315757 0.25030035 0.3255464 0.5756241 1.1662542
0.3780689 0.5850876 0.56712806 0.197237 0.35374215 0.51453835 0.14987087 -0.0016833128
0.21734864 0.41241872 0.342899 0.62078744 1.2317781 0.33345035 0.363282 0.31809893
0.13732386 0.5413098 0.22460346 0.4776361 0.23326772 0.38787103 0.49432206 0.59350157
0.3503334 0.3916132 0.14488664 0.54061985 0.008938273 0.4946457 0.5247331 0.38366342
0.67553884 0.41724184 0.44905975 0.13952781 0.42929128 0.16855809 0.3323301 0.5345453
0.47389674 0.1385338 0.24609125 0.12660027 0.1286039 0.1997522 0.61848944 0.6315156
0.80168617 0.3204751 0.12619512 0.387368 -0.0038656585 0.36957496 0.41947827 0.45596316
0.25501314 0.70050716 0.4411571 0.53364533 0.35965154 0.32707763 0.5804709 0.31949005
00000000: 1230 fc3e 6b1e fb3e 80ea f43e 0499 af3e
00000010: 7fa5 6c3d 128d 993e ff06 d63e 7a70 993e
00000020: cf20 a23e be85 163f ad87 a43e afed 113f
00000030: 2c1e b93e 57a0 323e 0e1f ca3e bff7 af3e
00000040: d8e6 2d3e 69e9 bb3e 6bf2 013f 2cb5 e73e
00000050: b36c c73e 6acf fe3e 9da5 0a3f 3331 f43e
00000060: 16b7 0c3f b154 7d3e 4983 103f dff1 703e
00000070: 2e06 223f 670f 5a3f 4793 c13f 6fd7 ba3e
00000080: 1a4b 623e 2410 1e3c 2a98 093f d4a8 d03e
00000090: 1965 623e 4e65 093e 9ab4 943e 3214 293e
000000a0: e6f3 003e 739c 233e de6f 3b3f 6a31 f43e
000000b0: d78a ef3e d058 133f ace6 843e 0bf3 d63e
000000c0: ee52 8c3d a44e ee3e 9470 463c 2085 fb3d
000000d0: 6682 813e ecb1 873e bacb d43e a43c d83d
000000e0: 9f95 023f 30b5 a13e d31e 073f 1c66 cc3f
000000f0: d802 a33e 484f 423e 0e09 863e a8d0 653e
00000100: 2fed f53e 5b05 963e fc13 de3e a615 af3e
00000110: 9aaf bb3e 4060 7d3e 4332 023e f8d7 a63e
00000120: bf8d e63e 1908 b23f 9d2e 113f 020b 033f
00000130: 6b91 7e3e 7f09 123f 34d8 4d3e 4a8b 223f
00000140: a97d b73e 3405 e73e 4752 4e3d 6c5c cd3e
00000150: c9e7 df3e b548 d33e 2fe2 2e3f 4bcc ca3d
00000160: dc82 003f 01e9 803e 4092 0f3f 5efa 753e
00000170: 2cdf 8f3e 33e7 d03e 703d 683e 58d2 ab3e
00000180: c5cb 403e b1fe ba3e c37a 8a3f 7fa6 113e
00000190: 51a7 a93f 5f68 d23e c5d8 213f c55c bc3e
000001a0: e87e 933e ac8a 0a3e 64c3 533e 4c37 513e
000001b0: 09fe cc3e 16ce 9e3e 918e fb3e 0f22 973a
000001c0: e32c 603e 7f5c 753e 10d3 eb3e 094e 963e
000001d0: 94bf 163f cdf6 d33e eaef 113c a20d 893e
000001e0: 3b52 583e ce92 533c 3c1a 013f 3f82 f63e
000001f0: 7b67 263d 7301 243f cca1 c83c 4303 b63e
00000200: c731 9c3e 0aaf a73e f7ca a03e 28f1 af3e
00000210: ba15 a63e aab6 063f 2936 ed3e e6bb c53e
00000220: d0e3 293f 12ef ee3e 1322 213f 34db 193f
00000230: db67 143f 54bb 0c3c f07a 873e 814e 1f3f
00000240: 6063 cb3e d824 c33e 7b39 913e 8cbb 9b3e
00000250: 6bda 743e 548a 993e d6de 063f 85d2 013f
00000260: 7417 193f b67c 723e fd90 a03e edd1 0e3e
00000270: e0dc 4d3e fc93 8f3e b74a 8b3e 8e5e 233f
00000280: 08bb 0a3f 50e6 1d3f 47dd 833e 0ef7 a23f
00000290: 8d9a 843e a72b 3c3e ba6b 163f a64e ac3e
000002a0: 8dfd 033f 6fb4 0c3f 006a 8e3e 2e9a fd3e
000002b0: d2e9 223f 9ed8 f33e 9bf8 8b3e 867f 0a3f
000002c0: 8626 7c3e 59d7 003f 2b0b 0f3f 8021 423e
000002d0: 1679 503e 6700 cf3e 700c 153e cfe1 213f
000002e0: b1e9 d43e 323c 833e e816 8a3e 4cfe 783e
000002f0: 5e27 803e 05ae a63e 1a5c 133f d147 953f
00000300: 3f92 c13e 4dc8 153f 4e2f 113f 7ff8 493e
00000310: b11d b53e c9b8 033f c077 193e 9ba2 dcba
00000320: a490 5e3e 8c28 d33e 7590 af3e edeb 1e3f
00000330: e8aa 9d3f 01ba aa3e 1900 ba3e dddd a23e
00000340: a09e 0c3e 4793 0a3f 73fe 653e b88c f43e
00000350: bcdd 6e3e 0897 c63e c817 fd3e b8ef 173f
00000360: e65e b33e 8681 c83e 2a5d 143e 1066 0a3f
00000370: d671 123c 3442 fd3e e954 063f 886f c43e
00000380: 1df0 2c3f b9a0 d53e 29eb e53e 61e0 0e3e
00000390: 11cc db3e 7e9a 2c3e 2c27 aa3e f6d7 083f
000003a0: 98a2 f23e cedb 0d3e 58ff 7b3e 80a3 013e
000003b0: beb0 033e d78b 4c3e 5355 1e3f 02ab 213f
000003c0: 4e3b 4d3f 5015 a43e 4b39 013e 1955 c63e
000003d0: fd56 7dbb ee38 bd3e dbc5 d63e 0174 e93e
000003e0: 1591 823e 7054 333f 58df e13e fb9c 083f
000003f0: 3f24 b83e b876 a73e be99 143f 3394 a33e

bn1.bias f4 [400]
-0.9177931 -1.0760713 -1.2692015 -0.8295568 -0.68310994 -0.44169635 -0.66948974 -1.1400404
-1.252402 -0.42581797 -0.36246783 -0.9977757 -0.586556 0.16742235 -1.1647547 -0.28149843
-0.038460378 -0.6209373 -0.4421615 -0.6801034 -0.52010936 -1.1655561 -1.0020144 -0.8105206
-0.5436826 -0.105161086 -0.79089344 -0.23693508 -1.3969616 -0.5072687 -0.5486402 -0.4820393
0.08131361 -0.10959081 -0.7950383 0.043666486 0.4169195 -0.7640415 -0.35439557 -1.2020477
-0.14363675 -0.045925822 -0.5115001 -1.1082445 -0.60431856 -0.83773655 -1.4315236 -0.018367337
-0.52614427 -1.0932776 -0.093833886 -0.8464177 -0.6290828 -1.3166041 -0.7707968 -0.66016227
-0.6702283 -1.4697783 -0.9417566 -0.7300327 -1.3595356 -1.0552405 -0.04162708 0.04977664
-1.109145 -1.2235065 -0.5837447 -0.63455856 -0.3265158 -0.59361714 -0.82778704 -0.45328853
-0.3107734 -1.2063439 -0.41725406 -1.3111306 -0.108702525 -1.2476571 -0.9735258 -0.8067609
-1.3827418 -0.4931252 -0.414137 -0.6185144 -0.53039503 -0.9581393 -0.7191254 -0.8027131
-0.5134528 -0.26143694 -0.96065956 0.036426593 -0.03306293 -0.61530524 -0.1692268 -0.36737004
0.07955331 -1.1902446 0.15530388 -0.92641914 0.040503375 -0.67562926 -0.6855629 0.39880282
-0.16588476 -1.0536065 -1.4891042 -0.2452112 -0.45000616 -1.4641056 -0.8041379 -0.027901422
-0.26470295 -0.92110246 -0.22693542 -0.8405853 -1.2849606 -0.24536626 -0.07170479 0.015791357
-0.9430616 -0.13294229 -1.0227519 -1.0596691 -0.42463908 -0.20270045 -0.19734935 -0.9468367
-0.547817 -0.61607146 -0.124789625 -0.617727 -0.33705845 -1.0371772 -0.67832476 -0.4688773
-0.6150144 -0.7534716 -1.2590181 -0.47876963 -0.98141557 -0.12124577 -1.2398881 -1.1135882
-0.7215022 -1.5841815 -0.2439053 -0.3294838 -0.0038950224 -0.9684359 -0.73041683 -1.0889885
-0.8041865 -0.004792449 -0.100508064 -0.904653 -1.0658653 -0.12393315 -0.3630849 -0.8706906
-0.81495214 -0.9300236 -0.34563106 -0.6363691 -0.06190163 -0.10039382 -0.8308833 -0.10755228
-0.95142347 -1.4699246 -1.4018264 -0.92456466 -1.4481719 -0.90406 -0.36712417 -0.6863017
-1.1238947 -0.7538333 -0.9658098 -0.02897832 -0.83436674 -0.63314724 0.11344978 -1.0842081
-0.22620171 -0.36672997 -0.09235758 -1.2354717 -0.110431165 -1.3723059 -1.1137921 -0.42027175
-0.8305927 -0.99425775 -0.6473074 -0.5923375 -0.23954402 -0.6681055 -0.936296 -0.036061756
-0.064036086 -0.83172005 -0.0050235735 -1.3437045 -0.89878553 -0.19612332 -0.42006114 -1.2461492
-0.9698759 -0.783925 -0.013522176 -0.95715356 -1.4183581 -1.0353717 -1.0815945 -1.0026338
-0.583171 -0.6430487 -0.028517963 -1.12515 -0.08731993 -1.4984955 -0.8672605 0.48997483
-1.1723984 -1.3625958 -0.55676556 -1.1496329 -0.815373 -0.75441176 -1.3492607 -0.60520774
-0.81529117 -0.68144774 -1.0899493 -0.7831826 -0.80942494 -0.8346465 -0.9795259 -1.224969
-1.3171729 -0.055909827 -0.045763686 -0.46499997 -0.047784932 -0.13467412 -1.3247497 -0.5472449
-0.28352496 -0.35631076 -0.7294566 -0.9406399 -1.6989305 -0.5994214 -1.2452879 -0.1753665
00000000: 7df4 6abf b4bc 89bf 3275 a2bf d65d 54bf
00000010: 4be0 2ebf 0626 e2be ae63 2bbf d8ec 91bf
00000020: b54e a0bf d004 dabe 6295 b9be 3a6e 7fbf
00000030: 8928 16bf c470 2b3e af16 95bf 9020 90be
00000040: a188 1dbd bff5 1ebf fe62 e2be 421b 2ebf
00000050: e325 05bf f130 95bf 0242 80bf 477e 4fbf
00000060: c82e 0bbf b25e d7bd fe77 4abf 1c9f 72be
00000070: a3cf b2bf 5ddc 01bf af73 0cbf dbcd f6be
00000080: c087 a63d 2671 e0bd a187 4bbf a1db 323d
00000090: 7976 d53e 3998 43bf 5673 b5be b3dc 99bf
000000a0: 8315 13be b71c 3cbd acf1 02bf f5da 8dbf
000000b0: 9fb4 1abf e775 56bf 2a3c b7bf 1977 96bc
000000c0: 64b1 06bf 85f0 8bbf fb2b c0bd d5ae 58bf
000000d0: 920b 21bf 7c86 a8bf f052 45bf 6500 29bf
000000e0: 1594 2bbf b221 bcbf f616 71bf 6ce3 3abf
000000f0: 4305 aebf 1f12 87bf 2881 2abd 97e2 4b3d
00000100: 77f8 8dbf dc9b 9cbf 4b70 15bf 6e72 22bf
00000110: 142d a7be 4bf7 17bf dae9 53bf 6f15 e8be
00000120: b11d 9fbe 7a69 9abf 53a2 d5be 21d3 a7bf
00000130: 6e9f debd 3ab3 9fbf fd38 79bf e287 4ebf
00000140: affd b0bf e87a fcbe c409 d4be f656 1ebf
00000150: f8c7 07bf 9e48 75bf 9a18 38bf 9b7e 4dbf
00000160: a571 03bf 10db 85be c9ed 75bf 0d34 153d
00000170: ff6c 07bd a584 1dbf ca49 2dbe ed17 bcbe
00000180: d9ec a23d ef59 98bf fb07 1f3e ce29 6dbf
00000190: dee6 253d 0af6 2cbf 0d81 2fbf e22f cc3e
000001a0: b2dd 29be 94dc 86bf f79a bebf a518 7bbe
000001b0: 3567 e6be d067 bbbf fbdb 4dbf 8691 e4bc
000001c0: 2587 87be 5fcd 6bbf c261 68be 9930 57bf
000001d0: 9779 a4bf 4b41 7bbe f6d9 92bd e05c 813c
000001e0: 7c6c 71bf 0622 08be 89e9 82bf 3da3 87bf
000001f0: 4b6a d9be b590 4fbe f315 4abe e463 72bf
00000200: bc3d 0cbf dcb6 1dbf b491 ffbd 5b23 1ebf
00000210: ed92 acbe 39c2 84bf b1a6 2dbf af10 f0be
00000220: 9571 1dbf 84e3 40bf 8127 a1bf 4b21 f5be
00000230: 0d3e 7bbf b44f f8bd a7b4 9ebf 0f8a 8ebf
00000240: 5eb4 38bf 76c6 cabf 50c2 79be 1ab2 a8be
00000250: a243 7fbb 6aeb 77bf 99fc 3abf fa63 8bbf
00000260: 2bdf 4dbf fa09 9dbb 2cd7 cdbd 5797 67bf
00000270: 466e 88bf aad0 fdbd 44e6 b9be 94e5 5ebf
00000280: b4a0 50bf 0716 6ebf 8ef6 b0be 16e9 22bf
00000290: 908c 7dbd 469b cdbd c5b4 54bf 5f44 dcbd
000002a0: 7d90 73bf 7d26 bcbf 0c6f b3bf 45b0 6cbf
000002b0: b25d b9bf 7a70 67bf b3f7 bbbe 78b1 2fbf
000002c0: c8db 8fbf 38fb 40bf 503f 77bf f163 edbc
000002d0: 0f99 55bf f015 22bf 5c58 e83d 55c7 8abf
000002e0: 6ca1 67be 08c4 bbbe f925 bdbd f023 9ebf
000002f0: bc29 e2bd b8a7 afbf bd90 8ebf dc2d d7be
00000300: b9a1 54bf ad87 7ebf f0b5 25bf 6ea3 17bf
00000310: 074b 75be f608 2bbf 18b1 6fbf 7eb5 13bd
00000320: 5a25 83bd 9beb 54bf ca9c a4bb 82fe abbf
00000330: cf16 66bf 8dd4 48be 4112 d7be d181 9fbf
00000340: c949 78bf 4faf 48bf 1e8c 5dbc 0408 75bf
00000350: c28c b5bf 0f87 84bf b071 8abf 4e56 80bf
00000360: b24a 15bf d79e 24bf 819e e9bc ea04 90bf
00000370: cbd4 b2bd b3ce bfbf c904 5ebf fbdd fa3e
00000380: 2711 96bf 8a69 aebf 3088 0ebf 2c27 93bf
00000390: 49bc 50bf 2121 41bf 93b4 acbf e5ee 1abf
000003a0: ecb6 50bf 5c73 2ebf 7583 8bbf a87e 48bf
000003b0: 7936 4fbf 65ab 55bf 36c2 7abf c9cb 9cbf
000003c0: 1f99 a8bf b401 65bd b472 3bbd 7a14 eebe
000003d0: 22ba 43bd 03e8 09be 6691 a9bf 3e18 0cbf
000003e0: 2f2a 91be 5d6e b6be abbd 3abf c7cd 70bf
000003f0: 8e76 d9bf ae73 19bf 9865 9fbf 4793 33be

bn1.running_mean f4 [400]
0.29599944 -7.295647 -0.87481266 -1.1147746 -3.6094382 -6.7343726 -3.6249216 5.8103285
-3.0986662 7.11123 4.0452504 -4.712429 -3.20774 -3.1761646 -3.573341 4.1467557
-5.0917945 -3.8686955 -1.1607629 -4.03179 1.4462358 -4.1865196 -2.4507482 -6.818801
2.1716056 2.268041 1.8162816 7.998117 -3.9006345 -3.0904603 -1.3011751 0.8325406
0.82542795 0.76559484 -2.3574717 5.857999 -1.4166336 -2.4171467 -2.2787485 -7.595543
-4.9210715 1.7420377 1.8778936 -3.5009987 3.3377833 2.3502007 4.2648067 3.3610966
4.082216 4.13438 -0.0624182 3.998691 -2.217704 1.6849713 -6.5052953 0.66067994
2.7114468 -4.058555 -1.585486 0.43885082 6.3739357 0.44472957 3.2465773 5.2638664
-8.208755 -2.6157231 4.2847595 -4.2421284 -5.454984 0.5200785 -2.550433 -0.19448364
-1.1001945 1.5417191 -2.5776117 -0.7124064 -5.3756266 -3.0389688 -4.976181 -4.6081424
0.13809091 -1.1556756 0.8818226 0.9699277 -5.8897924 4.0847464 2.0198262 -8.803373
2.6565936 -2.2785208 3.8720732 0.13070795 -1.7749865 4.3070006 7.9073052 -1.9233644
0.7229249 2.5423627 2.119231 -5.641931 1.6337067 -2.770833 -1.0413439 10.626058
2.345367 -9.365347 2.7960148 2.8286884 -5.183943 5.975486 4.6443424 -0.17058948
1.7244966 0.048982114 -2.0336466 -0.9253853 -7.2309065 -2.0236676 0.096235014 7.2136154
-0.2194575 -0.12117413 2.1039462 -7.277053 -6.536655 2.8866122 -1.0072943 0.5942083
-0.71609443 -2.940894 1.1043587 -1.1514907 3.9202228 -9.487259 -1.9040087 -1.7306012
1.8032441 -1.1986562 -1.9212188 3.31244 -1.5619774 -2.3528223 -3.1077745 1.5968722
0.016775584 -3.9166312 0.69394034 -2.6315577 8.424862 -3.2264438 -2.3214626 -5.260456
1.9492092 4.173833 -1.2376934 -1.178479 -0.6586226 2.0687363 2.3708148 -0.9987482
-2.8392553 -4.2343993 4.509495 0.08868815 4.773455 1.5677875 -0.2759977 -4.4122224
8.06605 -5.0325103 5.1950784 -7.800034 -2.9586086 -5.051058 -5.880424 -0.3085071
-4.7212424 2.4529119 2.910608 0.9462638 -3.4655883 -0.46898326 3.8805468 0.19005278
-2.2095315 -5.8487678 -0.17679317 -1.2637157 -1.348637 3.3414996 -0.9540242 0.038346346
-3.1023228 2.5502229 1.6541979 4.155777 4.6591854 -3.2322493 -1.0095048 -0.024832882
1.2176855 1.9832511 3.3090246 -3.1136444 -0.30369177 0.13328663 -2.00383 -2.0576751
-1.7728825 6.4152064 3.3642156 3.390668 -4.55528 4.4380207 -0.8364315 -2.4491937
3.4035366 -0.4111434 2.2369514 -11.661861 -2.7227821 -3.9352512 0.49670193 7.1049967
0.52838296 -6.372737 3.0279307 -2.391721 -0.27262992 -6.5905023 0.7210217 8.342673
3.7602835 2.0743983 -2.722308 1.4639914 1.2382787 -2.3651586 -1.8138477 -6.7438545
3.4758775 3.5619106 4.2536516 4.5720496 -0.09822289 3.793473 4.804837 -1.4425559
-5.5668063 0.09590996 1.0495591 -0.49851626 1.118031 3.349839 1.7361026 0.76204944
00000000: 3d8d 973e f175 e9c0 b9f3 5fbf efb0 8ebf
00000010: 0901 67c0 fb7f d7c0 b7fe 67c0 36ee b940
00000020: 8c50 46c0 328f e340 b172 8140 38cc 96c0
00000030: 9d4b 4dc0 4846 4bc0 9eb1 64c0 39b2 8440
00000040: fbef a2c0 b598 77c0 e193 94bf 6c04 81c0
00000050: 411e b93f f8f7 85c0 0fd9 1cc0 9e33 dac0
00000060: 96fb 0a40 9527 1140 ea7b e83f 93f0 ff40
00000070: ffa3 79c0 1aca 45c0 e88c a6bf 6121 553f
00000080: 3f4f 533f 06fe 433f d1e0 16c0 ba74 bb40
00000090: 4054 b5bf 88b2 1ac0 04d7 11c0 b00e f3c0
000000a0: 6b79 9dc0 17fb de3f d15e f03f 5d10 60c0
000000b0: 3e9e 5540 b069 1640 4c79 8840 351c 5740
000000c0: 83a1 8240 d74c 8440 3aaa 7fbd 8eea 7f40
000000d0: ddee 0dc0 24ad d73f 612b d0c0 5222 293f
000000e0: 5888 2d40 afdf 81c0 35f1 cabf 0eb1 e03e
000000f0: 48f7 cb40 98b3 e33e ecc7 4f40 9871 a840
00000100: 0f57 03c1 0268 27c0 c01c 8940 84bf 87c0
00000110: 3b8f aec0 dd23 053f 4b3a 23c0 b826 47be
00000120: 2cd3 8cbf 0d57 c53f 97f7 24c0 4460 36bf
00000130: 2205 acc0 777e 42c0 e03c 9fc0 e775 93c0
00000140: b467 0d3e 2eed 93bf 20bf 613f 2f4d 783f
00000150: 2e79 bcc0 3eb6 8240 d544 0140 9eda 0cc1
00000160: a105 2a40 49d3 11c0 0cd0 7740 4ed8 053e
00000170: c232 e3bf f3d2 8940 a508 fd40 ce30 f6bf
00000180: 9b11 393f 12b6 2240 7ba1 0740 b38a b4c0
00000190: 4d1d d13f 5455 31c0 c24a 85bf 5504 2a41
000001a0: 7e1a 1640 76d8 15c1 e8f1 3240 3b09 3540
000001b0: dce2 a5c0 2e37 bf40 749e 9440 02af 2ebe
000001c0: 4ebc dc3f 78a1 483d 4427 02c0 0de6 6cbf
000001d0: 9663 e7c0 c583 01c0 dd16 c53d f0d5 e640
000001e0: 78b9 60be 242a f8bd 0ea7 0640 9edd e8c0
000001f0: 472c d1c0 41be 3840 05ef 80bf 091e 183f
00000200: f751 37bf 9b37 3cc0 a05b 8d3f 0c64 93bf
00000210: eee4 7a40 d0cb 17c1 8fb6 f3bf 5784 ddbf
00000220: b4d0 e63f 916d 99bf 7fea f5bf 04ff 5340
00000230: e0ee c7bf a494 16c0 c7e5 46c0 4f66 cc3f
00000240: f36c 893c 16aa 7ac0 13a6 313f 716b 28c0
00000250: 3ccc 0641 0e7e 4ec0 d892 14c0 a855 a8c0
00000260: b07f f93f 0a90 8540 bd6c 9ebf 66d8 96bf
00000270: 7e9b 28bf 2d66 0440 6ebb 1740 f6ad 7fbf
00000280: 5cb6 35c0 3380 87c0 c84d 9040 22a2 b53d
00000290: 25c0 9840 43ad c83f 924f 8dbe ed30 8dc0
000002a0: 8a0e 0141 530a a1c0 153e a640 e199 f9c0
000002b0: d859 3dc0 44a2 a1c0 6f2c bcc0 a5f4 9dbe
000002c0: 6b14 97c0 82fc 1c40 6747 3a40 583e 723f
000002d0: 33cc 5dc0 931e f0be e15a 7840 329d 423e
000002e0: f768 0dc0 1b29 bbc0 4509 35be 70c1 a1bf
000002f0: 23a0 acbf 21db 5540 ee3a 74bf 0f11 1d3d
00000300: 758c 46c0 da36 2340 c2bc d33f 20fc 8440
00000310: 0c18 9540 2cdd 4ec0 7437 81bf 546e cbbc
00000320: 1edd 9b3f 2cdb fd3f 0fc7 5340 f345 47c0
00000330: 7d7d 9bbe 4a7c 083e c03e 00c0 f3b0 03c0
00000340: d0ed e2bf 5f49 cd40 4f4f 5740 b400 5940
00000350: dbc4 91c0 4404 8e40 6020 56bf 97bf 1cc0
00000360: 8bd3 5940 6381 d2be 362a 0f40 fc96 3ac1
00000370: 1042 2ec0 28db 7bc0 b74f fe3e 225c e340
00000380: 1b44 073f 76ed cbc0 9ec9 4140 f511 19c0
00000390: 2696 8bbe 65e5 d2c0 e194 383f 977b 0541
000003a0: 7ca8 7040 f1c2 0440 4b3a 2ec0 1264 bb3f
000003b0: eb7f 9e3f c25e 17c0 292c e8bf a8cd d7c0
000003c0: c774 5e40 58f6 6340 ea1d 8840 3b4e 9240
000003d0: 1529 c9bd 43c8 7240 3ac1 9940 aca5 b8bf
000003e0: 4723 b2c0 716c c43d f457 863f 863d ffbe
000003f0: a41b 8f3f c363 5640 9c38 de3f ac15 433f

bn1.running_var f4 [400]
54.811447 25.592495 128.22986 82.23262 47.038574 161.76717 46.283916 155.87486
195.27809 101.74791 178.99011 169.63248 31.844446 27.480478 151.07866 21.88297
92.28917 28.403381 63.87755 37.558117 113.19683 189.61089 62.246006 62.936687
105.58607 87.477776 20.994875 56.61571 139.30453 102.27643 107.60036 389.68915
47.900936 4.686711 50.045166 37.80609 16.50267 90.48742 231.42859 104.5898
28.97276 89.25944 99.3797 69.27349 72.74428 96.987625 69.096565 71.30175
80.36317 86.23219 0.6216145 162.16968 29.053722 132.23051 65.06555 59.675575
89.344604 74.62343 53.861004 123.556786 294.1628 74.26156 46.90072 118.80272
86.7364 101.34525 67.89506 83.968285 28.392561 80.295105 128.44832 46.964756
13.636918 105.45214 37.560616 62.334476 167.15234 117.23462 78.94543 110.85438
127.42315 63.160286 64.32403 19.972311 73.97448 33.2199 74.4919 147.91335
65.99377 49.64285 152.55988 10.249268 201.4353 45.27261 54.36072 205.33224
15.244704 229.70679 61.315933 56.819546 161.5463 148.56926 65.613335 31.324034
8.578153 45.380394 71.05814 21.099953 41.73996 99.855034 44.91222 0.074349046
20.30988 167.28693 43.885094 21.152723 52.96065 21.723907 0.4068594 162.87779
106.25711 2.178464 39.403698 62.044872 41.174736 58.304028 72.21521 323.7499
18.217196 79.567825 319.2834 23.81893 133.60216 52.444317 80.848465 87.85844
35.747475 22.580708 212.55125 94.9611 224.57713 73.527596 154.88054 92.419304
136.77875 88.144806 208.032 32.64149 38.72671 184.99533 116.05269 115.78296
54.025547 37.10325 15.236665 136.32089 102.22474 208.22202 27.66156 58.564396
40.149593 126.39819 217.6217 78.45622 74.806854 129.29195 71.37695 29.747246
105.83012 212.87047 107.92477 95.32362 103.92393 104.27099 51.132053 85.01211
62.2504 8.011975 133.95787 44.91087 91.922195 90.40163 20.102688 46.834026
112.83523 51.246025 66.650665 165.96518 77.478065 242.36145 99.271614 83.27672
48.85128 48.56886 77.70594 261.90244 55.799133 79.75579 69.45485 0.084617496
7.7670164 55.448494 53.4037 190.65349 125.42885 36.108513 28.56061 112.030014
71.289925 88.88729 200.28139 171.68933 128.77065 63.45073 76.33931 54.816708
122.52407 15.026035 51.266197 142.22964 79.34154 254.29631 66.9423 16.768913
74.25791 44.2974 58.04052 121.1076 131.13402 155.87479 135.1992 247.86707
105.06536 192.73337 67.61203 113.33522 64.22722 279.46365 103.46374 148.84808
63.82987 135.3189 43.323612 87.97123 0.2215114 111.85663 210.72157 87.89186
44.179577 54.841625 112.714455 212.57759 112.37195 125.42495 96.38394 156.29993
00000000: ec3e 5b42 6ebd cc41 d83a 0043 1a77 a442
00000010: 8027 3c42 65c4 2143 bb22 3942 f7df 1b43
00000020: 3147 4343 ee7e cb42 78fd 3243 eaa1 2943
00000030: 6dc1 fe41 05d8 db41 2314 1743 5310 af41
00000040: 0e94 b842 203a e341 9c82 7f42 833b 1642
00000050: c764 e242 639c 3d43 e9fb 7842 2bbf 7b42
00000060: 112c d342 9ff4 ae42 81f5 a741 7d76 6242
00000070: f64d 0b43 888d cc42 6233 d742 36d8 c243
00000080: 8f9a 3f42 89f9 9540 402e 4842 7039 1742
00000090: 7805 8441 8ff9 b442 b86d 6743 fa2d d142
000000a0: 36c8 e741 d584 b242 68c2 c642 078c 8a42
000000b0: 127d 9142 aaf9 c142 7131 8a42 7f9a 8e42
000000c0: f1b9 a042 e276 ac42 2122 1f3f 702b 2243
000000d0: 066e e841 033b 0443 9021 8242 cab3 6e42
000000e0: 70b0 b242 323f 9542 ab71 5742 131d f742
000000f0: d714 9343 eb85 9442 569a 3b42 fe9a ed42
00000100: 0979 ad42 c5b0 ca42 45ca 8742 c3ef a742
00000110: f723 e341 1897 a042 c572 0043 e9db 3b42
00000120: d130 5a41 7fe7 d242 123e 1642 8156 7942
00000130: 0027 2743 2078 ea42 0fe4 9d42 71b5 dd42
00000140: a7d8 fe42 22a4 7c42 e7a5 8042 4bc7 9f41
00000150: eff2 9342 2de1 0442 dafb 9442 d1e9 1343
00000160: cffc 8342 4792 4642 548f 1843 00fd 2341
00000170: 706f 4943 2717 3542 6171 5942 0e55 4d43
00000180: 4fea 7341 f0b4 6543 8443 7542 3747 6342
00000190: da8b 2143 bb91 1443 073a 8342 9f97 fa41
000001a0: 1d40 0941 8685 3542 c51d 8e42 b4cc a841
000001b0: b8f5 2642 c7b5 c742 1da6 3342 5044 983d
000001c0: a27a a241 7449 2743 568a 2f42 c738 a941
000001d0: b5d7 5342 90ca ad41 e04f d03e b7e0 2243
000001e0: a483 d442 f46b 0b40 639d 1d42 f32d 7842
000001f0: eeb2 2442 5337 6942 306e 9042 fddf a143
00000200: d1bc 9141 ba22 9f42 46a4 9f43 2b8d be41
00000210: 279a 0543 fbc6 5142 6ab2 a142 85b7 af42
00000220: 6afd 0e42 4aa5 b441 1f8d 5443 15ec bd42
00000230: bf93 6043 210e 9342 6be1 1a43 afd6 b842
00000240: 5cc7 0843 244a b042 3108 5043 e390 0242
00000250: 27e8 1a42 cefe 3843 fa1a e842 e090 e742
00000260: 291a 5842 ba69 1442 61c9 7341 2652 0843
00000270: 1173 cc42 d638 5043 e04a dd41 f141 6a42
00000280: 2f99 2042 e0cb fc42 289f 5943 96e9 9c42
00000290: 1c9d 9542 bd4a 0143 00c1 8e42 5cfa ed41
000002a0: 05a9 d342 d7de 5443 7bd9 d742 b2a5 be42
000002b0: 0dd9 cf42 bf8a d042 3987 4c42 3306 aa42
000002c0: 6900 7942 0d31 0041 37f5 0543 bba4 3342
000002d0: 2ad8 b742 a2cd b442 4ed2 a041 0b56 3b42
000002e0: a3ab e142 eefb 4c42 244d 8542 16f7 2543
000002f0: c5f4 9a42 885c 7243 118b c642 ae8d a642
00000300: b667 4342 8346 4242 7169 9b42 83f3 8243
00000310: 5032 5f42 f782 9f42 e2e8 8a42 f04b ad3d
00000320: 668b f840 42cb 5d42 649d 5542 4ba7 3e43
00000330: 92db fa42 1e6f 1042 217c e441 5e0f e042
00000340: 7194 8e42 4bc6 b142 0948 4843 78b0 2b43
00000350: 49c5 0043 8ccd 7d42 baad 9842 4f44 5b42
00000360: 530c f542 a46a 7041 9610 4d42 ca3a 0e43
00000370: deae 9e42 db4b 7e43 75e2 8542 bc26 8641
00000380: 0d84 9442 8a30 3142 7e29 6842 1737 f242
00000390: 4f22 0343 f2df 1b43 ff32 0743 f8dd 7743
000003a0: 7721 d242 bebb 4043 5c39 8742 a2ab e242
000003b0: 5674 8042 59bb 8b43 6fed ce42 1cd9 1443
000003c0: c951 7f42 a351 0743 614b 2d42 45f1 af42
000003d0: e2d3 623e 98b6 df42 b9b8 5243 a2c8 af42
000003e0: e3b7 3042 d35d 5b42 cd6d e142 dd93 5443
000003f0: 70be e042 93d9 fa42 94c4 c042 c84c 1c43

fc2.weight f4 [300, 404]
0.3925044 -0.4743512 -0.13948837 -0.23896061 -0.43658122 1.03628 -0.6035761 0.05142789
-0.049273614 0.033455297 0.2329491 0.4934378 0.17344192 0.6670753 -1.7512321 0.81114894
-0.6642758 -0.74914217 -0.15222625 -0.643798 0.49349886 0.93414056 -1.5348611 1.3748087
-0.8693303 0.71651894 -0.6959937 0.06577584 -1.1171669 0.061112158 0.14523263 1.3202649
0.07147947 0.02934489 -1.095792 0.47003812 0.7708209 0.045148212 0.76024544 -0.8508736
-0.86360586 0.12598704 0.2037682 1.467883 -0.35676366 0.00941281 -0.12717389 0.052750442
0.8046704 0.06520367 -0.024946507 -0.21966103 -0.09281133 -0.075009376 0.16385631 -0.7233955
0.55987406 -0.543625 0.148303 -0.02605732 -0.9534657 -0.1899397 1.3579712 -0.8106037
0.89163417 -0.52908075 -0.22685535 0.21518402 -0.9893396 0.24985462 0.10783067 -0.8001171
-0.49490905 0.09698903 0.027844312 -1.6382589 0.41050506 -0.10273726 0.5842473 0.27798226
0.72034365 0.14521524 -0.33173528 0.08306301 0.07744472 -0.06237047 0.20799835 0.34138224
0.4170474 0.03362503 0.27987805 -0.36555684 0.055630077 0.27525768 -0.18426393 -1.4743267
-0.42989126 0.90446377 0.08032908 -0.034658324 0.12028435 -0.40225106 -1.1062288 -0.20118424
0.19119973 -0.14089377 0.26798415 -0.49463618 0.34448683 -1.6475623 0.35784557 0.014188132
0.07704308 -0.12475479 -0.110565096 0.19091903 -2.500231 0.32385388 -0.046147097 0.24185151
0.28190136 -0.019767506 0.65003806 1.515961 1.0832133 -0.026602063 0.16376269 0.0020068246
-0.533068 1.2875731 -0.030189028 0.09664967 0.26309827 0.45530057 -1.1223363 0.83840984
-0.13100538 -2.8168354 0.20892341 0.7591161 -0.50118303 0.52499914 0.4181906 -1.8396751
1.4853657 0.28556994 0.1770228 0.20125856 0.30278963 -0.72215253 -2.1073196 0.9232114
-1.0860043 -0.08868206 -0.63760114 0.6465031 -0.88424176 0.49247876 -0.3714008 -1.1012691
-0.82217264 -0.8623821 1.2823967 -0.12096536 -0.9805696 0.0071252375 -1.5551805 0.0058861314
0.41634646 -0.69896555 -0.45451945 0.57198364 0.25629947 -0.42963347 0.7643864 -0.68006474
0.3326249 -0.5938357 1.3352258 0.64247805 -0.078395136 0.21986184 -0.027926357 -1.1806401
-0.063285105 0.2782759 -0.78203577 2.1163046 -0.45927992 0.14570045 -0.63302875 -0.15080519
0.03940906 0.11978965 0.3258823 0.35148987 0.4578631 0.17470112 0.07630209 -0.02985096
-0.35340232 -0.5317919 0.1812158 -0.49653196 0.06073371 0.11380333 -0.028685424 -0.2832706
0.65937144 0.27894643 -0.009115549 0.44691834 -0.92388767 0.99214166 0.07752108 0.7954515
0.11351298 -1.12883 -0.63263553 -1.7223767 -0.6483759 0.67672044 0.94124883 0.018546257
-0.4978553 -0.0321869 0.88133854 -0.67699105 0.44209057 0.012146353 -0.17174342 0.9193378
0.5683408 0.8307087 -0.8301832 0.3800417 -0.05036086 -1.0127844 -1.2419068 -0.05030475
-0.09408988 0.22652969 -0.21995457 -0.06534018 0.03870262 0.21864535 -1.0752823 -0.6116504
1.1594906 -0.029492287 -0.02217972 0.23270357 0.926097 -1.8182355 1.8398544 0.29448214
00000000: 56f6 c83e 29de f2be 0ad6 0ebe 17b2 74be
00000010: 9387 dfbe d3a4 843f f783 1abf 0da6 523d
00000020: 21d3 49bd 6c08 093d 358a 6e3e e1a3 fc3e
00000030: c29a 313e 72c5 2a3f 6028 e0bf 75a7 4f3f
00000040: fb0d 2abf c8c7 3fbf 33e1 1bbe f2cf 24bf
00000050: e2ab fc3e d623 6f3f 5476 c4bf bbf9 af3f
00000060: 6e8c 5ebf c96d 373f a52c 32bf 7cb5 863d
00000070: 53ff 8ebf be50 7a3d ddb7 143e 71fe a83f
00000080: d463 923d b264 f03c ea42 8cbf d6a8 f03e
00000090: 8554 453f 55ed 383d 729f 423f dad2 59bf
000000a0: 4615 5dbf bf02 013e 9ca8 503e 97e3 bb3f
000000b0: baa9 b6be 3038 1a3c df39 02be d910 583d
000000c0: e1fe 4d3f 8089 853d 9e5c ccbc d2ee 60be
000000d0: de13 bebd 849e 99bd f3c9 273e 7330 39bf
000000e0: e853 0f3f 022b 0bbf bedc 173e 2976 d5bc
000000f0: 5416 74bf 8d7f 42be 00d2 ad3f b983 4fbf
00000100: 2342 643f d671 07bf c54c 68be 3359 5c3e
00000110: 5c45 7dbf e4d9 7f3e 54d6 dc3d 79d4 4cbf
00000120: b864 fdbe 2fa2 c63d c119 e43c 78b2 d1bf
00000130: b82d d23e ea67 d2bd 3b91 153f b153 8e3e
00000140: 7168 383f 4eb3 143e 35d9 a9be f01c aa3d
00000150: 569b 9e3d 2e78 7fbd 85fd 543e a7c9 ae3e
00000160: 3d87 d53e 66ba 093d 2d4c 8f3e 442a bbbe
00000170: 5ddc 633d 93ee 8c3e afaf 3cbe bdb6 bcbf
00000180: b51a dcbe f08a 673f 9383 a43d e3f5 0dbd
00000190: a457 f63d daf3 cdbe e898 8dbf 3e03 4ebe
000001a0: ddc9 433e 7546 10be 3835 893e f440 fdbe
000001b0: 9460 b03e 52e3 d2bf 8937 b73e 5775 683c
000001c0: c3c8 9d3d 707f ffbd f46f e2bd 4780 433e
000001d0: c903 20c0 2dd0 a53e bd04 3dbd eca7 773e
000001e0: 6055 903e 77ef a1bc e568 263f 030b c23f
000001f0: bca6 8a3f 92ec d9bc 68b1 273e ee84 033b
00000200: 2577 08bf 32cf a43f fb4e f7bc 43f0 c53d
00000210: d1b4 863e 281d e93e b7a8 8fbf 07a2 563f
00000220: 4626 06be 0847 34c0 05f0 553e 6f55 423f
00000230: 884d 00bf 5866 063f 141d d63e 797a ebbf
00000240: 7720 be3f 3936 923e 7745 353e b916 4e3e
00000250: 3e07 9b3e fdde 38bf 53de 06c0 9557 6c3f
00000260: 3002 8bbf f19e b5bd d439 23bf 3a81 253f
00000270: ab5d 62bf 2d26 fc3e 3f28 bebe 63f6 8cbf
00000280: e879 52bf 13c5 5cbf 9325 a43f b0bc f7bd
00000290: 9c06 7bbf d37a e93b 2810 c7bf 73e0 c03b
000002a0: 5d2b d53e 68ef 32bf c6b6 e8be 856d 123f
000002b0: af39 833e ebf8 dbbe d4ae 433f b918 2ebf
000002c0: d04d aa3e 9e05 18bf aee8 aa3f 7179 243f
000002d0: a18d a0bd 7623 613e d1c5 e4bc 371f 97bf
000002e0: 9f9b 81bd 2e7a 8e3e 7f33 48bf 8971 0740
000002f0: bd26 ebbe 8032 153e 2c0e 22bf ad6c 1abe
00000300: 656b 213d 4754 f53d 0bda a63e 7bf6 b33e
00000310: 086d ea3e dae4 323e 4544 9c3d 008a f4bc
00000320: 26f1 b4be 8423 08bf a290 393e 7039 febe
00000330: e9c3 783d b811 e93d b2fd eabc d808 91be
00000340: 91cc 283f 11d2 8e3e 6259 15bc 7bd2 e43e
00000350: e783 6cbf fffc 7d3f 5fc3 9e3d b6a2 4b3f
00000360: 7e79 e83d 807d 90bf 67f4 21bf d776 dcbf
00000370: f7fb 25bf 8d3d 2d3f aff5 703f 52ee 973c
00000380: e4e6 febe 69d6 03bd 679f 613f 494f 2dbf
00000390: b259 e23e 7f01 473c 82dd 2fbe b959 6b3f
000003a0: c87e 113f 53a9 543f e386 54bf d394 c23e
000003b0: 3047 4ebd eba2 81bf cdf6 9ebf 5b0c 4ebd
000003c0: 32b2 c0bd 66f7 673e c53b 61be 13d1 85bd
000003d0: a386 1e3d 91e4 5f3e daa2 89bf 1f95 1cbf
000003e0: 306a 943f cf99 f1bc 3fb2 b5bc d849 6e3e
000003f0: b114 6d3f f1bb e8bf 5980 eb3f 5dc6 963e

fc2.bias f4 [300]
0.5148428 -0.0722013 -0.30522788 0.07386152 -0.015903613 -0.14591902 0.47374046 -0.6899432
-0.11764063 -0.07251781 -0.106184244 -0.15247628 -0.13463281 0.49532154 -0.0926402 -0.111839816
0.013499954 -0.7547313 -0.12035068 -0.09124282 0.28644764 -0.13160741 -1.5658368 -0.12239732
-0.07428139 -0.07314034 -0.07727149 -0.08875325 -0.063444905 -0.1256133 0.419873 1.3851944
-0.09204761 -0.076820076 -0.09739077 -0.055958927 -0.12203321 -0.08270882 -0.07928605 -0.15380462
-0.8432157 0.7414298 -0.12666743 -0.02538838 0.89297724 0.6859863 -0.09650789 0.7922504
0.3651414 -0.16863929 0.2543502 -0.11698649 1.1982832 -0.12720777 -0.031284865 -0.060558777
-0.08599082 -0.09708078 -0.0953153 -0.027239012 -0.044604495 -0.11696648 -0.08470969 -0.11133444
-0.12818217 -0.053071808 -0.1321507 -0.6156721 -0.058265552 -0.08878381 -0.09761356 -0.612492
-0.12996107 -0.03882872 -0.1129053 -0.06424612 -0.10352774 -0.07916883 1.3892866 -0.0626367
-0.096588425 -0.098848544 -0.09117396 -0.07577176 -0.08067352 0.54511315 -0.011183244 -0.09463464
-0.129864 -0.092359774 0.9812755 -0.11110938 -0.07639178 -0.023491647 0.09134522 -0.06903751
-0.10494706 -0.11832628 0.6288172 -0.07563186 2.1637943 -0.24870993 0.95547265 0.19143863
0.23942256 0.7356119 -0.12254127 -0.054366075 -0.054792643 -0.05855207 -0.5889798 1.0227981
-0.07395551 -0.133625 -0.21831885 -0.12030317 0.39156756 1.0836319 1.6862563 -0.083659545
1.1504432 2.0182543 1.0057186 0.3467327 -0.098709434 -0.99173915 -0.12938 -0.08407201
-0.1272197 -0.07708819 -0.05893511 -0.11115973 1.2607188 -0.05464021 -0.31635386 0.8773208
-0.110604115 0.2535462 -0.089866646 0.38724297 -0.12414144 1.1180164 -0.10322695 -0.09753611
-0.08863794 -0.06496123 -0.114575244 -0.07106047 0.58030933 -0.09480089 -0.46009874 0.27695706
-0.0764715 -0.038080554 -0.103821605 -0.04771174 -0.0879523 -0.08784346 -0.052693218 0.4465875
-0.05114663 -0.108199835 -0.065260254 -0.060862757 -0.0878983 0.44671956 -0.08067582 -0.06805775
-0.09255468 -1.5597154 -0.08681465 -0.07823816 0.9736296 -0.0894526 1.325526 -0.058544125
-0.098648325 -0.07237304 -0.09952508 -1.7425356 -0.06652059 -0.048020758 -0.5614967 -0.64249533
-0.48380023 -0.08644763 0.8660275 -0.09649049 1.1894153 -0.08735772 -0.09004871 -0.541902
-0.12301269 2.199247 -0.067734845 0.18872243 -0.06463674 -0.10269258 -0.093061335 -0.094323054
1.2817346 -0.18767567 -0.023247601 0.056526423 0.81341684 -0.08442654 -0.098208606 -0.06863211
-0.15846811 -0.08825254 -0.12202379 -0.081842616 -0.13738148 -0.091900304 -0.61794204 -0.39100114
-0.08000297 -0.09263155 -0.06836231 1.2915407 -0.06271659 -0.16301805 -0.080832325 -0.08105586
-0.07637123 -0.05984532 -0.10572091 -0.046894506 -0.047288924 -0.05313387 -0.058077242 -0.1306215
-0.08521695 -0.06631186 -0.085072376 -0.38480842 -0.106006615 -0.050008282 -0.068108134 -1.0602555
0.6767646 -0.08844668 -0.7109035 -0.11737953 1.1059039 0.38530526 -0.08455073 -0.071021505
0.030740563 -0.2353427 -0.08348702 -0.8224608 -0.0746795 -0.049499642 -0.1355991 -0.06329192
00000000: bdcc 033f 46de 93bd d446 9cbe b544 973d
00000010: 4b48 82bc cc6b 15be 1c8e f23e 1ea0 30bf
00000020: 92ed f0bd 3884 94bd 2077 d9bd be22 1cbe
00000030: 2fdd 09be c99a fd3e 25ba bdbd 460c e5bd
00000040: e92e 5d3c 1236 41bf 6b7a f6bd 84dd babd
00000050: 44a9 923e 18c4 06be 576d c8bf 72ab fabd
00000060: d720 98bd 9aca 95bd 8440 9ebd 44c4 b5bd
00000070: 67ef 81bd c6a0 00be 98f9 d63e 0d4e b13f
00000080: 7583 bcbd d853 9dbd d074 c7bd 3035 65bd
00000090: 8cec f9bd 3e63 a9bd b960 a2bd f57e 1dbe
000000a0: fcdc 57bf 58ce 3d3f 1bb5 01be 4bfb cfbc
000000b0: 289a 643f cc9c 2f3f eea5 c5bd ecd0 4a3f
000000c0: d0f3 ba3e c7af 2cbe 303a 823e 9d96 efbd
000000d0: 5861 993f c142 02be 8f24 00bd 7b0c 78bd
000000e0: f41b b0bd 4ad2 c6bd ab34 c3bd 5924 dfbc
000000f0: 34b3 36bd 1f8c efbd 467c adbd 5003 e4bd
00000100: 3042 03be d361 59bd 8352 07be b09c 1dbf
00000110: dca7 6ebd 49d4 b5bd 9ee9 c7bd 47cc 1cbf
00000120: 8414 05be dd0a 1fbd e53a e7bd 7893 83bd
00000130: 5a06 d4bd 4423 a2bd 25d4 b13f ac47 80bd
00000140: 27d0 c5bd 1b71 cabd 6ab9 babd 392e 9bbd
00000150: 2938 a5bd 898c 0b3f ed39 37bc cecf c1bd
00000160: 12fb 04be 1f27 bdbd df34 7b3f 518d e3bd
00000170: 4b73 9cbd 8e71 c0bc 3413 bb3d 8a63 8dbd
00000180: 7cee d6bd 0c55 f2bd 2afa 203f e0e4 9abd
00000190: 9b7b 0a40 d1ad 7ebe db99 743f 7d08 443e
000001a0: 302b 753e 1051 3c3f ebf6 fabd f6ae 5ebd
000001b0: 406e 60bd 4cd4 6fbd 61c7 16bf 0ceb 823f
000001c0: fd75 97bd fed4 08be fa8e 5fbe 8261 f6bd
000001d0: 8b7b c83e 73b4 8a3f 3fd7 d73f b255 abbd
000001e0: b941 933f 142b 0140 63bb 803f f386 b13e
000001f0: 2c28 cabd 9ee2 7dbf 317c 04be f22d acbd
00000200: e245 02be 6ae0 9dbd f165 71bd b6a7 e3bd
00000210: 3c5f a13f 6ace 5fbd 22f9 a1be 1998 603f
00000220: 6984 e2bd cfd0 813e 010c b8bd b644 c63e
00000230: de3d febd 291b 8f3f a768 d3bd 03c1 c7bd
00000240: cf87 b5bd 650a 85bd 6da6 eabd 2788 91bd
00000250: 278f 143f f826 c2bd 1092 ebbe 51cd 8d3e
00000260: 179d 9cbd 5bfa 1bbd 6ca0 d4bd 636d 43bd
00000270: 5620 b4bd 46e7 b3bd d8d4 57bd 1ea7 e43e
00000280: 217f 51bd e097 ddbd 2ba7 85bd 3a4b 79bd
00000290: 0604 b4bd 6db8 e43e 5d39 a5bd dd61 8bbd
000002a0: 4f8d bdbd c1a4 c7bf e1cb b1bd 543b a0bd
000002b0: ca3f 793f ed32 b7bd d6aa a93f f7cb 6fbd
000002c0: 2208 cabd 5138 94bd ced3 cbbd 680b dfbf
000002d0: f23b 88bd 6ab1 44bd 3fbe 0fbf 937a 24bf
000002e0: aab4 f7be 740b b1bd fab3 5d3f ce9c c5bd
000002f0: c33e 983f 9be8 b2bd 756b b8bd 17ba 0abf
00000300: 14ee fbbd 76c0 0c40 91b8 8abd 7440 413e
00000310: 4460 84bd 7d50 d2bd f196 bebd 722c c1bd
00000320: e10f a43f 0d2e 40be c171 bebc 4088 673d
00000330: 163c 503f d2e7 acbd 9821 c9bd fe8e 8cbd
00000340: 7745 22be bfbd b4bd 9ce7 f9bd 1a9d a7bd
00000350: bbad 0cbe 3a36 bcbd 7331 1ebf 4d31 c8be
00000360: 99d8 a3bd 9cb5 bdbd 8a01 8cbd 3551 a53f
00000370: 8e71 80bd 34ee 26be 6b8b a5bd 9d00 a6bd
00000380: 8568 9cbd 5e20 75bd 3484 d8bd 7414 40bd
00000390: 08b2 41bd e7a2 59bd 67e2 6dbd a4c1 05be
000003a0: 3986 aebd 83ce 87bd 6d3a aebd 9c05 c5be
000003b0: ff19 d9bd 7cd5 4cbd 477c 8bbd 74b6 87bf
000003c0: 7240 2d3f 8823 b5bd c6fd 35bf ae64 f0bd
000003d0: 428e 8d3f bb46 c53e ef28 adbd b973 91bd
000003e0: a2d3 fb3c adfd 70be 3efb aabd ca8c 52bf
000003f0: 91f1 98bd 23c0 4abd 7eda 0abe 329f 81bd
