checkpoint_actor_20_agents.pth (torch_old, 548258 bytes, 10 tensors)

fc1.weight f4 [400, 33]
0	0x3f58480d	0.8448494
1	0xbe63de9b	-0.22252886
2	0xbf67bb93	-0.9052059
3	0x3e694886	0.22781572
4	0x3f9f589f	1.244892
5	0xbfdacfcb	-1.7094663
6	0xbdb12c27	-0.086509995
7	0xbb4a1be9	-0.003083939
8	0xbf761a28	-0.9613366
9	0x3f414530	0.75496197
10	0xbe80d0ca	-0.25159293
11	0xbdaeff16	-0.085447475
12	0x3f0d7b42	0.552662
13	0xbf9f7f93	-1.2460808
14	0xbea27df2	-0.31736714
15	0x3f9c50c7	1.2212151
16	0xbf5674f7	-0.83772224
17	0x3ed4ff9d	0.41601267
18	0x3f2b2982	0.6686021
19	0xbedf4949	-0.436106
20	0x3eb2cbf4	0.3492123
21	0xbdbf21cd	-0.09332619
22	0xbe7f471c	-0.2492947
23	0xbf44d943	-0.76894015
24	0xbc9c3908	-0.019070163
25	0xbe4d0735	-0.2002228
26	0x3f78dbea	0.9721056
27	0xbc57f0b5	-0.013179948
28	0xbfb96a0e	-1.448549
29	0x3c598304	0.013275865
30	0x3aa19acc	0.0012329458
31	0xbb7a42a0	-0.0038186684
32	0xc120c3cd	-10.047803
33	0x3ccd995c	0.025097542
34	0x3debc057	0.11511295
35	0x3ffe213e	1.9853895
36	0xbfef8230	-1.8711605
37	0x3f17ed18	0.5934615
38	0x3d4f3588	0.05058816
39	0x3ef949e3	0.48689184
40	0xbf49ac37	-0.78778404
41	0x3f1ce2f0	0.6128378
42	0xc02a4020	-2.6601639
43	0xbf92e0a7	-1.1474808
44	0xbf8ec80a	-1.1154797
45	0x3fa3ac39	1.2786933
46	0x4021ab11	2.526066
47	0xbf5f0147	-0.87111324
48	0x3eca90aa	0.39563495
49	0xbe0c88bb	-0.13724034
50	0x3e49df38	0.19714057
51	0xbea0dfe9	-0.3142083
52	0xbeefb766	-0.4681961
53	0xbde5f1e6	-0.11227779
54	0xbf13b8ed	-0.5770405
55	0x3f3a0187	0.7265858
56	0xbf05bd34	-0.52241826
57	0xbf3bc616	-0.7334913
58	0x3ff39a47	1.9031457
59	0x3e002775	0.12515052
60	0xbc8d5845	-0.017254004
61	0xbf7bfb67	-0.98430485
62	0xbd12bd33	-0.035824966
63	0xbcb9473a	-0.022616971
64	0x3ca6573e	0.020305272
65	0x401540c0	2.332077
66	0x406da945	3.7134564
67	0x3fa664be	1.2999494
68	0xbf009283	-0.5022356
69	0xbeab4fcc	-0.33459318
70	0x400cb3fb	2.1984851
71	0x40064f97	2.0986078
72	0x4006999c	2.1031256
73	0xbf1e8a36	-0.61929643
74	0xbfac7c69	-1.3475467
75	0x3edc2402	0.42996222
76	0x404a99f4	3.1656466
77	0x3f6d19b1	0.92617327
78	0x3e3fc3ff	0.1872711
79	0xbeb10324	-0.3457271
80	0x3f7257c0	0.94665146
81	0x3f23df2f	0.64012426
82	0xbf5c4d1e	-0.8605517
83	0xbe8d91b2	-0.2765022
84	0x3f6fcfdf	0.9367656
85	0x3f875a81	1.0574495
86	0x3f868e98	1.0512266
87	0xbf1b5add	-0.6068552
88	0x3f7aa245	0.97903854
89	0xbfc57bc2	-1.5428393
90	0xbf0f91d1	-0.56081873
91	0x3dc0d1e4	0.094150335
92	0x3dba1193	0.09085383
93	0x3d0d3eb3	0.034483623
94	0xbdf50f15	-0.11965767
95	0x3d417d1b	0.04723845
96	0x3cd1a338	0.025590524
97	0x3d2f3c49	0.0427821
98	0xbed997db	-0.4249867
99	0xbe81cb4b	-0.25350413
100	0x3f976d1d	1.1830174
101	0x3faa4a60	1.3303947
102	0xbf4f742b	-0.81036633
103	0x3e5a4bff	0.21318053
104	0x40040250	2.0626411
105	0x3fad114d	1.3520905
106	0xbf5faf8e	-0.8737725
107	0x3fe26f4f	1.7690219
108	0xbf033eb2	-0.5126754
109	0xbef731b7	-0.48280117
110	0x3f9bae0d	1.2162491
111	0xbdefc645	-0.11707739
112	0xbffa6e59	-1.9564925
113	0x3d8899a8	0.066699326
114	0x3f05924a	0.52176344
115	0x3cccb2a7	0.024987532
116	0x3f43d46e	0.76496017
117	0xbe2e770f	-0.17037605
118	0xbf2cc67c	-0.67490363
119	0x3f24502a	0.6418482
120	0xbef02a1c	-0.46907127
121	0x3f83e1e2	1.0303309
122	0xbfa8bd08	-1.3182688
123	0xbf405230	-0.7512541
124	0x3f5ccb2f	0.86247534
125	0x3feaf81f	1.835697
126	0xbcdf6cd6	-0.027273577
127	0x3f753c82	0.9579545
128	0xbce62aa3	-0.028096503
129	0xbb8bd8fc	-0.00426781
130	0x3c9ac972	0.018894885
131	0x3d45e1b9	0.04831097
132	0x3efadf47	0.48998472
133	0x3fa75825	1.3073775
134	0x3ed4caae	0.41560882
135	0xc01b36d8	-2.4252224
136	0xbfcc91f6	-1.5982044
137	0x3ed0426a	0.4067567
138	0xc01f99f3	-2.4937713
139	0x3ea8e7dc	0.32989395
140	0xbfafe059	-1.374034
141	0x3fa68c74	1.3011613
142	0xbb65e088	-0.0035076458
143	0xbe982552	-0.29715973
144	0x3e5f05c7	0.21779548
145	0x3f80f05c	1.0073352
146	0xbf51fdb6	-0.8202776
147	0xbcecd40b	-0.028909704
148	0x3f28b698	0.65903616
149	0xbf2985c8	-0.6621976
150	0x3f5c4b07	0.8605198
151	0x3e551671	0.20809342
152	0xbcadf720	-0.021236002
153	0xbd41fa0d	-0.047357608
154	0xbe4578a2	-0.19284299
155	0x3f11f156	0.57008874
156	0xbe953b05	-0.2914659
157	0xbe5f5052	-0.21807984
158	0xbfd92f1e	-1.6967504
159	0xbc8c5ecb	-0.017135045
160	0xbfa6ee7e	-1.3041532
161	0xba8c2da0	-0.001069475
162	0x3b85b000	0.0040798187
163	0xbcabe0ba	-0.020981181
164	0x40e29ba0	7.081497
165	0x3f6ccc19	0.9249893
166	0x3ed3cc87	0.4136698
167	0xbf39fb08	-0.7264867
168	0xbf9890cf	-1.1919192
169	0xbf05c32c	-0.52250934
170	0xbcfd3b4f	-0.03091207
171	0xc0075f07	-2.115175
172	0xc0020e0f	-2.032108
173	0x3f529bd9	0.82269055
174	0x402b6e6f	2.6786153
175	0xbf038680	-0.51377106
176	0xbf4898df	-0.7835826
177	0x401047da	2.2543855
178	0xbe256cc4	-0.16154772
179	0x3f8f7ed2	1.1210577
180	0x3e7910bc	0.2432279
181	0xbe7579ec	-0.23972291
182	0xbf16f3fc	-0.5896604
183	0x3fcb9858	1.5905867
184	0xbef1163c	-0.47087276
185	0x3f3314f7	0.69953865
186	0x3f92f630	1.148138
187	0x3f5e7405	0.8689578
188	0x3f657048	0.8962445
189	0xbecf028a	-0.40431625
190	0xbce30727	-0.027713371
191	0x3f85f09f	1.0464057
192	0xbc2fdcd3	-0.010733801
193	0x3e5836bc	0.2111463
194	0x3d0d8bd9	0.034557197
195	0x3b56b525	0.003276178
196	0xbcbe177a	-0.023204554
197	0xc0d5b87a	-6.678769
198	0xc024ef51	-2.5771067
199	0x3f8f1ccc	1.1180663
200	0xbf1a3db0	-0.6025038
201	0x3eced09f	0.4039354
202	0xbeed88c2	-0.463934
203	0xc03e2ef2	-2.9716153
204	0xc015a720	-2.3383255
205	0xbf456447	-0.77106136
206	0xbff0bc1c	-1.8807406
207	0xbfc633cd	-1.5484558
208	0x3e8edc62	0.27902514
209	0x3f1c0bf4	0.6095574
210	0xbf14be56	-0.5810293
211	0x3f8a61ee	1.0811136
212	0x3f79b27a	0.9753796
213	0xc012967e	-2.2904353
214	0x3f19f6fe	0.60142505
215	0xbf0b8035	-0.54492503
216	0xbe92be85	-0.2866098
217	0x3dcd3298	0.100194156
218	0xbf45a025	-0.77197486
219	0x3f9f16be	1.2428815
220	0x3f928d2d	1.1449333
221	0xbf08cf0c	-0.5344093
222	0x3e32ae40	0.17449284
223	0x3d308eda	0.043104984
224	0x3f755918	0.9583907
225	0x3c4dd908	0.012563951
226	0xbedcacec	-0.4310068
227	0x3d2bbab5	0.041926105
228	0xba79f840	-0.00095355883
229	0xbc1d0e60	-0.009585947
230	0x3f2b61ee	0.66946304
231	0x3ee7f67b	0.45305237
232	0xbfa5f725	-1.2966048
233	0xbfaffff6	-1.3749988
234	0x3c444cc1	0.01198119
235	0x3f3eb08b	0.74488133
236	0xbfb16ffd	-1.3862301
237	0x3ef15627	0.47136042
238	0xbfbf857c	-1.4962611
239	0xbf0abce7	-0.5419449
240	0xbfeca9f4	-1.8489366
241	0xbfc305d9	-1.523616
242	0x3f52c49c	0.8233125
243	0xbf479911	-0.77967936
244	0xbde3a3fb	-0.11115261
245	0x3dc2063d	0.09473846
246	0x3fad89e7	1.355771
247	0x3fc43444	1.532845
248	0xbfdb7ba7	-1.7147111
249	0xbfc8f149	-1.5698634
250	0xbe4ec392	-0.20191792
251	0x3f8c38d7	1.0954846
252	0xbdc8bd6e	-0.09801756
253	0x3e0c00b5	0.13672145
254	0xc008f4b3	-2.1399353
255	0x3f71c410	0.9443979

fc1.bias f4 [400]
0	0xbda35cbb	-0.07976671
1	0xbd92cafe	-0.07167624
2	0x3e2d88be	0.16946694
3	0x3ce4436f	0.027864186
4	0xbe173c82	-0.14769176
5	0xbe1e6cbc	-0.15471166
6	0xbe194c14	-0.14970428
7	0xbe0128eb	-0.12613265
8	0xbdd731e8	-0.10507566
9	0xbdbd5ba4	-0.09245995
10	0x3e048eb5	0.12945063
11	0xbd91a301	-0.07111169
12	0x3e241b62	0.1602607
13	0xbd230eac	-0.039808914
14	0xbe109b9a	-0.14121857
15	0xbd8140fe	-0.063112244
16	0xbd9e9fb1	-0.077453025
17	0xbdf4e984	-0.11958602
18	0xbe26226a	-0.16224065
19	0x3ba73914	0.00510324
20	0xbe0a4318	-0.13502157
21	0xbd4c3fa1	-0.04986537
22	0xbd3c0cfd	-0.045910824
23	0xbdcdc734	-0.100477606
24	0xbbdfe4d5	-0.006832699
25	0xbe099a73	-0.13437824
26	0xbd67cbba	-0.056590773
27	0x3e1dc2b4	0.15406305
28	0x3e24cd7a	0.16094008
29	0x3c5bdefa	0.013419861
30	0x3d26ee15	0.040754396
31	0x3e1e9d47	0.15489684
32	0x3e2b2f7a	0.1671733
33	0xbda9da27	-0.082935624
34	0x3ce38469	0.027773099
35	0xbd0c7ecd	-0.034300614
36	0xbdf44207	-0.11926656
37	0x3e1e5094	0.15460426
38	0x3e0d9769	0.1382729
39	0x3bfc572b	0.007700821
40	0x3e1315e6	0.14363822
41	0x3d3c6bb4	0.04600115
42	0x3dea6532	0.11445083
43	0x3d972dae	0.073817596
44	0x3da91d86	0.08257584
45	0x3d7e81a4	0.062135354
46	0x3db303f7	0.087409906
47	0x3e1c5e7a	0.15270415
48	0x3d8b7380	0.06809139
49	0xbde31099	-0.1108715
50	0x3d833045	0.06405691
51	0x3e3067e1	0.17227127
52	0x3e141722	0.1446195
53	0x3de0d0fa	0.10977359
54	0xbd86dbe2	-0.06584908
55	0x3e305556	0.17220053
56	0x3d01ee2c	0.03172128
57	0xbdbff543	-0.09372952
58	0xbbd393bf	-0.0064568217
59	0x3e01e2ae	0.12684128
60	0xbe24050f	-0.16017555
61	0xbd259dc3	-0.040433656
62	0x3e04641b	0.12928812
63	0xbd4727d4	-0.048621967
64	0xbd8f5e85	-0.0700045
65	0xbd3fab16	-0.04679402
66	0x3d6901f3	0.056886625
67	0xbe0a1928	-0.13486159
68	0x3cb13e60	0.021636188
69	0x3d3776a3	0.044790875
70	0x3d3c4590	0.045964777
71	0xbb726442	-0.0036986028
72	0x3daf5904	0.085619
73	0xbc44356e	-0.011975629
74	0x3e0a94b1	0.13533284
75	0x3deb97c1	0.11503554
76	0xbdf6acc8	-0.12044674
77	0xbd0aca9c	-0.03388463
78	0x3e0a97d2	0.13534477
79	0xbc8ecbda	-0.017431188
80	0xbd5a0047	-0.05322292
81	0xbc34764f	-0.011014535
82	0xbd23edc9	-0.04002169
83	0xbd78ef3e	-0.060775034
84	0x3d1db92f	0.038506683
85	0x3e166502	0.14686969
86	0x3cd23706	0.025661003
87	0x3dc8c959	0.09804029
88	0x3e099696	0.1343635
89	0xbde6c212	-0.11267485
90	0xbdfae7e0	-0.12251258
91	0xbcd681a2	-0.02618486
92	0x3d545c74	0.051845983
93	0xbca80464	-0.020509906
94	0xbda79461	-0.08182598
95	0xbdf52888	-0.11970621
96	0x3ba8dc89	0.005153243
97	0x3e04b738	0.12960517
98	0x3bf2a39c	0.0074047577
99	0x3e2a22fc	0.16614908
100	0xbda92c3c	-0.0826039
101	0x3e249e55	0.16076024
102	0xbde41ffe	-0.111389145
103	0x3e0d6d92	0.13811329
104	0x3c9d09ed	0.019169772
105	0x3e31801f	0.1733403
106	0x3e2a6319	0.16639365
107	0xbd74dbdb	-0.059779983
108	0xbc58af8c	-0.013225447
109	0xbd42476d	-0.0474314
110	0x3d20d521	0.039265756
111	0xbdafb1da	-0.08578844
112	0xbd2581f9	-0.040407155
113	0xbdd89d3e	-0.105768666
114	0x3dd9256a	0.10602839
115	0x3e0d0296	0.13770518
116	0x3ca1fb31	0.019773098
117	0xbbaaf624	-0.0052173305
118	0xbe05b2b0	-0.13056445
119	0xbe226b3f	-0.15861224
120	0xbe09a424	-0.13441521
121	0xbe03fbf5	-0.12889083
122	0xbe12d1ff	-0.1433792
123	0x3da73c1a	0.0816576
124	0xbe07ee26	-0.1327444
125	0x3daa1f0e	0.083067045
126	0x3ded8053	0.115967415
127	0xb9fc6ec6	-0.00048147718
128	0x3d28d7e4	0.041221514
129	0x3dde65d5	0.10859267
130	0xbe2186fc	-0.15774149
131	0x3e1a17af	0.15048097
132	0x3e2f8950	0.17142224
133	0x3e29c83d	0.16580291
134	0xbd8b17e5	-0.06791667
135	0x3ddb34d5	0.10703436
136	0xbd8391e7	-0.06424313
137	0x3cd33247	0.02578081
138	0x3e152b1a	0.14567223
139	0x3d1596a7	0.036520626
140	0x3d839112	0.06424154
141	0xbd3d6827	-0.046241906
142	0xbda92a82	-0.08260061
143	0x3e11c432	0.14234999
144	0xbe208d59	-0.1567892
145	0x3cf8586c	0.0303156
146	0xbc8833d3	-0.016626274
147	0xbd4a644c	-0.049412057
148	0xbe2deff7	-0.1698607
149	0xbdd45a1c	-0.103687495
150	0xbdcc0a52	-0.09962906
151	0x3cd8a985	0.02644802
152	0x3d8b95a5	0.06815652
153	0xbe21f1ce	-0.15814897
154	0xbd88fc48	-0.06688744
155	0xbe2a4cd4	-0.1663087
156	0x3df45463	0.11930158
157	0xbe234634	-0.15944749
158	0xbcc4589d	-0.023968035
159	0xbccf80c4	-0.025329955
160	0xbdc188cb	-0.09449919
161	0x3e005389	0.12531866
162	0x3d994c0d	0.07485209
163	0x3dba122e	0.09085499
164	0x3dfb41cd	0.1226841
165	0xbdb33b46	-0.0875154
166	0x3dac8bf8	0.084251344
167	0x3e0fe263	0.14051203
168	0xbd235502	-0.03987599
169	0xbc68f579	-0.0142186815
170	0x3c8900fc	0.016724102
171	0xbe2eeadb	-0.17081778
172	0xbc999813	-0.018749272
173	0xbcac782e	-0.0210534
174	0xbe0214d1	-0.12703253
175	0x3e0243cd	0.12721176
176	0xbe1cce8c	-0.15313166
177	0xbd8ee3f1	-0.0697707
178	0x3dd228a3	0.10261657
179	0x3cd272d3	0.025689518
180	0x3d90870f	0.070570104
181	0x3bee2140	0.0072671473
182	0xbe261008	-0.16217053
183	0xbdffdc74	-0.1249322
184	0xbd71d91a	-0.059044935
185	0xbdf05c20	-0.117363214
186	0xbdde3d02	-0.1085148
187	0xbd66bcb6	-0.056332313
188	0x3e1e76cd	0.15475006
189	0x3e0a26e4	0.13491398
190	0x3d0e588b	0.03475241
191	0xbde49d08	-0.11162764
192	0xbdd8ad50	-0.10579932
193	0x3e2e53cf	0.17024158
194	0x3cb0ccc8	0.021582022
195	0x3ca04950	0.019566208
196	0xbdcb59f4	-0.099292666
197	0xbdb65a3e	-0.08903931
198	0x3daf52c4	0.08560708
199	0xbc74acb0	-0.01493375
200	0xbc93864f	-0.01800838
201	0xbdaf945d	-0.0857322
202	0xbe04020f	-0.1289141
203	0xbde65e80	-0.11248493
204	0xbe2f7680	-0.17135048
205	0x3e2366aa	0.15957132
206	0x3cd0c724	0.025485583
207	0x3ccd42fb	0.025056353
208	0x3e059dbf	0.13048457
209	0x3db31bae	0.08745514
210	0xbccf1a91	-0.025281223
211	0x3ddc424b	0.10754832
212	0x3b49cac0	0.0030791014
213	0xbe2da4e3	-0.1695743
214	0x3e10bda4	0.14134842
215	0xbdd26fa5	-0.10275201
216	0xbe06dced	-0.13170214
217	0xbd23a2e5	-0.03995027
218	0x3d2de326	0.042452954
219	0x3e0bf8a9	0.13669075
220	0xbe2fa48c	-0.17152613
221	0xbe26d050	-0.16290402
222	0xbdec9a01	-0.115528114
223	0xbdd09ba7	-0.10185938
224	0x3e2f76d9	0.1713518
225	0xbaf3805a	-0.001857768
226	0x3e0153de	0.12629649
227	0x3d4888d7	0.048958626
228	0x3dd02570	0.10163391
229	0xbdb8da5e	-0.09026025
230	0x3d9aa485	0.07550911
231	0x3d814323	0.063116334
232	0x3d74f0d8	0.0598
233	0xbe05c528	-0.1306349
234	0xbd75428e	-0.059877925
235	0x3e17cbe0	0.14823866
236	0xbd1af060	-0.037826896
237	0xbe012c9e	-0.12614676
238	0xbe171f58	-0.1475805
239	0xbd107dc5	-0.035276193
240	0x3da558a4	0.080735475
241	0xbd515bf5	-0.051113088
242	0x3dfdcdda	0.12392779
243	0x3d983d49	0.07433564
244	0xbe0e9b86	-0.13926515
245	0x3af6f133	0.0018840194
246	0x3e228a6f	0.1587312
247	0x3dde7403	0.10861971
248	0xbd7fbfce	-0.06243878
249	0xbe044a3a	-0.1291894
250	0x3d38ae8f	0.045088347
251	0x3dab2581	0.08356763
252	0xbd10ef8c	-0.0353847
253	0xbe17e439	-0.14833154
254	0x3e2c0980	0.16800499
255	0x3dac5f06	0.08416562

bn1.weight f4 [400]
0	0x3f7754f2	0.9661399
1	0x3f21f3f1	0.6326285
2	0x3eee12f7	0.46498844
3	0x3f220f92	0.6330501
4	0x3f8531af	1.0405787
5	0x3ef91b75	0.4865376
6	0x3f88fb0b	1.0701612
7	0x3ee2d61b	0.44303975
8	0x3ec95de9	0.3932946
9	0x3f2a26f6	0.664657
10	0x3f259b7b	0.6469037
11	0x3f2f89b2	0.6856948
12	0x3f11b3a3	0.5691473
13	0x3f726d16	0.946977
14	0x3f658dc2	0.8966943
15	0x3f631a5c	0.88712096
16	0x3f470c63	0.77753276
17	0x3f92c0c8	1.1465082
18	0x3f1b48f1	0.60658175
19	0x3f28ed55	0.6598714
20	0x3f43df96	0.7651304
21	0x3f605905	0.87635833
22	0x3f932596	1.1495845
23	0x3f217105	0.6306308
24	0x3ed874ee	0.4227671
25	0x3f50f5cb	0.8162505
26	0xbb561b3d	-0.0032670044
27	0x3ef7670c	0.48320806
28	0x3f9b2bf3	1.2122787
29	0x3f8627d6	1.0480907
30	0x3f678ca7	0.90448993
31	0x3f695ba5	0.91155463
32	0x3f5bcc2b	0.8585841
33	0x3f26df63	0.6518461
34	0x3ed81f15	0.42211214
35	0x3e02b84c	0.12765616
36	0x3ea23d06	0.31687182
37	0x3ec32ac7	0.38118574
38	0x3f4fbba6	0.81145704
39	0x3f24b768	0.64342356
40	0x3f54e0d5	0.83155566
41	0x3f98201c	1.1884799
42	0x3f19dd81	0.60103613
43	0x3ee30bbf	0.443449
44	0x3f2bc5ed	0.67098886
45	0x3f0d4ec3	0.55198306
46	0x3f4db15a	0.8034874
47	0x3ebda475	0.37039533
48	0x3f27b7dd	0.6551493
49	0x3f6dc40a	0.92877257
50	0xbf5aca1c	-0.85464644
51	0x3f6b154c	0.9182937
52	0x3f65bbcf	0.897397
53	0x3f42a1b1	0.7602797
54	0x3f22e3b6	0.6362871
55	0x3f07f087	0.5310139
56	0x3f728dcc	0.94747615
57	0x3f49b30c	0.7878883
58	0x3f8a7164	1.0815854
59	0x3fb490e7	1.4106721
60	0x3f8d3946	1.1033103
61	0x3f81baf7	1.0135182
62	0x3f739682	0.9515153
63	0x3fa67a4b	1.3006071
64	0x3f286e10	0.6579294
65	0x3ed49b55	0.4152476
66	0x3f59c6c8	0.8506894
67	0x3f81b1dd	1.0132405
68	0x3f9a88fa	1.2073052
69	0x3f80a122	1.0049174
70	0x3f5e2753	0.86778754
71	0x3f866259	1.0498763
72	0x3e6f1b8e	0.23350355
73	0x3e59f948	0.212865
74	0x3f3a73a4	0.72832704
75	0x3f0e12a8	0.5549722
76	0x3f279cba	0.6547352
77	0x3f2f24c4	0.68415475
78	0xbf16df75	-0.5893472
79	0x3f496858	0.7867484
80	0x3f658584	0.89656854
81	0x3f369f8e	0.7133721
82	0x3facac6e	1.3490121
83	0x3f2f919b	0.6858155
84	0x3e9f725c	0.31141937
85	0x3f1228cf	0.5709352
86	0x3f11e662	0.5699216
87	0x3f4d0077	0.80078834
88	0x3f1f66d5	0.62266284
89	0x3ee92793	0.45538005
90	0x3f86a8e5	1.0520293
91	0x3f5cad7a	0.86202204
92	0x3f30f40d	0.6912239
93	0x3f61587e	0.88025653
94	0x3ed4d4dd	0.41568652
95	0x3f0d9d90	0.55318546
96	0x3f6a81b8	0.91604185
97	0x3f56ec22	0.8395406
98	0x3f4f4fcb	0.8098113
99	0x3fa652e9	1.2994052
100	0x3f184e83	0.594948
101	0x3f908abd	1.129234
102	0x3f034c5a	0.5128838
103	0x3f2a2a55	0.66470844
104	0x3f5e9ae9	0.86955124
105	0x3f285898	0.65760183
106	0x3f8aa35a	1.0831101
107	0x3ec51296	0.38490742
108	0x3f93371a	1.1501191
109	0x3f7e446a	0.9932314
110	0x3f105990	0.5638666
111	0x3e89f964	0.26948082
112	0x3f5c041a	0.8594376
113	0x3f720343	0.94536227
114	0x3e81a982	0.25324637
115	0x3f955e25	1.1669356
116	0x3f684965	0.9073699
117	0x3f4a6448	0.7905927
118	0xbb050bd7	-0.0020301247
119	0x3f076828	0.52893305
120	0x3f69428c	0.9111717
121	0x3aafeb33	0.0013421535
122	0x3f2baa9a	0.6705719
123	0x3f3e3ee4	0.74314713
124	0x3f7ceee8	0.9880204
125	0x3f8d15b9	1.1022254
126	0x3f335a9e	0.70060146
127	0x3f860e23	1.0473064
128	0x3f02ab50	0.5104265
129	0x3f528cc3	0.82246035
130	0x3f61f0c0	0.8825798
131	0x3ef7d7b0	0.48406744
132	0xba200e7c	-0.0006105674
133	0x3ef50f08	0.4786303
134	0x3efd2d0c	0.4944843
135	0x3f54e51b	0.8316209
136	0x3f29f840	0.66394424
137	0x3f4c3a2d	0.7977627
138	0x3f8787d4	1.0588326
139	0x3f551cf0	0.8324728
140	0x3f975df1	1.1825544
141	0x3f202ab7	0.6256518
142	0x3eb34a84	0.35017788
143	0x3f802450	1.0011082
144	0x3f5d5ca9	0.86469513
145	0x3f82199a	1.0164063
146	0x3efa6017	0.48901436
147	0x3f973164	1.1811948
148	0x3f1adbb8	0.60491514
149	0x3fc23c55	1.5174662
150	0x3f8ff542	1.1246722
151	0x3f53008b	0.82422704
152	0x3f14eaf1	0.5817099
153	0x3f4ae1b2	0.79250634
154	0x3f4b1921	0.7933522
155	0x3f1c2c10	0.61004734
156	0x3f50b729	0.8152948
157	0x3fb8d28b	1.4439253
158	0x3f2c687a	0.6734692
159	0x3ec832b9	0.39101198
160	0x3f34fd9f	0.70699495
161	0x3fa41da0	1.2821541
162	0x3f68aaa5	0.9088538
163	0x3f3ec875	0.74524623
164	0x3f3b3c0f	0.7313852
165	0x3f69d933	0.91347045
166	0x3f5143cb	0.8174407
167	0x3f98b899	1.1931335
168	0x3f2913ce	0.66045845
169	0x3f423ad1	0.75870997
170	0x3f2b6eab	0.6696574
171	0x3f0f3132	0.5593444
172	0x3f4ca593	0.79940146
173	0x3f41d680	0.75717926
174	0x3f806f44	1.0033956
175	0x3f43e1b3	0.76516265
176	0x3eb09ee1	0.34496215
177	0x3ee931da	0.45545846
178	0x3f6674fa	0.9002224
179	0x3f94773a	1.1598885
180	0x3f6729eb	0.90298337
181	0x3f9c4082	1.2207186
182	0x3f2eb6dd	0.6824778
183	0x3f744e4f	0.9543199
184	0x3f14a2ab	0.5806071
185	0x3f30c151	0.6904498
186	0x3e1b9970	0.1519525
187	0x3f2d0305	0.6758273
188	0x3eaa27f9	0.33233622
189	0x3b912149	0.0044290167
190	0x3f8abb0f	1.0838336
191	0x3f49c8e9	0.7882219
192	0x3fa52cdf	1.2904319
193	0x3f4b1282	0.79325116
194	0x3f50a262	0.81497777
195	0x3edace4b	0.42735514
196	0x3f7ccb6f	0.98747915
197	0xbf37f924	-0.71864533
198	0x3f0ee3d4	0.5581639
199	0x39f2dced	0.0004632244
200	0x3f738f40	0.9514046
201	0x3e4abdb3	0.19798927
202	0x3f29a328	0.6626458
203	0x3f2400f4	0.64063954
204	0x3f580930	0.8438902
205	0x3eff35f5	0.49845853
206	0x3e9eb44b	0.30996928
207	0x3f34be01	0.7060242
208	0x3e6115f9	0.21981038
209	0x3f69e466	0.91364133
210	0x3f1b95d3	0.6077549
211	0x3f9f5788	1.2448587
212	0x3f6ccb28	0.9249749
213	0x3f3a1867	0.72693485
214	0x3f916efa	1.1361992
215	0x3ef20ff2	0.4727779
216	0x3f4d52ae	0.80204284
217	0x3f6b67e8	0.91955423
218	0x3f459c88	0.7719197
219	0x3ee0fac7	0.43941328
220	0x3f3deb2a	0.74186957
221	0x3f7a7968	0.978415
222	0x3f8c4a79	1.0960227
223	0x3f49fb23	0.7889883
224	0x3f99d297	1.2017392
225	0x3fd96897	1.6985043
226	0x3f337378	0.70098066
227	0x3f23d4b4	0.63996434
228	0x3e8daa06	0.2766878
229	0x3f01a745	0.5064586
230	0x3f0e0479	0.55475575
231	0x3f24fd65	0.6444915
232	0x3e87dc3b	0.2653521
233	0x3f6bff4c	0.9218643
234	0x3f90dfd9	1.1318313
235	0x3f7da8ba	0.9908558
236	0x3f36e1e6	0.71438444
237	0x3f18e72f	0.5972776
238	0x3f81be07	1.0136117
239	0x3f8853e6	1.0650604
240	0x3eec1ca9	0.46115616
241	0x3f1fb879	0.6239086
242	0x3f9d02fc	1.2266536
243	0x3f393591	0.7234736
244	0x3a91bc08	0.001111866
245	0x3f85a918	1.0442228
246	0x3f3d17aa	0.73864233
247	0x3efc44c9	0.4927123
248	0x3f387b36	0.72063005
249	0x3f3ef514	0.7459271
250	0x3f6c08b9	0.9220081
251	0x3ef988e9	0.48737267
252	0x3f895e2e	1.0731866
253	0x3f87bc30	1.0604305
254	0x3f250fff	0.64477533
255	0x3f1d2281	0.61380774

bn1.bias f4 [400]
0	0xbf4888f2	-0.7833396
1	0xbeb9eda6	-0.36314124
2	0xbf24f88d	-0.6444176
3	0xbf1b4c6e	-0.606635
4	0xbfbf3c48	-1.4940271
5	0xbf3db319	-0.74101406
6	0xbf9c1d81	-1.2196504
7	0xbf531647	-0.8245587
8	0xbf91fb4b	-1.1404814
9	0xbf8f0072	-1.1172011
10	0xbf8a2382	-1.0792086
11	0xbf4531e8	-0.77029276
12	0xbe2ae0b5	-0.16687281
13	0xbf5b866a	-0.85751975
14	0xbf4c0938	-0.79701567
15	0xbf9d5720	-1.2292213
16	0xbf38fc37	-0.7225985
17	0xbfaa15b2	-1.3287871
18	0xbe212538	-0.15736854
19	0xbf0ce2ee	-0.5503377
20	0xbec1cd08	-0.3785174
21	0xbfcfcb89	-1.6233989
22	0xbfc7ea5f	-1.5618399
23	0xbf8f4279	-1.1192161
24	0xbf51bf00	-0.8193207
25	0xbf6d5c39	-0.92718846
26	0xbcd76998	-0.026295468
27	0xbf799b32	-0.97502434
28	0xbf604df8	-0.8761897
29	0x3d975417	0.07389086
30	0xbf7c1aeb	-0.98478574
31	0xbf733fd2	-0.9501926
32	0xbf0eeebd	-0.55833036
33	0xbf8444ab	-1.0333456
34	0xbe86b817	-0.26312324
35	0xbf404a2a	-0.75113165
36	0x3ed4ccf9	0.41562632
37	0xbe9dbe93	-0.3080946
38	0xbf3c65c7	-0.735928
39	0x3e6629be	0.22476861
40	0xbfa9295e	-1.3215749
41	0xbf96ab45	-1.1771017
42	0xbfdd0985	-1.726853
43	0xbeb13c22	-0.3461619
44	0xbf725243	-0.9465677
45	0xbf3a1074	-0.72681355
46	0xbf8ea078	-1.1142721
47	0xbd96f839	-0.073715635
48	0xbf887dad	-1.0663353
49	0xbf19b7c0	-0.60046005
50	0xbf55ae5a	-0.83469164
51	0xbed8d73d	-0.42351714
52	0xbfb0f9dc	-1.3826251
53	0xbf2cabde	-0.6744975
54	0xbf883af9	-1.0642997
55	0xbf800a64	-1.0003171
56	0xbfa3df8c	-1.2802596
57	0xbfba79ee	-1.456846
58	0xbf974392	-1.1817496
59	0xbf411101	-0.7541657
60	0xbfd2affc	-1.6459956
61	0xbe6aa366	-0.22913894
62	0xbf44b87a	-0.7684399
63	0xc0047de5	-2.070184
64	0xbf2b951b	-0.6702439
65	0xbfaa61c7	-1.3311089
66	0xbf881cd1	-1.0633794
67	0xbfb3e7c4	-1.4055104
68	0xbeabcb89	-0.33553723
69	0xbf7f569a	-0.9974152
70	0xbf976a70	-1.1829357
71	0xbf937a99	-1.1521789
72	0xbf8c621b	-1.096744
73	0xbbbc968b	-0.005755251
74	0xbf3ce71e	-0.73790157
75	0xbdad333c	-0.08457038
76	0xbf9cca44	-1.2249227
77	0xbfb0d2e6	-1.3814361
78	0xbea65d2e	-0.32492965
79	0xbf9d658d	-1.2296616
80	0xbf6a795c	-0.9159143
81	0xbf9de6c3	-1.2336048
82	0xbfa60e45	-1.2973105
83	0xbf4f17b3	-0.8089554
84	0xbf65c9cd	-0.8976105
85	0xbf1063d6	-0.5640234
86	0xbf5753c0	-0.8411217
87	0xbf8bbc5f	-1.0916861
88	0xbfa28736	-1.2697513
89	0xbf408586	-0.7520374
90	0xbfe46348	-1.7842798
91	0xbf9c3d80	-1.2206268
92	0x3ebf6dca	0.3738845
93	0xbf5dfb1e	-0.867113
94	0xbfd4be2e	-1.6620538
95	0xbf4cb16a	-0.7995821
96	0xbf054668	-0.52060556
97	0xbf9b27d8	-1.2121534
98	0xbf93cb37	-1.1546391
99	0xbf51e598	-0.8199096
100	0xbf9fdc2c	-1.2489066
101	0xbf935633	-1.1510681
102	0xbeea6ff2	-0.45788532
103	0xbf9f5bd5	-1.24499
104	0xbfa5b20c	-1.294496
105	0xbf86b332	-1.0523436
106	0xbfcafcf6	-1.5858448
107	0xbdd18e48	-0.10232216
108	0xbfae64cc	-1.3624511
109	0xbf6df4be	-0.9295157
110	0xbf6e0d7d	-0.9298933
111	0xbf1b3722	-0.60631
112	0xbf6ddbb5	-0.9291337
113	0xbf2ecc9a	-0.6828095
114	0xbfdcf0df	-1.7261008
115	0xbc7a9b57	-0.015295825
116	0xbf3494b0	-0.7053938
117	0xbf74b687	-0.95591015
118	0xbcf76821	-0.03020102
119	0xbf9f748c	-1.2457442
120	0xbf8c438f	-1.0958117
121	0xbcafc392	-0.02145556
122	0xbf05544c	-0.5208175
123	0xbf26b6ce	-0.6512269
124	0xbf9d2f88	-1.228013
125	0xbf8108cd	-1.0080811
126	0xbfa7a47b	-1.309707
127	0xbf54802f	-0.8300809
128	0xbf871031	-1.0551816
129	0xbf7c0393	-0.98442954
130	0xbf839aa8	-1.0281572
131	0xbf18d8d7	-0.5970587
132	0xbd8bb014	-0.068206936
133	0xbf872daa	-1.056081
134	0xbf4dad90	-0.8034296
135	0xbf96aa34	-1.1770692
136	0xbf6939a3	-0.9110357
137	0x3d8067c7	0.06269794
138	0xbf8e52e1	-1.1119043
139	0xbf640797	-0.8907408
140	0xbfad68b5	-1.3547579
141	0xbf59ea66	-0.8512329
142	0xbfaf1117	-1.367709
143	0xbf900ed7	-1.1254529
144	0xbfbc00ec	-1.4687781
145	0xbfa2ab34	-1.2708497
146	0xbfaa70c7	-1.3315667
147	0xbfb21a0f	-1.3914202
148	0xbfb0ae00	-1.38031
149	0xbf281acc	-0.6566589
150	0xbfa36755	-1.276591
151	0xbfa17fb0	-1.2617092
152	0xbf5be449	-0.8589521
153	0xbed9d9d1	-0.42548993
154	0xbf98184e	-1.1882417
155	0xbf7797ee	-0.967162
156	0xbf3ba148	-0.7329297
157	0xbf9e0011	-1.234377
158	0xbefeea80	-0.49788284
159	0xbea44fa5	-0.32092014
160	0xbf1ef1ec	-0.62087893
161	0xbf76ae61	-0.9635983
162	0xbf2b0a6f	-0.66812795
163	0xbf21327f	-0.62967676
164	0xbedbcbf7	-0.4292905
165	0xbfa40987	-1.2815408
166	0xbfbc3d6d	-1.4706246
167	0xbf41ee52	-0.7575427
168	0xbf89d13d	-1.076698
169	0xbf11d2c3	-0.5696222
170	0xbedce167	-0.43140718
171	0xbed0b346	-0.40761775
172	0xbf8e7964	-1.1130795
173	0xbfc0b834	-1.5056214
174	0xbf30fd23	-0.69136256
175	0xbf42847d	-0.7598341
176	0xbf12c757	-0.5733542
177	0xbf3790fd	-0.7170561
178	0xbfb84160	-1.4394951
179	0xbfa04888	-1.2522135
180	0xbf5932d0	-0.8484316
181	0xbf89c0ae	-1.0761926
182	0xbf74b9c4	-0.95595956
183	0xbfee0c1c	-1.8597445
184	0xbf0f5ed9	-0.560041
185	0xbf8291b0	-1.020071
186	0x3f027f03	0.50975055
187	0xbf88617b	-1.0654749
188	0x3ee1a547	0.4407141
189	0xbdcb9576	-0.09940617
190	0xbf1d0c4b	-0.6134688
191	0xbf60a258	-0.87747717
192	0xbf8a55cf	-1.0807437
193	0xbf90ab81	-1.1302339
194	0xbf669b63	-0.9008085
195	0xbf74b6e4	-0.9559157
196	0xbf2741a2	-0.6533452
197	0x3f177916	0.5916914
198	0xbf328607	-0.6973576
199	0xbca9a480	-0.020708323
200	0xbf4d1366	-0.80107725
201	0xbf829374	-1.0201249
202	0xbfa051bb	-1.2524942
203	0xbf98f73a	-1.1950448
204	0xbf4241d3	-0.7588169
205	0xbf20a260	-0.62747765
206	0xbe88a2f4	-0.26686823
207	0xbf8b4279	-1.0879661
208	0x3e7f7aba	0.2494916
209	0xbf8c31b5	-1.0952669
210	0xbf200293	-0.6250393
211	0xbfcdf163	-1.608929
212	0xbf9cb51a	-1.2242768
213	0xbedad35b	-0.42739376
214	0xc000abb9	-2.010481
215	0xbf7df9d6	-0.99209344
216	0xbf9df791	-1.2341176
217	0xbfa004ef	-1.2501506
218	0xbf591130	-0.8479185
219	0xbfc9fbf6	-1.5780017
220	0xbf351830	-0.7074003
221	0xbf902c10	-1.1263447
222	0xbf41a5b5	-0.75643474
223	0xbf75a7b3	-0.95959014
224	0xbf9884bf	-1.1915511
225	0xbfb33723	-1.4001201
226	0xbf92f9bf	-1.1482466
227	0xbf184c2a	-0.5949122
228	0xbea490ab	-0.32141623
229	0xbf8ac251	-1.0840551
230	0xbe1945f0	-0.14968085
231	0xbf5a8e09	-0.8537298
232	0xbd40582c	-0.046959087
233	0xbf89078f	-1.0705432
234	0xbf2f6860	-0.6851864
235	0xbfaa7bea	-1.3319066
236	0xbf9b8697	-1.2150449
237	0xbf838a87	-1.027665
238	0xbf606afa	-0.87663233
239	0xbf3e750f	-0.7439737
240	0xbf3a0f43	-0.7267954
241	0xbee7b41b	-0.45254597
242	0xbf86323e	-1.0484083
243	0xbf6cffe4	-0.9257796
244	0xbc79d6d7	-0.015248976
245	0xbf0653b4	-0.5247147
246	0xbf6bd269	-0.92117935
247	0xbf86c0d0	-1.0527592
248	0xbf686beb	-0.9078967
249	0xbf26f6a2	-0.6522008
250	0xbfa7e52d	-1.3116814
251	0xbfa66741	-1.300026
252	0xbf9d935f	-1.2310599
253	0xbf8c3373	-1.0953201
254	0xbf4bf687	-0.79673046
255	0xbeab0da5	-0.33408847

bn1.running_mean f4 [400]
0	0x3fbe1e46	1.4852989
1	0x401b7919	2.4292662
2	0xc0629c8e	-3.5408053
3	0xc0af0319	-5.469128
4	0xc0161611	-2.3450968
5	0xc0949c5d	-4.6440873
6	0xc0c816dd	-6.252791
7	0x404688f9	3.1021101
8	0x4062e956	3.5454917
9	0xc15f2075	-13.945424
10	0x4083170a	4.0965624
11	0x3ebabbff	0.36471555
12	0xbf9ede8e	-1.2411668
13	0xbf26f179	-0.6521221
14	0xc0c255d3	-6.0729766
15	0xbfc59b4e	-1.543802
16	0xbf7f645f	-0.9976253
17	0xbfa489e9	-1.2854587
18	0x402cac49	2.6980155
19	0x406c32aa	3.6905923
20	0xc0248a83	-2.570954
21	0xc094dfd7	-4.652324
22	0xc0a3b1c7	-5.1154513
23	0xc100f803	-8.06055
24	0xc1106411	-9.02443
25	0x409a3cb2	4.819909
26	0xbde011f6	-0.10940926
27	0xc1254480	-10.329224
28	0xbef1f18a	-0.47254592
29	0x3f85ae16	1.0443752
30	0xbd91bdd3	-0.07116284
31	0xc09ef934	-4.9679203
32	0x4043cb95	3.0593007
33	0xc10afa01	-8.686036
34	0xc1159579	-9.348992
35	0xc1397e2b	-11.593303
36	0x40459010	3.0869179
37	0x3f8b3dac	1.0878196
38	0xbf8c454b	-1.0958647
39	0xc0d26280	-6.574524
40	0xc0f66166	-7.6993895
41	0x3eebe480	0.4607277
42	0xc0fb31b3	-7.849817
43	0xc06d2bee	-3.7058063
44	0xc061d385	-3.5285351
45	0xbfc0738f	-1.5035266
46	0xc0a69c30	-5.206566
47	0x40a9d6d9	5.3074765
48	0xc120d7de	-10.052702
49	0xbd00d59f	-0.031453725
50	0x40c3de05	6.120852
51	0x402c0b16	2.6881766
52	0x409a1ae6	4.8157835
53	0xc08eae22	-4.4587564
54	0xbef6705d	-0.481326
55	0x403c5c4a	2.9431329
56	0xc10a1e50	-8.6324005
57	0xc0fd8a6d	-7.9231477
58	0xc0a9cf4e	-5.3065557
59	0x400c43c4	2.191636
60	0xc0a02e62	-5.005662
61	0x40e8c794	7.2743626
62	0xbf879e3a	-1.0595162
63	0xbfcea4ad	-1.6144005
64	0xc0477671	-3.116604
65	0xbfaf9ff6	-1.3720691
66	0xbe540afe	-0.20707318
67	0xc0c280e7	-6.078235
68	0xbf5ef6aa	-0.8709513
69	0xc007b2a2	-2.120278
70	0x3f90f6b4	1.1325288
71	0x3fd1c8cf	1.6389407
72	0xbfffcc09	-1.9984142
73	0x40430aee	3.047542
74	0x40d2733d	6.576567
75	0x3fa111db	1.2583574
76	0x3e211a6b	0.15732734
77	0xbfd5fbd9	-1.6717483
78	0xc114594e	-9.271803
79	0x40c9e2dd	6.3089433
80	0xc01f4b9b	-2.4889896
81	0xc04d5895	-3.2085316
82	0x3fa99967	1.324994
83	0xc0d9f446	-6.8110685
84	0x3d023c26	0.031795643
85	0xbe545c51	-0.20738341
86	0xc1289210	-10.53566
87	0xbfbdf312	-1.4839804
88	0xc13814a6	-11.505041
89	0xc1465d9f	-12.397857
90	0xc0432f9c	-3.0497808
91	0xc0ad2d46	-5.4117765
92	0x40155e23	2.3338706
93	0x3f02bdd5	0.5107091
94	0x3cb10afe	0.021611687
95	0xc0fc0dd9	-7.8766904
96	0x3f1b83cf	0.60748
97	0x40f751cc	7.728735
98	0x40ab3ce1	5.3511815
99	0x3ff1a9d6	1.8879955
100	0xc0470637	-3.1097543
101	0xbfa315ac	-1.2740989
102	0x413f18a4	11.943516
103	0x41041181	8.254273
104	0xbfe4ef96	-1.7885616
105	0x409ad462	4.8384256
106	0xc109c354	-8.610188
107	0x4068c16b	3.6368053
108	0xc082e759	-4.0907407
109	0xc0673f96	-3.613256
110	0xc0d828d2	-6.754983
111	0xc090940b	-4.5180717
112	0xbec74fa3	-0.38927945
113	0xc08f4ce4	-4.478136
114	0xc0b2f19f	-5.591995
115	0xbfa846a3	-1.3146557
116	0x3edb626e	0.42848533
117	0x40d9f3be	6.8110037
118	0xbe838e53	-0.25694522
119	0xc0d996ed	-6.7996736
120	0xc0b68f5f	-5.7050014
121	0xbed9ea93	-0.42561778
122	0x40da22fb	6.81677
123	0xbfe11978	-1.7585897
124	0x40972d70	4.7242966
125	0x4113a219	9.227075
126	0xc12a4c44	-10.64362
127	0xc04e85ef	-3.2269247
128	0x4100c623	8.048373
129	0xc034d1b6	-2.8252997
130	0xc088db3a	-4.276761
131	0xbfb9f353	-1.4527382
132	0x3eae57be	0.34051317
133	0xbfbfbe1d	-1.4979893
134	0xbff19016	-1.8872097
135	0x412d7a55	10.842366
136	0x3d066676	0.032812558
137	0x3fe25597	1.768237
138	0x3f402d66	0.7506927
139	0x3d1730d5	0.036911804
140	0xbfd84538	-1.6896124
141	0xbf18096b	-0.5938937
142	0xc0692377	-3.6427896
143	0xc0dda2e6	-6.926135
144	0x3f7817d9	0.9691139
145	0x4038ced5	2.887624
146	0x3fefc4d6	1.8731945
147	0xbfe6b287	-1.8023232
148	0xc02ee3c8	-2.7326527
149	0x40400a78	3.000639
150	0xbf2fc48e	-0.68659294
151	0xc087a33b	-4.2386756
152	0xc0ef31c6	-7.474826
153	0xbf37fc42	-0.7186929
154	0xc10c0e43	-8.753482
155	0xc186512f	-16.78964
156	0x408ce159	4.4025083
157	0xbec223f6	-0.3791806
158	0xbf858cd0	-1.0433598
159	0x3db68f3f	0.08914041
160	0xc01ca011	-2.4472697
161	0xbfb4e984	-1.4133763
162	0x40a3abd7	5.1147265
163	0xc0abef5b	-5.372968
164	0x4083a2bb	4.1136146
165	0xc1280343	-10.500796
166	0xc0d0ece1	-6.528916
167	0x3efa99b7	0.489454
168	0x4110f7bd	9.060483
169	0xbfa355ce	-1.276056
170	0xc0972a86	-4.723941
171	0x3f92987d	1.1452786
172	0xc10a410d	-8.640882
173	0x402054d6	2.505178
174	0x3f0b0276	0.5430063
175	0xc11a440a	-9.641611
176	0x410038ff	8.013915
177	0xc085bb7e	-4.179137
178	0xbf54bf8d	-0.83104783
179	0x3ed58179	0.41700342
180	0xbedd051b	-0.43167958
181	0x41261f47	10.382636
182	0x40878c3a	4.2358675
183	0xc05dfad4	-3.4684343
184	0x3fbd7b43	1.4803241
185	0xbf20098e	-0.6251458
186	0x408fd30d	4.494513
187	0x3fcaa34e	1.5831087
188	0xbfc97ab5	-1.5740572
189	0x3ea80853	0.3281885
190	0x3e47e7c7	0.1952201
191	0x40ea1c58	7.31596
192	0xc01411bc	-2.3135824
193	0xc0ac375d	-5.381758
194	0xc0c5656e	-6.1686316
195	0xc110b98c	-9.0453
196	0xbf5ada7e	-0.8548964
197	0xc099cb69	-4.8060803
198	0xc03d9542	-2.962235
199	0x3e6322fd	0.22181316
200	0x3f8d15ed	1.1022316
201	0x407ec3f0	3.980709
202	0xc119aa0b	-9.604014
203	0x40396f40	2.8974152
204	0xc064f995	-3.5777333
205	0x4104b4de	8.294157
206	0x400d3b96	2.2067618
207	0x403ef28e	2.9835544
208	0x3f7a261e	0.9771441
209	0xc0b9e438	-5.8091087
210	0x40b267e1	5.5751805
211	0x406eedb5	3.7332585
212	0xc16cc346	-14.797674
213	0xc065b913	-3.589421
214	0x40ac0653	5.375772
215	0x400b6b8d	2.1784394
216	0xc0615c0a	-3.5212426
217	0x40e0729d	7.013991
218	0xc0b44837	-5.6338153
219	0x3f88e121	1.0693704
220	0xc01beead	-2.4364426
221	0xbfc1e0c0	-1.5146713
222	0xc01268f9	-2.287657
223	0xbf65464a	-0.8956038
224	0x3f9831ce	1.1890199
225	0xbf3df136	-0.74196184
226	0x3fa960da	1.3232682
227	0xc06f4eb3	-3.7391784
228	0xc00a4184	-2.1602488
229	0xc0898061	-4.2969213
230	0xbfe8c18c	-1.8184066
231	0x409c00ac	4.875082
232	0x40486035	3.130872
233	0x4039588d	2.8960297
234	0x400d5aac	2.2086592
235	0xc02f3217	-2.7374322
236	0x401da93c	2.4634542
237	0xc1143c72	-9.264757
238	0x3f66fe26	0.9023155
239	0xbf839056	-1.0278423
240	0x403b1e2c	2.9237165
241	0x40ac377f	5.3817744
242	0x3efdb2eb	0.49550566
243	0xc0f02c1f	-7.505386
244	0xbe4f6958	-0.20255029
245	0xbf9b436c	-1.212995
246	0x40021fc3	2.0331886
247	0xc0c54b03	-6.1654067
248	0x3e7ccb61	0.24686958
249	0x3fdab8be	1.7087629
250	0xbfef1751	-1.8678991
251	0xbf9d8b1d	-1.2308079
252	0xbf1dade7	-0.6159348
253	0x40bdc704	5.930544
254	0x3f859d06	1.0438545
255	0x40d67824	6.7021656

bn1.running_var f4 [400]
0	0x428174ed	64.72837
1	0x436db4bb	237.70598
2	0x42f7f164	123.971466
3	0x4323a0c2	163.62796
4	0x42cb3e51	101.62171
5	0x42c98f13	100.77944
6	0x43688e86	232.55673
7	0x4321eb8c	161.9201
8	0x43ba7fff	372.99997
9	0x427c9446	63.1448
10	0x4226f517	41.739346
11	0x42b8064b	92.01229
12	0x41e28dab	28.319174
13	0x42516623	52.349743
14	0x4258eae0	54.22937
15	0x42b85f5e	92.186264
16	0x42c58d45	98.77592
17	0x4324b45f	164.70457
18	0x42a77bf3	83.74209
19	0x426da9a0	59.41565
20	0x428c81b9	70.253365
21	0x432aecff	170.92577
22	0x436c5fcc	236.3742
23	0x43470e47	199.05577
24	0x425706aa	53.756508
25	0x430282ca	130.5109
26	0x3e9ae134	0.3024994
27	0x428af948	69.48688
28	0x41aadb47	21.357069
29	0x41d010da	26.008228
30	0x42ffdfaf	127.93688
31	0x421d32b1	39.299503
32	0x435455e1	212.33546
33	0x42014d77	32.32565
34	0x4220fbdd	40.24596
35	0x421711d3	37.767406
36	0x422823cf	42.03497
37	0x42b758e7	91.67364
38	0x42610ec4	56.26442
39	0x42219451	40.39484
40	0x4344ae02	196.67972
41	0x428a5c2d	69.18003
42	0x42b5f7f1	90.98426
43	0x42418b2a	48.385902
44	0x42de11b6	111.03459
45	0x42884f12	68.154434
46	0x4309ef59	137.93495
47	0x425b18d6	54.774254
48	0x4373fd82	243.99026
49	0x42baca92	93.395645
50	0x427603d1	61.503727
51	0x4211e90c	36.477585
52	0x431dd819	157.84413
53	0x422f15e5	43.77138
54	0x4312c273	146.75957
55	0x42b0e760	88.451904
56	0x438745f3	270.54648
57	0x4379a3e0	249.64014
58	0x43b66a64	364.83118
59	0x41d6db65	26.857126
60	0x4260fe66	56.248436
61	0x41ff7570	31.932343
62	0x43728b9b	242.54533
63	0x436b84a1	235.51808
64	0x41f34a79	30.411364
65	0x42b5d1d6	90.909836
66	0x429e9ea5	79.30985
67	0x42756c29	61.355625
68	0x43390537	185.02037
69	0x425f37b8	55.804413
70	0x4397adc3	303.3575
71	0x420e607d	35.594227
72	0x42ee1f8b	119.06161
73	0x4124300a	10.261728
74	0x4296e5bb	75.44869
75	0x4275bea6	61.43618
76	0x430f3691	143.21315
77	0x42f5ada6	122.83916
78	0x42bf819d	95.75315
79	0x43310c83	177.04887
80	0x42c1ccc8	96.89996
81	0x42b7767f	91.73144
82	0x42da803e	109.25047
83	0x421a9352	38.643867
84	0x433d8503	189.51958
85	0x42eab358	117.35028
86	0x42f9c5b1	124.886116
87	0x421e6219	39.5958
88	0x42a1e950	80.95569
89	0x4266f109	57.735386
90	0x41570891	13.439591
91	0x42b9fa97	92.98943
92	0x430b83d5	139.51497
93	0x4305b98f	133.72484
94	0x42c1fc0a	96.99226
95	0x4200f66d	32.24065
96	0x4236df12	45.717842
97	0x43958a49	299.08035
98	0x42f13548	120.604065
99	0x424ad0f2	50.70405
100	0x431bfe66	155.99374
101	0x415ca0d6	13.789267
102	0x425f8566	55.880272
103	0x429a3708	77.10748
104	0x43832a97	262.33273
105	0x42a57555	82.729164
106	0x420c6c27	35.105618
107	0x425752da	53.83091
108	0x4273d08a	60.95365
109	0x4180e9ff	16.114256
110	0x4243d51a	48.958107
111	0x42c5c780	98.88965
112	0x421db317	39.424892
113	0x428665d1	67.19886
114	0x421be190	38.970276
115	0x42d3ae1e	105.84007
116	0x41c3cc19	24.474657
117	0x43bfa60c	383.29724
118	0x3f6eef7f	0.9333419
119	0x42a8d69c	84.41916
120	0x4304815b	132.5053
121	0x3f0d3882	0.5516435
122	0x42ea741a	117.22676
123	0x426b3dac	58.810226
124	0x433863f3	184.39043
125	0x4366d419	230.8285
126	0x42d29f43	105.31106
127	0x43addcd7	347.7253
128	0x4323fea3	163.99467
129	0x4260d854	56.211258
130	0x422541cc	41.314255
131	0x42435001	48.82813
132	0x3e1dea02	0.15421298
133	0x434f8edb	207.55803
134	0x41ef2ec6	29.897839
135	0x429e17f1	79.04676
136	0x437d7b77	253.48228
137	0x4169941a	14.598658
138	0x42c0a6b6	96.32561
139	0x43e9d871	467.69095
140	0x42897264	68.72342
141	0x418c5f7c	17.546623
142	0x433bf8d5	187.972
143	0x42cf5478	103.66498
144	0x43c4062e	392.04828
145	0x4341dd7b	193.86516
146	0x4398e7f0	305.812
147	0x4298867b	76.26266
148	0x42806a0d	64.20713
149	0x4257787c	53.86766
150	0x42b9a0d3	92.81411
151	0x42e73109	115.59577
152	0x42c51ca6	98.555954
153	0x42cd2cca	102.58748
154	0x434345af	195.2722
155	0x423fdfa2	47.96839
156	0x431db727	157.71544
157	0x421bd1d7	38.95492
158	0x42934d22	73.65065
159	0x41974244	18.907356
160	0x430b99ea	139.60123
161	0x429361f6	73.69133
162	0x42c1fd33	96.99453
163	0x430e8c7e	142.5488
164	0x433b0e51	187.05592
165	0x42046e0d	33.10747
166	0x4238bb20	46.18274
167	0x42531b86	52.77688
168	0x42a90b52	84.52211
169	0x4302278a	130.15445
170	0x41f807be	31.00378
171	0x424cd92c	51.212082
172	0x42abb4ba	85.85298
173	0x423dce5f	47.451534
174	0x41ce5052	25.789219
175	0x42b31cd7	89.55633
176	0x4294e9a0	74.4563
177	0x429400e1	74.00172
178	0x42fcf788	126.48346
179	0x421785ed	37.880787
180	0x4234ced3	45.201977
181	0x4309a612	137.64871
182	0x42f54d8d	122.65147
183	0x41c7ca96	24.973919
184	0x4314e8fa	148.91006
185	0x428ac286	69.37993
186	0x41ed9244	29.696419
187	0x4226e40a	41.722694
188	0x41f896fe	31.073727
189	0x3e370a18	0.17874944
190	0x420c8099	35.125584
191	0x42b7e3cb	91.94491
192	0x41dfb7d9	27.96477
193	0x4300802e	128.5007
194	0x420c4cd1	35.075016
195	0x42c833b9	100.10102
196	0x42d552c1	106.66163
197	0x42848784	66.26468
198	0x436a5dda	234.36661
199	0x3f0510a2	0.51978505
200	0x421dd6a1	39.4596
201	0x42f97580	124.72949
202	0x4266660e	57.599663
203	0x433dd947	189.84874
204	0x43165b34	150.35626
205	0x428a7f65	69.24882
206	0x42c9d3ea	100.913895
207	0x423971f0	46.361267
208	0x42912464	72.571075
209	0x43443742	196.21585
210	0x431f655d	159.39595
211	0x43c889b9	401.07596
212	0x42805a24	64.176056
213	0x41ffb868	31.965042
214	0x430f30e8	143.19104
215	0x4398878c	305.05896
216	0x429c82f4	78.25577
217	0x42935b52	73.67836
218	0x426f4a5b	59.822613
219	0x43192fb9	153.18642
220	0x4283c2e9	65.880684
221	0x430e6747	142.40343
222	0x424107cf	48.257626
223	0x42f1a1aa	120.81575
224	0x428a9bb9	69.304146
225	0x41a55830	20.66806
226	0x42cc7632	102.23085
227	0x42ae36ee	87.107285
228	0x422ba035	42.906452
229	0x42e11870	112.54773
230	0x4102aacd	8.166699
231	0x42e06401	112.19532
232	0x4222b3ab	40.675457
233	0x439a5a5b	308.7059
234	0x428c3aa7	70.114555
235	0x42889cdb	68.30636
236	0x4298f710	76.482544
237	0x4259a0ff	54.407223
238	0x41e868f0	29.051239
239	0x421ff578	39.989716
240	0x42a508ee	82.51744
241	0x42dfb004	111.84378
242	0x4099a85c	4.8018017
243	0x4202b32d	32.674976
244	0x3f70f8ad	0.9412945
245	0x43086f21	136.4341
246	0x42ac6ce9	86.212715
247	0x433280e6	178.50351
248	0x433521cc	181.13202
249	0x421bebd5	38.980305
250	0x425744ac	53.817062
251	0x4309e4f0	137.89429
252	0x42e16e5f	112.71557
253	0x43a476af	328.92722
254	0x42bcb659	94.35615
255	0x42e15677	112.66888

fc2.weight f4 [300, 400]
0	0x3d9079a1	0.07054449
1	0x3d6f20e1	0.058380965
2	0xbe3c6b6e	-0.18400356
3	0xbe077731	-0.13229062
4	0xbd820055	-0.063477196
5	0xbe0923ae	-0.13392517
6	0xbdcc8554	-0.09986368
7	0xbe22a5c7	-0.15883552
8	0xbc8e33b2	-0.017358635
9	0xbdd56f17	-0.10421579
10	0xbe2d30ff	-0.16913222
11	0xbdf1053b	-0.11768576
12	0xbe65ea02	-0.22452548
13	0xbde11968	-0.10991174
14	0xbd84ef53	-0.0649096
15	0xbe2c9047	-0.16851912
16	0x3b06ef33	0.0020589351
17	0xbd5a5383	-0.0533023
18	0xbddb0247	-0.10693794
19	0x3e0c9188	0.13727391
20	0xbe4a36dc	-0.1974749
21	0xbe2f2f49	-0.17107882
22	0xb97b85ac	-0.00023987022
23	0x3ca95190	0.020668775
24	0xbcb972b4	-0.022637703
25	0xbdb91052	-0.09036316
26	0xbd4fb2bd	-0.050707567
27	0xbe562950	-0.20914197
28	0xbd3df004	-0.046371475
29	0x3bba9076	0.0056934906
30	0xbdc01066	-0.09378128
31	0x3d2fc78f	0.042914923
32	0xbe8f9376	-0.2804219
33	0xbcd73269	-0.026269155
34	0xbdc605f5	-0.09669105
35	0xbe4fd4a8	-0.20295966
36	0xbd07ea04	-0.03318216
37	0xbdc6a631	-0.09699667
38	0xbce15506	-0.027506363
39	0xbd8bac49	-0.0681997
40	0xbd1f1f70	-0.03884834
41	0x3cc917ee	0.024547543
42	0x3cb3878c	0.02191522
43	0xbc87cffa	-0.016578663
44	0xbd8a88f1	-0.06764401
45	0x3d1d2f92	0.038375445
46	0xbe2698ea	-0.1626927
47	0x3d3a4d46	0.04548385
48	0x3cc6ddfc	0.024275772
49	0xbda07bd9	-0.07836122
50	0xbce97aba	-0.028500903
51	0x3bb691e4	0.0055715907
52	0xbdb38ab2	-0.087666884
53	0xbdcf337a	-0.1011724
54	0xbe2a619a	-0.16638795
55	0x3b93d012	0.004510888
56	0x3c62c5c0	0.013841093
57	0xbd38ec4c	-0.045147225
58	0xbe080760	-0.13284063
59	0xbc8e05e0	-0.017336786
60	0xbd06dde9	-0.032926474
61	0xbd8164e0	-0.063180685
62	0xbdc6645b	-0.0968711
63	0x3d11c7f3	0.035591077
64	0x3c99a9f8	0.018757805
65	0xbda743e0	-0.08167243
66	0x3dbd1020	0.09231591
67	0xbe0bc933	-0.1365097
68	0xbd929979	-0.07158179
69	0xbdc24169	-0.09485132
70	0x3c3405ae	0.010987682
71	0xbdb7fe67	-0.0898407
72	0xbd9a0d96	-0.075221226
73	0xbe596b46	-0.21232328
74	0x3b430f5c	0.0029763794
75	0xbe0a3e63	-0.13500361
76	0x3bd2b898	0.0064306967
77	0xbe0ee923	-0.13956122
78	0xbd9c0b42	-0.07619335
79	0x3dcf8664	0.10133055
80	0xbe23fc40	-0.16014194
81	0xbd73b1f3	-0.059495877
82	0xbe2e73be	-0.1703634
83	0xbd94ddfb	-0.07268902
84	0x3d252c8d	0.04032569
85	0xbc35f8a3	-0.011106643
86	0xbd20dcfa	-0.03927324
87	0xbcba58d1	-0.02274743
88	0xbe803717	-0.2504203
89	0xbdcf8554	-0.10132852
90	0xbd787a24	-0.060663357
91	0xbe031f81	-0.12804987
92	0xbdabba7a	-0.08385177
93	0xbda3d96c	-0.08000454
94	0xbe229644	-0.15877634
95	0xbe33a204	-0.17542273
96	0x3d2b0ec2	0.04176212
97	0x3d068180	0.032838345
98	0xbe0b3b11	-0.13596751
99	0xbe08113e	-0.13287827
100	0x3bfa4956	0.007638137
101	0xbe7fee68	-0.24993289
102	0xbdd29645	-0.10282568
103	0xbdd10468	-0.102059186
104	0xbc1b5522	-0.009480746
105	0xbe5c603b	-0.21521084
106	0xbdf76253	-0.12079301
107	0x3cb3c16f	0.021942822
108	0xbe095a0b	-0.13413255
109	0xbd62a77b	-0.055335503
110	0xbdcaecd0	-0.0990845
111	0x3c8ee514	0.017443217
112	0x3ba252c4	0.004953714
113	0xbd3dbe51	-0.046324078
114	0xbd84a44d	-0.064766504
115	0xbcb0a989	-0.021565216
116	0xbe4abc73	-0.1979845
117	0xbe3039fd	-0.17209621
118	0xbda35bee	-0.079765186
119	0xbdd3c8af	-0.10341012
120	0xbdabe538	-0.083933294
121	0x3cf81dc2	0.030287627
122	0xbe0343ad	-0.12818785
123	0x3cb2ec87	0.0218413
124	0xbe2505d3	-0.16115503
125	0xbe301c83	-0.17198376
126	0xbde2088a	-0.11036785
127	0xbdab9e8e	-0.08379851
128	0x3ca2e4d0	0.019884497
129	0xbd7916dd	-0.06081282
130	0xbe4a317d	-0.19745441
131	0xbdf5976d	-0.11991773
132	0x3b7e1ee1	0.003877573
133	0xbd99f756	-0.07517879
134	0xbdebca4a	-0.11513193
135	0xbdb9b84b	-0.09068354
136	0xbdee78ed	-0.116441585
137	0xbea5c2b6	-0.32375115
138	0xbd14cc23	-0.036327492
139	0xbb10197b	-0.0021987844
140	0xbd837db4	-0.0642046
141	0xbe0ca1e0	-0.13733625
142	0xbd27157d	-0.040791977
143	0xbe03d127	-0.12872754
144	0xbd2c761c	-0.042104825
145	0xbe8e48c7	-0.277899
146	0xbe2bce51	-0.16777922
147	0xbd6abcfe	-0.057309143
148	0xbd410b3b	-0.04712985
149	0xbde9a8d1	-0.11409152
150	0xbd8c2ccc	-0.06844482
151	0x3dd7caac	0.105367035
152	0xbde0dda9	-0.10979778
153	0xbe171142	-0.14752677
154	0xbd8d1dc8	-0.06890446
155	0xbd13d762	-0.036094077
156	0xbe0b20e3	-0.13586764
157	0xbdd25429	-0.102699585
158	0xbe2b24d4	-0.16713268
159	0xbd553c68	-0.05205956
160	0x3c6d88ce	0.014497949
161	0x3d6eadb5	0.05827113
162	0xbe833449	-0.25625828
163	0x3d90e806	0.07075505
164	0xbdd7eb18	-0.105428874
165	0xbe1bdfd2	-0.152221
166	0xbd6084ba	-0.054814078
167	0xbd886bb1	-0.066611655
168	0xbe0bd40b	-0.13655107
169	0xbdb00f71	-0.08596695
170	0xbcc8f568	-0.024531081
171	0xbe5397d8	-0.20663393
172	0xbe60e4cd	-0.2196228
173	0xbcfb256c	-0.030657493
174	0xbb138759	-0.0022511093
175	0xbb8f6b8f	-0.0043768357
176	0xbe68d600	-0.22737885
177	0xbdb3d6c8	-0.08781201
178	0xbd13c17d	-0.036073197
179	0xbd39c2cf	-0.0453518
180	0xbe5c06d1	-0.21486975
181	0xbdb112f5	-0.08646194
182	0xbe0b5eca	-0.13610378
183	0xbe0fe185	-0.14050873
184	0xbcfca9fc	-0.030842774
185	0xbbbed2f4	-0.0058234874
186	0xbdcd4a45	-0.100239314
187	0xbd5df994	-0.054193094
188	0xbd8f60fb	-0.070009194
189	0xbce93b56	-0.028470676
190	0xbdb2dc10	-0.0873338
191	0xbd82a377	-0.06378835
192	0xbdbaccc8	-0.0912109
193	0xbc514f99	-0.012775325
194	0xbdf33df5	-0.11877052
195	0xbd4bb6b3	-0.049734782
196	0xbc5c82f7	-0.013458959
197	0xbdb889c5	-0.090106525
198	0xbbddcbb3	-0.0067686676
199	0xbd54995f	-0.05190408
200	0x3b2c89e1	0.00263273
201	0xbdca2c63	-0.09871747
202	0xbde43741	-0.11143351
203	0xbe26e019	-0.16296424
204	0xbe8f5fb1	-0.28002694
205	0x3cd9a52f	0.026568023
206	0xbdaab02a	-0.08334382
207	0xbdf1509a	-0.11782952
208	0xbdaaa4ea	-0.08332236
209	0x3d13c93b	0.03608058
210	0xbdbc7515	-0.09202019
211	0xb96a9ca3	-0.00022374331
212	0xbd87413a	-0.06604238
213	0xbdc74cb7	-0.09731429
214	0xbc9bd7db	-0.019023826
215	0xbceb078e	-0.028690126
216	0xbdafe716	-0.08588998
217	0xbe3c7107	-0.18402492
218	0x3de481ed	0.11157594
219	0xbe460c1a	-0.19340554
220	0xbd981e75	-0.07427684
221	0xbd3edfbd	-0.046600092
222	0xbd84c016	-0.0648195
223	0xbdf8c66e	-0.121472225
224	0xbc3f02be	-0.011658369
225	0xbc734931	-0.014848993
226	0xbebbe83c	-0.36700618
227	0x3d9707c8	0.07374531
228	0xbcf50544	-0.029909737
229	0xbd65fefd	-0.05615138
230	0x3c0e816e	0.008697851
231	0x3c877462	0.016534988
232	0x3cee7b6d	0.029111588
233	0xbe21f3d3	-0.15815668
234	0x3c86d515	0.016459027
235	0xbe126754	-0.14297229
236	0xbdfd459a	-0.12366791
237	0xbc3be8ae	-0.011469049
238	0x3d3fc04c	0.046814248
239	0x396425ce	0.00021757858
240	0xbd484cd9	-0.048901413
241	0x3dfec359	0.12439603
242	0xbdb99167	-0.090609364
243	0xbdb93391	-0.09043039
244	0x3d3d7447	0.04625347
245	0xbe310a41	-0.17289068
246	0xbcdbfc2a	-0.02685364
247	0x3d12ebc2	0.035869367
248	0xbdc45569	-0.09586603
249	0xbcb6fa40	-0.022336125
250	0xbd2878a1	-0.041130666
251	0x3c65299d	0.013986972
252	0xbd973971	-0.07384003
253	0xbe09d42c	-0.13459843
254	0x3d3ff4a3	0.046864163
255	0xbe3f9c9d	-0.18712087
