checkpoint_critic_20_agents.pth (torch_old, 549449 bytes, 9 tensors)

fcs1.weight f4 [400, 33]
-1.3873119 -0.20977949 -2.4214473 4.4903183 0.06330989 -2.1372125 -0.7425034 -0.35086262
0.5994437 0.50925976 -0.34029523 0.45314506 -0.44243932 -0.85246164 2.5986664 1.3113661
-0.6448027 -0.33063748 -0.5044408 0.44817263 0.22167726 0.015320305 -0.13682917 -0.65910935
0.69685787 0.25623074 1.0880034 0.017581875 -0.6628427 0.017553288 -0.019022632 -0.039752174
-0.539261 0.6071484 -3.3415287 0.07882238 -1.7341834 0.8915577 0.0055234246 0.13639458
0.11061362 -1.1538521 1.7090772 -0.28287256 -0.25802332 0.23314987 -0.48139775 2.2910032
0.75715303 -0.24711673 0.11884446 -0.6373203 0.19933064 -0.11709947 -0.13412936 0.08356873
-0.16310075 0.4337082 0.32558802 -0.5695225 0.041979764 -0.44290116 0.029552873 0.0438441
0.010181725 -6.5857873 0.66346914 1.7900001 1.7002302 -0.5255964 1.2195716 0.27496874
1.5002655 -0.4762867 1.2876052 2.6188545 -0.28814447 0.51520747 -0.099095084 -1.7952691
-1.3214496 -2.2390792 -0.26198688 -0.093462124 -0.34290352 0.39300263 0.16618977 0.23238298
-0.06535403 -0.11902151 -0.0008529387 -0.59370947 0.4984729 -0.015814582 0.6125759 -0.021480834
0.04815506 -0.03459961 2.076711 -2.5397172 1.5851545 1.9442987 0.6506008 0.9313543
1.1132925 2.0667276 0.096746735 1.9428897 -0.58953726 0.58370966 0.006396117 0.20802164
-0.22742115 -0.9315348 0.0056264894 -0.55984944 1.3018812 0.6020271 0.6100594 -0.24432398
0.252117 0.3798298 0.55312306 -0.38835034 -0.009105716 1.5108422 0.03823307 -1.7092291
-0.006041415 -0.034286514 0.048847165 -3.9648192 -0.7261663 2.1078482 -0.43510014 -0.41935068
2.7260206 -1.1942481 0.5881436 0.172429 -1.4655209 2.6590867 -1.4931062 -0.16022627
0.47576082 1.3747648 0.992371 0.65982753 1.0392658 0.3252941 -2.619196 2.1110938
0.0903692 -0.6499567 -0.5569093 -0.8621036 -0.34230116 -1.6806782 -0.3394998 -0.023351273
-1.1484132 0.028630082 -0.0020932711 -0.0006784424 -2.761198 -0.90051734 -3.3362591 -0.40682012
1.5936507 -0.7012097 2.337339 1.014831 -0.11371265 -0.043841194 -1.0552344 -0.13794994
-0.9447504 0.2065914 -0.62316763 3.3380456 -0.1936276 1.6500441 -1.2240756 -0.766158
0.31975916 -0.118028104 0.18131316 -0.20278533 -0.034590557 0.20312066 -0.17282858 1.3466144
-0.022580922 0.23639566 0.03983335 -0.011807031 0.030804288 -2.9826145 1.9443579 1.5941068
-0.36299825 -0.739788 0.42127675 1.346405 -0.92691046 0.105410516 0.23887752 0.21207125
1.6157863 0.32251832 0.1007245 -1.2736671 -0.46445793 -0.07546576 -0.60545975 0.5451735
0.10152487 -0.0043290127 0.91737837 0.22040951 1.6189078 -2.70268 0.53571165 1.0887399
0.21886729 0.02160603 0.67137027 -0.034947157 0.045604244 -0.047816426 -1.1444744 -0.9234039
-0.79648864 -2.873218 -0.092269205 0.1530262 -0.86547554 -0.95693594 -0.34467503 -2.5659962
1.2157327 -1.4870514 -0.16779764 -0.62830126 -1.0112619 -0.8596271 -0.16446877 -1.1367934
-0.6509613 -0.72757375 0.4776373 -0.2460617 -0.087557934 0.5887048 0.029246897 -1.6191236
00000000: 7093 b1bf 6fd0 56be fef8 1ac0 b0b0 8f40
00000010: 9ea8 813d 17c8 08c0 b414 3ebf 44a4 b3be
00000020: 2475 193f d95e 023f 2d3b aebe a102 e83e
00000030: 6887 e2be ed3a 5abf 8d50 2640 d8da a73f
00000040: ca11 25bf 5149 a9be 0823 01bf e276 e53e
00000050: 5dff 623e 0402 7b3c f21c 0cbe 64bb 28bf
00000060: 4765 323f ad30 833e b243 8b3f dd07 903c
00000070: 0fb0 29bf eacb 8f3c 5ad5 9bbc 2dd3 22bd
00000080: 020d 0abf 146e 1b3f 9bdb 55c0 a16d a13d
00000090: b9f9 ddbf 203d 643f d8fd b43b 05ab 0b3e
000000a0: 6589 e23d 6db1 93bf 0bc3 da3f acd4 90be
000000b0: a21b 84be d7be 6e3e c479 f6be cc9f 1240
000000c0: c8d4 413f 2b0c 7dbe b964 f33d 6c27 23bf
000000d0: 551d 4c3e d9d1 efbd 3559 09be 1526 ab3d
000000e0: e203 27be 000f de3e 79b3 a63e 3acc 11bf
000000f0: f9f2 2b3d f1c3 e2be de18 f23c df95 333d
00000100: 40d1 263c c5be d2c0 1dd9 293f b91e e53f
00000110: 25a1 d93f 7c8d 06bf ec1a 9c3f b4c8 8c3e
00000120: b308 c03f dadb f3be 3fd0 a43f 509b 2740
00000130: ac87 93be a3e4 033f 5df2 cabd 61cb e5bf
00000140: 4325 a9bf 134d 0fc0 2523 86be 1269 bfbd
00000150: 0d91 afbe a437 c93e a72d 2a3e cef5 6d3e
00000160: 55d8 85bd 8dc1 f3bd bf97 5fba 58fd 17bf
00000170: d737 ff3e 958d 81bc c6d1 1c3f 93f8 afbc
00000180: 3d3e 453d 52b8 0dbd d5e8 0440 ba8a 22c0
00000190: 58e6 ca3f c8de f83f c68d 263f 3c6d 6e3f
000001a0: 5e80 8e3f 4445 0440 2723 c63d 9cb0 f83f
000001b0: eaeb 16bf ff6d 153f 8596 d13b a003 553e
000001c0: 17e1 68be 1179 6ebf 6a5e b83b 4b52 0fbf
000001d0: 0ba4 a63f 731e 1a3f da2c 1c3f 1130 7abe
000001e0: 7b15 813e 0d79 c23e 7999 0d3f dbd5 c6be
000001f0: 2430 15bc 4763 c13f 489a 1c3d 05c8 dabf
00000200: 10f7 c5bb 0470 0cbd f713 483d 99bf 7dc0
00000210: 09e6 39bf fce6 0640 72c5 debe 22b5 d6be
00000220: 1f77 2e40 1fdd 98bf 9490 163f 3a91 303e
00000230: 3096 bbbf 7a2e 2a40 1b1e bfbf 5b12 24be
00000240: ec96 f33e 4bf8 af3f 070c 7e3f 75ea 283f
00000250: a906 853f f38c a63e e8a0 27c0 291c 0740
00000260: 7d13 b93d 9063 26bf 9c91 0ebf d2b2 5cbf
00000270: 1942 afbe 7720 d7bf ebd2 adbe 2b4b bfbc
00000280: 34ff 92bf a289 ea3c 432f 09bb 80d9 31ba
00000290: 78b7 30c0 4e88 66bf 4585 55c0 ba4a d0be
000002a0: bffc cb3f 7b82 33bf f696 1540 fbe5 813f
000002b0: 2ee2 e8bd d392 33bd ec11 87bf c042 0dbe
000002c0: 2adb 71bf b28c 533e ea87 1fbf 8aa2 5540
000002d0: 5046 46be a534 d33f 82ae 9cbf ee22 44bf
000002e0: 79b7 a33e b8b8 f1bd 28aa 393e f5a6 4fbe
000002f0: d4ae 0dbd ddfe 4f3e faf9 30be dc5d ac3f
00000300: a0fb b8bc b411 723e 4b28 233d 4772 41bc
00000310: 4659 fc3c 28e3 3ec0 b8e0 f83f b10b cc3f
00000320: e8da b9be bf62 3dbf 96b1 d73e 0057 ac3f
00000330: 014a 6dbf 78e1 d73d 4f9c 743e 3529 593e
00000340: 16d2 ce3f 1f21 a53e a648 ce3d 8607 a3bf
00000350: 6ecd edbe cb8d 9abd 69ff 1abf 7e90 0b3f
00000360: 45ec cf3d 64da 8dbb 4fd9 6a3f 08b3 613e
00000370: 5f38 cf3f b6f8 2cc0 6624 093f d45b 8b3f
00000380: bf1e 603e 21ff b03c ecde 2b3f c024 0fbd
00000390: 84cb 3a3d 28db 43bd 237e 92bf 3364 6cbf
000003a0: aee6 4bbf cee2 37c0 a3f7 bcbd e6b2 1c3e
000003b0: ce8f 5dbf c1f9 74bf 3f79 b0be 4839 24c0
000003c0: 219d 9b3f b357 bebf 25d3 2bbe 5ad8 20bf
000003d0: 0871 81bf 8610 5cbf 806a 28be 7282 91bf
000003e0: 66a5 26bf 4642 3abf e08c f43e 99f7 7bbe
000003f0: 9351 b3bd 5cb5 163f 3097 ef3c 713f cfbf

fcs1.bias f4 [400]
-0.08045261 -0.072034284 0.16956432 0.027364036 -0.14778465 -0.15447904 -0.1495937 -0.12628125
-0.105750225 -0.09294079 0.12967923 -0.07139686 0.16000426 -0.040026926 -0.14062972 -0.0638608
-0.07730227 -0.11962035 -0.16214085 0.006315907 -0.13512859 -0.0500602 -0.045790702 -0.10013021
-0.0065105036 -0.1348181 -0.056489315 0.1541853 0.16085657 0.012287055 0.04179148 0.15496606
0.16742261 -0.08206679 0.02757588 -0.034559466 -0.1193363 0.1542691 0.1380684 0.0074045826
0.14355814 0.046671614 0.11489629 0.0737806 0.08233145 0.06264986 0.087345965 0.15213297
0.06819694 -0.11093206 0.06404916 0.17361906 0.14425182 0.1095478 -0.06536962 0.17237519
0.03173879 -0.093503 -0.006553443 0.1318853 -0.15996419 -0.039691176 0.12972105 -0.04798688
-0.07000222 -0.04695828 0.056714557 -0.1342929 0.02214349 0.044585895 0.045980908 -0.004073766
0.08575 -0.011113761 0.13533351 0.1155621 -0.12041338 -0.0348002 0.13525401 -0.017402235
-0.053389084 -0.010397549 -0.040514603 -0.0611047 0.03848573 0.1465139 0.024916856 0.09741644
0.1343878 -0.11270902 -0.12220949 -0.025668696 0.05180808 -0.02121925 -0.08143374 -0.11969131
0.004993863 0.12956662 0.007162917 0.1657386 -0.082476564 0.16087106 -0.11198672 0.13845739
0.018374244 0.17312258 0.16557491 -0.05963479 -0.0124424705 -0.047195006 0.038487516 -0.085804105
-0.040373776 -0.1055359 0.10612593 0.13745284 0.019280562 -0.005093055 -0.13056445 -0.15776537
-0.13380764 -0.12871274 -0.14340991 0.08109451 -0.13259059 0.08325477 0.11576647 -0.0008372677
0.041196566 0.108331494 -0.15774328 0.15021788 0.1714616 0.1664158 -0.0679565 0.107045226
-0.06385967 0.026974387 0.14557338 0.036456745 0.063966796 -0.046486843 -0.08307429 0.14287214
-0.15685777 0.030594818 -0.016714642 -0.04932836 -0.17037624 -0.103440136 -0.099399686 0.026205208
0.067933686 -0.1581775 -0.066948995 -0.16594675 0.11902755 -0.1599369 -0.022991456 -0.024898095
-0.09540774 0.124998465 0.07433091 0.090929896 0.123229034 -0.08737674 0.08469429 0.14067267
-0.039975114 -0.014126306 0.016589286 -0.17084432 -0.018599782 -0.020969562 -0.12722233 0.12724622
-0.15313418 -0.06957965 0.102666646 0.026829915 0.070473485 0.0071940734 -0.1615982 -0.12508908
-0.0589683 -0.11801565 -0.10846253 -0.056397516 0.15577051 0.13497807 0.034936745 -0.11098148
-0.10515657 0.16996178 0.021485858 0.019501286 -0.098755814 -0.088884555 0.0856818 -0.01493375
-0.017982451 -0.085694544 -0.12909287 -0.11279168 -0.17223775 0.15983763 0.024851454 0.024429956
0.13078879 0.0870163 -0.025544722 0.10783995 0.002755048 -0.16931826 0.14114593 -0.10269438
-0.13161327 -0.04005524 0.042605147 0.13688132 -0.17244042 -0.16301516 -0.11553591 -0.10184574
0.17144522 -0.0031790426 0.12660784 0.048902772 0.10184083 -0.090350375 0.07599807 0.06342457
0.059869457 -0.13058195 -0.060502984 0.14817551 -0.03789984 -0.12660989 -0.14749356 -0.03520226
0.082218155 -0.0512779 0.12470183 0.07412389 -0.13926515 0.0019113407 0.15877448 0.10822374
-0.062421776 -0.12893632 0.04510027 0.08404751 -0.03597603 -0.14754586 0.16810471 0.08416482
00000000: 57c4 a4bd b686 93bd 45a2 2d3e 8b2a e03c
00000010: dc54 17be c12f 1ebe 172f 19be df4f 01be
00000020: 9393 d8bd be57 bebd a2ca 043e 8438 92bd
00000030: 28d8 233e 46f3 23bd 3d01 10be 73c9 82bd
00000040: a750 9ebd 84fb f4bd 4008 26be abf5 ce3b
00000050: 265f 0abe ed0b 4dbd 088f 3bbd 1111 cdbd
00000060: 1056 d5bb c20d 0abe 5761 67bd c0e2 1d3e
00000070: 96b7 243e a54f 493c 8b2d 2b3d 6caf 1e3e
00000080: d570 2b3e a212 a8bd d0e6 e13c 3a8e 0dbd
00000090: 9766 f4bd b8f8 1d3e cd61 0d3e 24a2 f23b
000000a0: e800 133e bc2a 3f3d bf4e eb3d 491a 973d
000000b0: 649d a83d 924e 803d 71e2 b23d bfc8 1b3e
000000c0: d6aa 8b3d 5930 e3bd 352c 833d 32c9 313e
000000d0: c0b6 133e 995a e03d 82e0 85bd 1f83 303e
000000e0: 8900 023d 807e bfbd 44be d6bb f10c 073e
000000f0: a7cd 23be 3793 22bd 98d5 043e e48d 44bd
00000100: 535d 8fbd 5357 40bd 864d 683d 1484 09be
00000110: 4466 b53c b39f 363d 7a56 3c3d 3a7d 85bb
00000120: b29d af3d 7e16 36bc de94 0a3e d3ab ec3d
00000130: 4a9b f6bd a88a 0ebd 0780 0a3e 228f 8ebc
00000140: 83ae 5abd 7b5a 2abc a4f2 25bd ec48 7abd
00000150: 36a3 1d3d bd07 163e 6f1e cc3c 4582 c73d
00000160: f59c 093e fdd3 e6bd f848 fabd 2847 d2bc
00000170: b634 543d fed3 adbc bcc6 a6bd b820 f5bd
00000180: 8fa3 a33b 1dad 043e e7b6 ea3b 61b7 293e
00000190: 79e9 a8bd 62bb 243e 4b59 e5bd c6c7 0d3e
000001a0: 9585 963c 0c47 313e 788c 293e 9c43 74bd
000001b0: 81db 4bbc 8d4f 41bd 16a5 1d3d 10ba afbd
000001c0: f95e 25bd 3523 d8bd 8d58 d93d 70c0 0c3e
000001d0: 45f2 9d3c a4e3 a6bb b0b2 05be 3f8d 21be
000001e0: df04 09be 46cd 03be 0cda 12be e114 a63d
000001f0: d4c5 07be 7a81 aa3d f916 ed3d 167c 5bba
00000200: bbbd 283d e7dc dd3d 7487 21be b7d2 193e
00000210: a193 2f3e e768 2a3e c72c 8bbd 873a db3d
00000220: dcc8 82bd 64f9 dc3c 3011 153e ab53 153d
00000230: 0601 833d fd68 3ebd da22 aabd 134d 123e
00000240: 539f 20be fca1 fa3c 25ed 88bc 890c 4abd
00000250: 1c77 2ebe 6cd8 d3bd 1092 cbbd 4eac d63c
00000260: d120 8b3d 48f9 21be 8e1c 89bd f2ed 29be
00000270: b7c4 f33d 80c6 23be 9458 bcbc 17f7 cbbc
00000280: 2265 c3bd 32ff ff3d ce3a 983d 7439 ba3d
00000290: 815f fc3d 94f2 b2bd 3374 ad3d 7f0c 103e
000002a0: f2bc 23bd 0672 67bc 41e6 873c d0f1 2ebe
000002b0: 925e 98bc 5cc8 abbc 9246 02be d54c 023e
000002c0: 35cf 1cbe c77f 8ebd e442 d23d 69ca db3c
000002d0: 6754 903d 43bc eb3b 007a 25be 5a17 00be
000002e0: bf88 71bd 30b2 f1bd 9a21 debd 1501 67bd
000002f0: 4e82 1f3e b137 0a3e d519 0f3d 424a e3bd
00000300: 545c d7bd 760a 2e3e 1c03 b03c 29c1 9f3c
00000310: 7d40 cabd 1b09 b6bd f179 af3d b0ac 74bc
00000320: ef4f 93bc 9f80 afbd ec30 04be 53ff e6bd
00000330: 185f 30be 7aac 233e 4795 cb3c 5521 c83c
00000340: 7fed 053e 9a35 b23d 2a43 d1bc 31db dc3d
00000350: 098e 343b c461 2dbe 8f88 103e 6e51 d2bd
00000360: a1c5 06be f710 24bd bc82 2e3d 9e2a 0c3e
00000370: 3994 30be 72ed 26be 179e ecbd 8094 d0bd
00000380: 568f 2f3e 7c57 50bb 7ca5 013e 464e 483d
00000390: ed91 d03d 9e09 b9bd e0a4 9b3d bee4 813d
000003a0: ad39 753d 46b7 05be fad1 77bd 52bb 173e
000003b0: dd3c 1bbd 06a6 01be 8d08 17be 3f30 10bd
000003c0: fe61 a83d c608 52bd ac63 ff3d 44ce 973d
000003d0: 869b 0ebe f485 fa3a c795 223e 68a4 dd3d
000003e0: faad 7fbd e207 04be 10bb 383d 1a21 ac3d
000003f0: 9a5b 13bd 4316 17be a423 2c3e 9b5e ac3d

bn1.weight f4 [400]
0.47620848 0.24840663 0.47166035 0.40008265 0.51041406 0.46037617 0.14211082 0.511795
0.44287524 0.38413212 0.5516351 0.63633394 0.49874982 0.27028605 0.36348233 0.60912967
0.4077347 0.40482953 0.45368496 0.57419884 0.5734862 0.3337486 0.1516947 0.58469474
0.20089196 0.43441412 0.5118701 0.58256805 0.20770754 0.2985673 0.5499087 0.40287325
0.22776686 0.021955926 0.4909171 0.35910326 0.13429284 0.25102243 0.112126455 0.45775127
0.23188958 0.09969427 0.44760713 0.10935935 0.3164134 0.5325502 0.41521373 0.48372892
0.42981622 0.39789298 -0.0012068171 0.32386804 0.5119315 0.23587245 0.6530727 0.44387272
0.25442255 0.1815581 0.24494635 0.71513504 0.36763865 0.39058593 0.54119384 0.5092909
0.8392703 0.18898925 0.5990935 0.4590707 0.2908142 0.6597412 0.14737213 0.48007572
0.5606244 0.36417982 0.6171 0.48735693 0.33503234 0.5213646 0.5428054 0.58937585
0.4298079 0.5236539 0.43458453 0.18976559 0.35919523 0.53067833 0.33772808 0.20382473
0.52894986 0.21923372 0.35079294 0.34213436 0.31625703 0.31248927 0.39306563 0.30259454
0.14065582 0.39675692 0.55999106 0.43059257 0.7243716 0.4280164 0.6041181 0.4807109
0.5521398 0.3807075 0.31902617 0.40724272 0.41607472 0.17866518 0.52515304 0.0011530536
0.34095234 0.22527523 0.33565557 0.42134157 0.5389393 0.37175736 0.008907298 0.6055142
0.6649044 0.50420195 0.48114336 0.5664516 0.40665135 0.4117523 0.49614537 0.57305354
0.78618604 0.5681818 0.526807 0.49918807 0.5196124 0.20777656 0.71034956 0.3078089
0.6548077 0.27887058 0.46409413 0.33784112 0.27407724 0.38781762 0.34408152 0.3665535
0.7454364 0.16708428 0.484296 0.587152 0.31780362 0.46784902 0.5689432 0.23317811
0.4474934 0.10038846 0.51820254 0.61925095 0.65416056 0.18865892 0.7346248 0.6891533
0.7555292 0.7163449 0.52746236 0.5715026 0.54790264 0.47590476 0.49517664 0.46813005
0.6008754 0.5431705 0.47982362 0.6504987 0.6966512 0.5875521 0.39470872 0.3344441
0.35679454 0.40445772 0.5466681 0.110517964 0.302311 0.4452996 0.1762839 0.5618778
0.330314 0.5954544 0.50853497 0.2945548 0.50977933 0.5665402 0.35074055 0.6603973
0.14716074 0.3811648 0.4549161 0.39170656 0.6359051 0.41566238 0.6090238 -0.0016833128
0.47544956 0.369694 0.36486503 0.47391573 0.7537928 0.64021194 0.47416347 0.30648023
0.4362659 0.5587618 0.41012925 0.45086902 0.37580684 0.21161814 0.252293 0.5446454
0.32141224 0.44658718 0.38104412 0.6594753 0.61228174 0.42847022 0.2476262 0.4706614
0.566993 0.39612925 0.4494929 0.6177433 0.44900408 0.3399156 0.39020872 0.69245213
0.502697 0.43565476 0.47944438 0.35106683 0.52837175 0.28947866 0.23136649 0.47713128
0.50591165 0.29152894 0.3487188 0.2127939 0.0020078805 0.21722241 0.4744701 0.5109225
0.3320763 0.76785636 0.3554192 0.4017592 0.26250735 0.29737106 0.26464027 0.26083344
00000000: 99d1 f33e 4f5e 7e3e 777d f13e a2d7 cc3e
00000010: 7faa 023f 6db6 eb3e 8085 113e ff04 033f
00000020: 8bc0 e23e f7ac c43e f537 0d3f c8e6 223f
00000030: 235c ff3e ef62 8a3e 5b1a ba3e ecef 1b3f
00000040: 9ac2 d03e d145 cf3e 6549 e83e b2fe 123f
00000050: fecf 123f 19e1 aa3e db55 1b3e 8eae 153f
00000060: 9fb6 4d3e 876b de3e eb09 033f 2e23 153f
00000070: 49b1 543e d0dd 983e d1c6 0c3f 6745 ce3e
00000080: b73b 693e eadc b33c 7c59 fb3e 62dc b73e
00000090: 1084 093e 0386 803e 8ea2 e53d 605e ea3e
000000a0: 7674 6d3e 822c cc3d c32c e53e cbf7 df3d
000000b0: f000 a23e 3655 083f e596 d43e 51ab f73e
000000c0: df10 dc3e a1b8 cb3e 102e 9eba 08d2 a53e
000000d0: f10d 033f 8c88 713e c62f 273f 4943 e33e
000000e0: ac43 823e 5eea 393e 37d3 7a3e 1713 373f
000000f0: 223b bc3e e1fa c73e ae8b 0a3f e360 023f
00000100: 6bda 563f 6686 413e 315e 193f 510b eb3e
00000110: 99e5 943e cde4 283f b8e8 163e 7ccc f53e
00000120: 1585 0f3f c775 ba3e 44fa 1d3f d986 f93e
00000130: 5c89 ab3e 2778 053f 4bf5 0a3f 56e1 163f
00000140: c80f dc3e 2f0e 063f dd81 de3e e951 423e
00000150: 70e8 b73e 89da 073f b2ea ac3e 6eb7 503e
00000160: 4269 073f ce7e 603e 229b b33e 3c2c af3e
00000170: 71ec a13e 98fe 9f3e e63f c93e aced 9a3e
00000180: 1408 103e b923 cb3e 935b 0f3f a176 dc3e
00000190: 6b70 393f f724 db3e 7ca7 1a3f bd1f f63e
000001a0: 0959 0d3f 18ec c23e 6657 a33e 1e82 d03e
000001b0: bf07 d53e 01f4 363e 6e70 063f 0f22 973a
000001c0: 4e91 ae3e 8dae 663e 0cdb ab3e 15ba d73e
000001d0: edf7 093f fb56 be3e eaef 113c fb02 1b3f
000001e0: 2d37 2a3f 6113 013f 6c58 f63e f902 113f
000001f0: 9b34 d03e 33d1 d23e c406 fe3e a3b3 123f
00000200: 7d43 493f 5d74 113f d3dc 063f 9495 ff3e
00000210: 5105 053f 61c3 543e 78d9 353f 2199 9d3e
00000220: 7aa1 273f 20c8 8e3e bf9d ed3e 83f9 ac3e
00000230: da53 8c3e 0890 c63e 742b b03e e6ac bb3e
00000240: ebd4 3e3f 2418 2b3e a5f5 f73e 984f 163f
00000250: 28b7 a23e e889 ef3e 43a6 113f 3ec6 6e3e
00000260: db1d e53e 7798 cd3d eca8 043f 3b87 1e3f
00000270: 1177 273f ce2f 413e 5f10 3c3f 5a6c 303f
00000280: 5d6a 413f 6162 373f c607 073f ff4d 123f
00000290: 5943 0c3f caa9 f33e cb87 fd3e beae ef3e
000002a0: f8d2 193f 390d 0b3f 71ab f53e 1587 263f
000002b0: bc57 323f d069 163f 4317 ca3e 423c ab3e
000002c0: c6ad b63e 1515 cf3e 71f2 0b3f 3e57 e23d
000002d0: 82c8 9a3e 4ffe e33e c483 343e 39d7 0f3f
000002e0: eb1e a93e b36f 183f 592f 023f e3cf 963e
000002f0: e680 023f c708 113f 4494 b33e cc0f 293f
00000300: 4eb1 163e 0828 c33e c3ea e83e c38d c83e
00000310: adca 223f b3d1 d43e fce8 1b3f 9ba2 dcba
00000320: 206e f33e 8848 bd3e 97cf ba3e 15a5 f23e
00000330: 91f8 403f eee4 233f 8ec5 f23e faea 9c3e
00000340: 3e5e df3e 030b 0f3f 76fc d13e 4ed8 e63e
00000350: c169 c03e 6db2 583e 8c2c 813e e26d 0b3f
00000360: 2590 a43e 13a7 e43e 3718 c33e 60d3 283f
00000370: 7fbe 1c3f 7360 db3e b991 7d3e 88fa f03e
00000380: 7426 113f 74d1 ca3e ef23 e63e 6d24 1e3f
00000390: dde3 e53e 6b09 ae3e 70c9 c73e 8b44 313f
000003a0: c0b0 003f 240e df3e bc79 f53e 08bf b33e
000003b0: 5f43 073f 8c36 943e 56eb 6c3e 8d4a f43e
000003c0: 6d83 013f 4843 953e 458b b23e a5e6 593e
000003d0: a596 033b 8d6f 5e3e bfed f23e d1cb 023f
000003e0: e805 aa3e 3c92 443f 81f9 b53e 62b3 cd3e
000003f0: 5d67 863e 0541 983e ee7e 873e f68b 853e

bn1.bias f4 [400]
-0.94597834 0.12717097 -0.73424524 -0.6397263 -1.0792344 -0.63245505 -0.1749197 -0.8582659
-0.16029178 -0.66452974 -0.54093575 -0.8455832 -0.4838441 -0.8487828 -0.851424 -1.1769813
-1.1760942 -0.46842563 -0.6904818 -0.86767465 -1.2218586 -0.58141845 0.074583694 -0.9418614
0.4938854 -0.7407906 -1.2539966 -1.2310102 -0.6755598 0.0492746 -0.4750314 -0.44523355
-0.18460004 -0.10010753 -0.45877892 -0.6294454 0.14115973 -0.16301446 -0.86568576 -0.4563181
-0.14103858 0.36372882 -0.72445846 0.018421823 -0.7589924 -0.75617224 -0.48648778 -0.6280962
-0.63121885 -0.46565077 -0.06231886 -0.6106219 -1.1465688 -0.30692667 -1.0448866 -0.538187
-0.21068634 -0.098164365 -0.23941441 -0.39909077 -0.39456832 -0.57203287 -1.2062043 -0.7331891
-1.317247 -0.8389085 -0.94040096 -0.8559125 0.03313477 -1.0245562 -0.052487366 -0.80029786
-1.0208086 -0.21521175 -0.9588138 -0.77322596 -0.35618526 -0.5337325 -0.9679639 -1.0087346
-0.31400725 -0.9312233 -1.0573399 0.10520041 -0.11112413 -0.97150975 -0.07546361 0.022585118
-0.6520735 0.06795387 -0.28538162 -0.8082341 -0.22630323 -0.3918826 -0.6495572 -0.6862492
-0.004788792 -0.8545683 -0.9218286 -0.66985214 -0.22504352 -0.60226655 -0.37058395 -0.2989528
-1.2145673 -0.48178142 -0.6199048 -0.60929215 -0.37558785 -0.19735326 -0.49442604 -0.027901422
-0.6451545 -0.026732722 -0.83728725 -0.65620756 -0.6772002 0.12213097 -0.07170479 -0.683641
-0.80024403 -1.1052215 -0.8161935 -0.8395601 -0.071032226 -0.8282563 -0.5689891 -1.1274275
-1.1122316 -0.90192485 -1.0729125 -0.7945515 -0.68847096 -0.32127184 -0.81540364 -1.4661273
-1.4910231 -0.44500792 -0.8457463 -0.4743999 -0.41733527 -0.5912059 -0.7387257 -0.29734385
-0.90634656 -1.0590028 -0.94845146 -0.9432818 -0.037992645 -0.6075683 -1.0856789 -0.13250895
-0.35480553 0.06310783 -0.89061874 -0.9170019 -1.0117484 0.008531153 -0.93301916 -0.89200205
-1.0806257 -1.403013 -1.1795889 -0.7253113 -0.64558077 -0.38747048 -0.5813567 -0.38398078
-1.1324548 -0.75168246 -0.77316386 -1.0429025 -0.79148877 -0.7900291 -0.3864441 -0.44433406
-1.0534084 -0.5620654 -0.8595138 -0.06009776 -0.32301512 -0.12568484 -0.024585532 -0.8413017
-0.32608935 -0.84139425 -0.81733745 -0.1095629 -0.9969575 -1.0806319 -0.085412435 -0.6011919
-0.094645455 -0.12268895 -0.7880135 -0.52799803 -1.1772618 -0.37849295 -1.1167976 -0.036061756
-0.82457346 -0.71655965 -0.6814779 -0.5884562 -0.15397723 -1.0737 -0.88441277 -0.4392445
-0.7469127 -1.1424054 -1.010644 -0.9116382 -0.95107657 -0.18451168 -0.40937227 -0.6325307
-0.45097557 -0.82448536 -0.40781787 -1.1368724 -0.99165833 -1.0627007 0.033909764 -0.5653387
-0.5381727 -0.7535545 -0.9655665 -1.3544654 -0.9287883 -0.79179853 -0.5655662 -1.0363125
-0.93941003 -0.636017 -0.38079494 -0.6215035 -0.5299734 -0.8270186 -1.0624069 -0.8291303
-0.37309465 -0.2767495 -0.40286806 -0.1734726 -0.046187177 -0.118588 -0.73833376 -0.9536344
-0.5798215 -1.1214094 -0.40047804 -0.57283205 -1.5258238 0.022448352 -1.0081698 -0.40672264
00000000: a32b 72bf 1b39 023e 7ff7 3bbf 1ac5 23bf
00000010: 5a24 8abf 93e8 21bf 261e 33be 50b7 5bbf
00000020: 8723 24be 9f1e 2abf c47a 0abf 2478 58bf
00000030: 6aba f7be d449 59bf ecf6 59bf 53a7 96bf
00000040: 418a 96bf 7cd5 efbe 6ac3 30bf ed1f 5ebf
00000050: dd65 9cbf d7d7 14bf 56bf 983d d41d 71bf
00000060: 8cde fc3e 74a4 3dbf f682 a0bf be91 9dbf
00000070: 7df1 2cbf 2ad4 493d 5137 f3be a7f5 e3be
00000080: cb07 3dbe 2d05 cdbd 12e5 eabe 5523 21bf
00000090: 2d8c 103e 43ed 26be 959d 5dbf 87a2 e9be
000000a0: 6b6c 10be aa3a ba3e 1c76 39bf 5de9 963c
000000b0: 534d 42bf 8194 41bf ed14 f9be eaca 20bf
000000c0: 8f97 21bf c769 eebe 1042 7fbd b851 1cbf
000000d0: c4c2 92bf 7e25 9dbe d8be 85bf a0c6 09bf
000000e0: 29be 57be 660a c9bd 0d29 75be a055 ccbe
000000f0: dc04 cabe bf70 12bf e764 9abf 48b2 3bbf
00000100: 8d9b a8bf b5c2 56bf 1ebe 70bf 151d 5bbf
00000110: 53b8 073d a824 83bf fefc 56bd 52e0 4cbf
00000120: dba9 82bf 7860 5cbe d274 75bf 23f2 45bf
00000130: ea5d b6be b1a2 08bf 7bcc 77bf 371e 81bf
00000140: 8fc5 a0be a664 6ebf ea56 87bf 5073 d73d
00000150: 0c95 e3bd ddb4 78bf aa8c 9abd 6d04 b93c
00000160: 4aee 26bf 662b 8b3d 8a1d 92be 6ee8 4ebf
00000170: 09bc 67be d6a4 c8be 6149 26bf 07ae 2fbf
00000180: 4deb 9cbb fdc4 5abf f6fc 6bbf 6e7b 2bbf
00000190: cf71 66be 242e 1abf 2ebd bdbe 5710 99be
000001a0: f176 9bbf 0eac f6be 15b2 1ebf 92fa 1bbf
000001b0: 0d4d c0be f916 4abe 6925 fdbe 8691 e4bc
000001c0: d828 25bf 95fe dabc 7558 56bf 38fd 27bf
000001d0: fe5c 2dbf cd1f fa3d f6d9 92bd 1903 2fbf
000001e0: cbdc 4cbf e677 8dbf 0ff2 50bf 69ed 56bf
000001f0: 5879 91bd 9b08 54bf 45a9 11bf 8b4f 90bf
00000200: 9b5d 8ebf 8ce4 66bf 3255 89bf ba67 4bbf
00000210: a23f 30bf be7d a4be 4bbe 50bf 0faa bbbf
00000220: d8d9 bebf 14d8 e3be d482 58bf 8be4 f2be
00000230: f8ac d5be 4559 17bf 211d 3dbf 743d 98be
00000240: 5406 68bf 678d 87bf b7cd 72bf eb7a 71bf
00000250: 2d9e 1bbd 9989 1bbf 87f7 8abf 6db0 07be
00000260: 12a9 b5be ae3e 813d 97ff 63bf a3c0 6abf
00000270: f980 81bf 40c6 0b3c 58da 6ebf 3f5a 64bf
00000280: f151 8abf ee95 b3bf c5fc 96bf 00ae 39bf
00000290: c844 25bf 8862 c6be cbd3 14bf 2199 c4be
000002a0: 47f4 90bf 436e 40bf 11ee 45bf d47d 85bf
000002b0: 029f 4abf 593f 4abf 00dc c5be c17f e3be
000002c0: 16d6 86bf 85e3 0fbf 1909 5cbf 1229 76bd
000002d0: 3d62 a5be 87b3 00be 9967 c9bc 8c5f 57bf
000002e0: 2ff5 a6be 9d65 57bf 073d 51bf 8462 e0bd
000002f0: 9b38 7fbf 2552 8abf b7ec aebd b6e7 19bf
00000300: 7ad5 c1bd 5844 fbbd 41bb 49bf e12a 07bf
00000310: 84b0 96bf d4c9 c1be 39f3 8ebf 7eb5 13bd
00000320: 3f17 53bf 7470 37bf 5675 2ebf 11a5 16bf
00000330: 35ac 1dbe 006f 89bf e068 62bf a8e4 e0be
00000340: ac35 3fbf 573a 92bf c85c 81bf 1f61 69bf
00000350: c179 73bf a1f0 3cbe 3e99 d1be 88ed 21bf
00000360: 45e6 e6be 7911 53bf 81cd d0be 0985 91bf
00000370: 52dd 7dbf 9406 88bf f7e4 0a3d 09ba 10bf
00000380: b0c5 09bf f3e8 40bf 5e2f 77bf 1f5f adbf
00000390: 12c5 6dbf 4fb3 4abf f2c8 10bf e3a5 84bf
000003a0: 2d7d 70bf 03d2 22bf 8ef7 c2be da1a 1fbf
000003b0: 56ac 07bf 7eb7 53bf f3fc 87bf e241 54bf
000003c0: 4306 bfbe 1cb2 8dbe b944 cebe cda2 31be
000003d0: c42e 3dbd 44de f2bd 7103 3dbf 6221 74bf
000003e0: 2f6f 14bf 588a 8fbf 750b cdbe 1fa5 12bf
000003f0: 324e c3bf 9be5 b73c b50b 81bf f33d d0be

bn1.running_mean f4 [400]
-3.9240682 0.83427435 -2.3035722 -2.4861596 -7.5491643 -0.21017063 -3.487488 2.039289
-4.7073884 -1.46664 -2.2375216 -2.3759491 -4.809769 1.0067178 -8.702493 3.8158839
-13.64647 -4.8566775 6.8885603 -3.173476 -5.852364 8.666476 8.2906685 0.18267272
-4.208249 -6.5497403 0.29824716 -6.9659734 -3.4902499 -1.0212786 -0.44552472 0.35144913
-2.4983714 0.31943232 -2.7115688 -4.1742115 4.357481 -1.4679531 -6.1567454 -0.5922488
2.6473627 5.73746 4.870171 0.04846561 -3.6106188 -1.9116669 1.6002414 -2.0358799
7.662273 -2.6106575 -0.21587425 3.193005 -5.1166945 -0.5571911 0.4134997 4.810507
2.7574904 -9.007406 1.0674788 1.5267863 1.3024988 -5.912084 -0.071055934 0.10641922
-2.4066336 -2.4200296 -4.376036 1.6488078 5.4390955 -0.76930445 2.7721944 -1.7703476
-3.039782 -2.5493279 -4.0418034 -0.5215313 5.348843 -2.4136872 6.2380056 -3.5304677
0.21326007 -9.033095 -8.763839 8.174813 0.111864746 -0.8886437 -1.0892292 1.2311612
4.1004543 -0.085261844 -3.6682549 -8.169142 3.3374941 3.110792 1.1017563 -2.0481753
0.8007462 4.085659 -6.430627 -4.4517994 -0.4383631 -1.4714406 -0.105197795 1.3734226
-4.3458195 1.6493905 -12.29842 5.128746 7.5704145 -0.918478 -0.31042853 -0.17418775
-7.790329 2.4355943 -5.6553254 -1.936173 7.353387 4.8622503 0.033440437 -3.111265
-1.214837 -8.450719 3.0010903 0.61516315 0.7291811 -7.769306 -2.5617075 -2.9420307
3.909038 -8.9151325 2.046206 -3.8797157 2.8681135 1.8641875 -0.8189605 -0.5943627
-8.20097 0.74731237 1.1038737 4.0496244 -5.591318 0.11090767 3.966528 4.5888414
0.24942642 -6.494088 2.665254 -1.3641344 3.5952613 6.303956 -1.9890085 -4.7888746
12.318873 7.007096 -1.044924 8.036878 -0.18063402 5.51584 0.10553276 -4.3297048
-4.94984 -6.55823 -10.555194 -4.822343 -0.9384694 -0.7459586 -0.8219533 -2.1572173
4.569995 2.183495 5.6013627 -9.755182 -0.52088624 -1.4119381 0.86588657 -5.115854
1.7807428 -1.3662444 5.095917 2.5461292 -2.8776727 -1.5327129 2.4183376 2.558275
1.4421341 -1.1474768 -3.8499951 -0.41805285 -6.7701383 1.8112725 2.4749577 -1.4485114
4.1784377 -2.789321 1.497286 -4.94821 -2.562324 0.004714211 -1.8905616 -0.108156666
-6.0109262 -1.9075729 -1.1875062 -1.8866152 1.5057987 -8.272337 -4.8471694 6.019881
5.5799546 -3.5044959 -8.388849 -10.171866 0.5408252 -2.9482462 -11.559676 -4.809375
-4.2969604 -6.0068984 9.833718 -3.084966 -5.5099597 -3.8029578 -0.32585436 -1.8243757
1.0783212 1.9271325 -0.34305716 -3.2790449 -2.4615233 0.9909001 6.4841943 -2.7737281
4.772486 3.4187748 -0.021372106 -11.445917 -4.076727 -13.2396555 -7.00065 -0.5594672
-0.97980934 -10.833975 -6.276209 0.49625084 -0.17615594 9.507705 1.0744476 -0.93281645
-4.3224187 -5.3133316 -0.7476517 -2.0791426 4.1215854 -0.028328508 -2.623346 2.5268195
00000000: ef23 7bc0 0193 553f ba6d 13c0 3d1d 1fc0
00000010: c192 f1c0 f836 57be 0133 5fc0 b683 0240
00000020: eda2 96c0 dcba bbbf 8e33 0fc0 8d0f 18c0
00000030: a1e9 99c0 21dc 803f 693d 0bc1 7137 7440
00000040: f157 5ac1 e769 9bc0 166f dc40 3b1a 4bc0
00000050: 9146 bbc0 e3a9 0a41 94a6 0441 8f0e 3b3e
00000060: faa9 86c0 7997 d1c0 dab3 983e 41e9 dec0
00000070: 4160 5fc0 42b9 82bf d11b e4be 24f1 b33e
00000080: 51e5 1fc0 a28c a33e 588a 2dc0 2493 85c0
00000090: 7c70 8b40 e3e5 bbbf 0f04 c5c0 9e9d 17bf
000000a0: 646e 2940 4699 b740 71d8 9b40 e083 463d
000000b0: 6114 67c0 80b1 f4bf b6d4 cc3f db4b 02c0
000000c0: 5731 f540 0315 27c0 240e 5dbe 325a 4c40
000000d0: f6bb a3c0 13a4 0ebf 3cb6 d33e acef 9940
000000e0: b97a 3040 561e 10c1 25a3 883f bc6d c33f
000000f0: 48b8 a63f cb2f bdc0 c685 91bd 52f2 d93d
00000100: 4906 1ac0 c4e1 1ac0 7d08 8cc0 220c d33f
00000110: 120d ae40 23f1 44bf a26b 3140 c09a e2bf
00000120: ca8b 42c0 3028 23c0 7456 81c0 1383 05bf
00000130: b929 ab40 da79 1ac0 be9d c740 2ff3 61c0
00000140: d960 5a3e 8f87 10c1 af38 0cc1 09cc 0241
00000150: 5819 e53d 277e 63bf dd6b 8bbf b196 9d3f
00000160: ec36 8340 c39d aebd b0c4 6ac0 ceb4 02c1
00000170: 8199 5540 3717 4740 5a06 8d3f 4e15 03c0
00000180: b4fd 4c3f b8bd 8240 b2c7 cdc0 2475 8ec0
00000190: 2171 e0be 2a58 bcbf f171 d7bd 50cc af3f
000001a0: f410 8bc0 3a1f d33f 54c6 44c1 b01e a440
000001b0: d640 f240 6021 6bbf 7df0 9ebe 465e 32be
000001c0: 604a f9c0 c7e0 1b40 6df8 b4c0 84d4 f7bf
000001d0: f24e eb40 8e97 9b40 d7f8 083d f71e 47c0
000001e0: c77f 9bbf 2536 07c1 dd11 4040 557b 1d3f
000001f0: 9dab 3a3f 289e f8c0 04f3 23c0 3b4a 3cc0
00000200: ae2d 7a40 62a4 0ec1 0af5 0240 434d 78c0
00000210: 2c8f 3740 b29d ee3f 65a7 51bf 2728 18bf
00000220: 2c37 03c1 dd4f 3f3f bc4b 8d3f 8696 8140
00000230: 14ec b2c0 8f23 e33d 98db 7d40 cad7 9240
00000240: a469 7f3e 92cf cfc0 8693 2a40 f59b aebf
00000250: c318 6640 02ba c940 d597 febf 763e 99c0
00000260: 1b1a 4541 213a e040 12c0 85bf 0d97 0041
00000270: 20f8 38be c381 b040 8f21 d83d f18c 8ac0
00000280: 1765 9ec0 05dd d1c0 13e2 28c1 a250 9ac0
00000290: 883f 70bf 25f7 3ebf 886b 52bf d90f 0ac0
000002a0: 663d 9240 62be 0b40 5d3e b340 3a15 1cc1
000002b0: cd58 05bf 63ba b4bf beaa 5d3f 13b5 a3c0
000002c0: 61ef e33f 19e1 aebf c111 a340 c8f3 2240
000002d0: ca2b 38c0 f02f c4bf 0bc6 1a40 c7ba 2340
000002e0: da97 b83f 85e0 92bf 5266 76c0 060b d6be
000002f0: f9a4 d8c0 c7d7 e73f b565 1e40 d268 b9bf
00000300: c3b5 8540 3c84 32c0 11a7 bf3f bc57 9ec0
00000310: 1efd 23c0 ab79 9a3b ecfd f1bf 3e81 ddbd
00000320: 8259 c0c0 592b f4bf 3400 98bf 9b7c f1bf
00000330: 03be c03f 7e5b 04c1 031c 9bc0 dda2 c040
00000340: fd8e b240 a949 60c0 ba38 06c1 f7bf 22c1
00000350: 8573 0a3f 11b0 3cc0 6ff4 38c1 66e6 99c0
00000360: b380 89c0 8338 c0c0 e956 1d41 1570 45c0
00000370: 9751 b0c0 a963 73c0 62d6 a6be 2585 e9bf
00000380: 6e06 8a3f 47ac f63f 30a5 afbe dfdb 51c0
00000390: 9989 1dc0 a1ab 7d3f 857e cf40 c384 31c0
000003a0: 35b8 9840 35cd 5a40 8e14 afbc 7a22 37c1
000003b0: 8c74 82c0 a1d5 53c1 5305 e0c0 3e39 0fbf
000003c0: c9d4 7abf f657 2dc1 b4d6 c8c0 9714 fe3e
000003d0: 3962 34be 8f1f 1841 8087 893f 0fcd 6ebf
000003e0: 4151 8ac0 d006 aac0 1a66 3fbf ac10 05c0
000003f0: 07e4 8340 3011 e8bc e7e4 27c0 69b7 2140

bn1.running_var f4 [400]
21.835032 38.453613 32.92071 68.22903 78.76374 22.198965 84.04941 109.18989
103.87986 15.777463 89.7399 41.882957 92.01916 284.5479 72.939095 197.95189
49.457005 22.490643 33.75567 48.042377 102.02756 37.06909 62.97878 25.567947
20.314665 86.73369 131.39519 62.335716 75.44203 152.75465 149.96783 46.644203
65.281715 4.760625 158.55916 132.51767 64.61011 5.242142 142.85657 236.07439
145.75874 543.8334 82.95166 115.035416 143.30234 39.35843 294.2251 49.478287
40.38238 108.96554 0.39928752 69.36522 20.203728 7.331672 41.510384 498.28082
81.25463 33.03752 83.780495 124.463646 21.243345 14.481457 28.602348 44.908974
70.29766 58.87053 46.88615 99.89497 38.103745 33.94713 100.89717 62.59002
163.8216 68.76686 30.842724 26.079674 47.61206 109.96117 209.82791 107.6995
94.42789 104.35116 67.79467 20.932125 79.64271 71.38204 46.884655 44.654945
74.00255 14.276052 250.66615 98.754135 156.94237 160.59688 78.29784 21.09467
71.70612 88.420784 37.523624 87.16008 155.77348 107.31049 67.49759 43.721893
20.024023 47.03987 98.70323 112.1318 93.34008 27.799185 88.097206 0.07113034
104.145676 149.53635 18.48541 118.30059 178.75179 465.79 0.41827297 58.177315
33.782486 48.36649 172.0809 340.28088 44.140675 176.9472 113.550156 89.60945
76.71944 53.77473 84.4376 52.311977 96.04449 40.560047 56.65053 69.996185
69.58636 59.310776 311.68082 99.59247 36.570377 75.686 137.39024 28.712484
41.5121 43.859634 32.68304 28.58322 59.012737 387.5028 101.86585 72.879684
112.24951 30.12883 108.87992 45.851795 30.305141 108.86603 85.574646 93.19602
115.566666 113.99081 114.238785 95.2839 49.702724 229.37871 19.716831 20.82383
349.88025 206.35893 41.451523 82.05462 91.98178 15.477174 44.683426 22.565454
315.99023 24.04365 245.7166 68.853004 84.01211 43.86722 30.288754 66.526924
51.969276 43.140717 146.92773 47.062656 54.244446 39.576405 58.61868 50.508587
98.19965 10.849334 74.26243 52.62156 42.451164 229.74762 39.560986 0.077507675
87.68438 48.896248 36.240555 25.923199 103.46951 110.276955 21.131824 76.03421
143.33177 30.756804 18.481636 119.24756 71.71919 7.1856403 66.68328 262.654
110.89857 61.23482 92.88742 51.911144 19.426018 20.272898 37.163864 98.067825
117.048836 33.27833 26.332315 69.852974 194.4317 46.914593 116.64812 55.0103
215.07924 115.041275 24.847136 25.695604 66.91057 36.266106 180.6667 46.46463
126.67642 37.991787 33.38565 101.66945 0.2334411 106.57527 39.22059 392.22305
37.113613 71.374756 88.96169 52.070732 59.039116 21.611515 63.37185 82.93429
00000000: 25ae ae41 80d0 1942 cfae 0342 4375 8842
00000010: 0987 9d42 7b97 b141 4c19 a842 3961 da42
00000020: 7dc2 cf42 7d70 7c41 d47a b342 2688 2742
00000030: cf09 b842 2246 8e43 d1e0 9142 aff3 4543
00000040: f9d3 4542 d6ec b341 ce05 0742 652b 4042
00000050: 1c0e cc42 c046 1442 45ea 7b42 288b cc41
00000060: 6f84 a241 a677 ad42 2b65 0343 c657 7942
00000070: 52e2 9642 31c1 1843 c4f7 1543 aa93 3a42
00000080: 3d90 8242 0a57 9840 258f 1e43 8684 0443
00000090: 6038 8142 a1bf a740 48db 0e43 0b13 6c43
000000a0: 3dc2 1143 56f5 0744 40e7 a542 2212 e642
000000b0: 664d 0f43 086f 1d42 d01c 9343 c4e9 4542
000000c0: 8f87 2142 5bee d942 6a6f cc3e feba 8a42
000000d0: 3ca1 a141 0f9d ea40 a20a 2642 f223 f943
000000e0: 5f82 a242 6c26 0442 9d8f a742 63ed f842
000000f0: 5ff2 a941 0cb4 6741 9cd1 e441 caa2 3342
00000100: 6798 8c42 6c7b 6b42 6b8b 3b42 3aca c742
00000110: 3c6a 1842 dcc9 0742 5acb c942 2e5c 7a42
00000120: 54d2 2343 a288 8942 e6bd f641 2ca3 d041
00000130: c072 3e42 1eec db42 f2d3 5143 2566 d742
00000140: 14db bc42 cbb3 d042 df96 8742 fe74 a741
00000150: 1149 9f42 9bc3 8e42 e389 3b42 aa9e 3242
00000160: 4e01 9442 b66a 6441 89aa 7a43 1e82 c542
00000170: 3ff1 1c43 cd98 2043 7e98 9c42 e2c1 a841
00000180: 8969 8f42 71d7 b042 3118 1642 f651 ae42
00000190: 03c6 1b43 f99e d642 c4fe 8642 38e3 2e42
000001a0: 3331 a041 d428 3c42 0e68 c542 7b43 e042
000001b0: 1fae ba42 bb64 de41 c531 b042 c9ac 913d
000001c0: 964a d042 4e89 1543 1fe2 9341 e799 ec42
000001d0: 75c0 3243 1fe5 e843 e027 d63e 92b5 6842
000001e0: 4421 0742 4977 4142 b614 2c43 f423 aa43
000001f0: 0d90 3042 7cf2 3043 ae19 e342 0a38 b342
00000200: 5a70 9942 5319 5742 0de0 a842 773f 5142
00000210: c716 c042 7d3d 2242 259a 6242 0cfe 8b42
00000220: 372c 8b42 3c3e 6d42 25d7 9b43 582f c742
00000230: 1148 1242 3b5f 9742 e763 0943 2bb3 e541
00000240: 640c 2642 4470 2f42 6fbb 0242 6faa e441
00000250: 0b0d 6c42 5cc0 c143 51bb cb42 66c2 9142
00000260: c07f e042 d807 f141 85c2 d942 3d68 3742
00000270: ee70 f241 68bb d942 3826 ab42 5d64 ba42
00000280: 2222 e742 4bfb e342 427a e442 5b91 be42
00000290: 97cf 4642 f360 6543 12bc 9d41 3497 a641
000002a0: acf0 ae43 e35b 4e43 5cce 2542 f71b a442
000002b0: acf6 b742 81a2 7741 d4bb 3242 0d86 b441
000002c0: c0fe 9d43 6559 c041 73b7 7543 bdb4 8942
000002d0: 3306 a842 0978 2f42 5e4f f241 c90d 8542
000002e0: 8ae0 4f42 1890 2c42 80ed 1243 2940 3c42
000002f0: 50fa 5842 3d4e 1e42 8779 6a42 cb08 4a42
00000300: 3966 c442 df96 2d41 5d86 9442 7a7c 5242
00000310: fecd 2942 64bf 6543 733e 1e42 58bc 9e3d
00000320: 675e af42 c295 4342 54f6 1042 b662 cf41
00000330: 64f0 ce42 cd8d dc42 fa0d a941 8411 9842
00000340: ef54 0f43 ef0d f641 64da 9341 c07e ee42
00000350: 3a70 8f42 c4f0 e540 d75d 8542 b653 8343
00000360: 11cc dd42 75f0 7442 5cc6 b942 03a5 4f42
00000370: 7c68 9b41 e52e a241 cca7 1442 ba22 c442
00000380: 0119 ea42 031d 0542 95a8 d241 b9b4 8b42
00000390: 846e 4243 8ba8 3b42 d64b e942 8c0a 5c42
000003a0: 4914 5743 2215 e642 efc6 c641 9990 cd41
000003b0: 36d2 8542 7e10 1142 adaa 3443 c8db 3942
000003c0: 545a fd42 97f7 1742 e88a 0542 c256 cb42
000003d0: 2f0b 6f3e 8a26 d542 e2e1 1c42 8d1c c443
000003e0: 5774 1442 e0bf 8e42 63ec b142 6e48 5042
000003f0: 0e28 6c42 62e4 ac41 c67c 7d42 5bde a542

fc2.weight f4 [300, 404]
0.1188888 -0.59389144 1.1413621 -0.21569537 -1.3466922 -0.48770955 -1.4529032 -0.43671376
-1.6587136 -2.642754 1.5000532 1.4512349 -0.03873739 -0.5643141 -1.6508948 0.36078796
-0.43068075 -0.36778715 1.8833585 -0.4829266 -1.4320501 1.4268656 -0.012084586 -1.5135187
-0.15526791 1.242777 0.64142084 -0.24650747 -0.031196445 -0.030691054 -0.5118057 -0.8501403
-2.2405796 0.02934489 -1.2394034 0.04714495 -0.07735325 0.4384208 0.33540314 -0.11046274
0.8144527 -0.4855674 0.45669785 -0.44876567 -0.26596496 -0.011232082 -0.38179314 0.86238533
0.20348434 -0.0035925736 -0.016710397 0.27203763 0.37387642 -0.05255441 -0.24205045 0.31725633
-0.75460815 -0.6729979 -0.58232814 0.75130475 0.091872476 -0.08063726 -1.0548021 -0.32002172
1.5406946 -0.061482437 -0.4090914 -0.09925726 -0.6646179 0.5270352 0.32734057 1.3045994
1.4109352 0.1466451 0.26108286 0.50157726 0.7566166 0.021663083 1.3559234 1.4031914
0.47445688 -1.2309633 0.19132182 0.068584464 -0.6571991 0.2684824 -0.67981076 0.6696835
2.1260438 0.222378 -0.9355882 0.6543663 -1.3546871 -0.06606576 0.44333532 -0.082300104
0.8004334 0.024467766 -0.5196097 -0.5043918 0.4951834 0.4852366 -0.5343956 0.7324953
-1.399885 0.36206874 -0.43790132 -0.2108927 -0.8177175 0.18700781 -0.16775094 0.014188132
-0.75554377 0.587227 -0.54217935 0.6982603 0.61920667 -0.035778616 -0.046147097 -0.6462718
0.98023385 -0.5808827 0.3308316 -0.25473428 0.0066028554 -0.26817897 0.4171236 -1.7195406
0.11414464 0.0990748 0.24887615 1.3099027 0.75526136 0.1858112 -0.1750334 -0.35878515
0.0051590153 0.45205548 0.5177668 -0.15800457 0.46020675 1.3339725 0.2877882 -1.4317551
0.43390995 0.61651015 -1.6633103 0.14934614 -0.808262 -0.16795631 0.5145335 -1.4074081
-0.9137762 -0.31063104 0.12870783 -1.101201 -0.14038938 0.9651491 0.5936907 0.2977858
0.031149345 0.5857857 0.8501969 0.83026356 -1.4879707 -0.84031385 0.26175144 1.3401346
1.3168757 -0.40402728 -0.042979237 0.9536648 0.24166667 0.750075 0.15739499 -0.76859504
-0.3477032 -0.19030914 -1.1612233 -0.063951276 -0.09191833 0.26206204 -0.8791731 0.30187154
0.49543828 -0.57643914 0.6051272 -0.58287823 -1.4095398 -0.31238413 -0.83332354 -2.7547083
0.019180272 1.1832709 0.6816515 -0.928729 -0.60969335 -1.4309729 0.6899207 -0.02985096
-1.0744209 0.5486711 -1.317106 0.36335862 -1.0372483 0.028797083 0.15557703 0.022628514
-0.3282027 0.43538302 -0.091047764 0.53315556 0.20301767 0.2210511 -0.30223456 -1.4211516
1.3144414 -1.2034465 0.86397743 0.76616 0.3751454 -1.228999 -0.24361846 0.024157671
-1.0719359 0.3676139 0.49423224 -1.0160581 0.7447207 -0.6992735 0.1712617 -1.9585457
0.32905105 0.23895058 -1.0422044 0.2780633 0.19166437 -0.024689028 0.2805766 -1.0443747
-2.0242136 -2.5115242 0.07714969 -1.328309 0.03870262 -0.01691954 -0.95026374 0.30150652
0.23605378 1.3896351 -0.10386907 -1.2681813 0.20762128 -1.7408738 1.8613435 -0.53804857
00000000: f97b f33d 4509 18bf 2718 923f 3fdf 5cbe
00000010: 6960 acbf 11b5 f9be bbf8 b9bf f298 dfbe
00000020: ba50 d4bf e222 29c0 be01 c03f 11c2 b93f
00000030: 19ab 1ebd e476 10bf 8550 d3bf 33b9 b83e
00000040: 3082 dcbe 994e bcbe e411 f13f 2842 f7be
00000050: 6b4d b7bf 88a3 b63f 6dfe 45bc fbba c1bf
00000060: 8dfe 1ebe 5113 9f3f 2834 243f 746c 7cbe
00000070: b08f ffbc ce6b fbbc b305 03bf cba2 59bf
00000080: a865 0fc0 b264 f03c c5a4 9ebf 101b 413d
00000090: 616b 9ebd b178 e03e f6b9 ab3e 4a3a e2bd
000000a0: f97f 503f 4a9c f8be 4dd4 e93e 9dc4 e5be
000000b0: 8f2c 88be c406 38bc 647a c3be 49c5 5c3f
000000c0: 335e 503e 6271 6bbb 3ee4 88bc 8448 8b3e
000000d0: bb6c bf3e 4b43 57bd 13dc 77be 6c6f a23e
000000e0: 002e 41bf 9749 2cbf 7513 15bf 8255 403f
000000f0: a327 bc3d 2625 a5bd c103 87bf e3d9 a3be
00000100: 7b35 c53f 02d5 7bbd 6e74 d1be 6447 cbbd
00000110: 6624 2abf c7eb 063f 2f99 a73e 1dfd a63f
00000120: 8699 b43f 222a 163e a7ac 853e 5e67 003f
00000130: a0b1 413f c776 b13c e68e ad3f c79b b33f
00000140: 03ec f23e 3590 9dbf dee9 433e 0376 8c3d
00000150: 333e 28bf 8676 893e 1408 2ebf 6170 2b3f
00000160: 1a11 0840 0fb7 633e b582 6fbf 8d84 273f
00000170: 6366 adbf 7c4d 87bd d9fc e23e f58c a8bd
00000180: 34e9 4c3f a070 c83c 2405 05bf d21f 01bf
00000190: ae88 fd3e ee70 f83e 26ce 08bf d084 3b3f
000001a0: 6f2f b3bf 1361 b93e 9a34 e0be 42f4 57be
000001b0: ef55 51bf fa7e 3f3e e7c6 2bbe 5775 683c
000001c0: 516b 41bf 8254 163f 44cc 0abf 30c1 323f
000001d0: 5484 1e3f 998c 12bd bd04 3dbd 1272 25bf
000001e0: 9bf0 7a3f bbb4 14bf c262 a93e 886c 82be
000001f0: c45c d83b c14e 89be 3991 d53e e819 dcbf
00000200: aac4 e93d bbe7 ca3d 64d9 7e3e e4aa a73f
00000210: cf58 413f 4b45 3e3e f53b 33be b0b2 b7be
00000220: f50c a93b d173 e73e 5d8c 043f f3cb 21be
00000230: 38a0 eb3e 9cbf aa3f fa58 933e c043 b7bf
00000240: 7229 de3e 9cd3 1d3f 5ae7 d4bf 32ee 183e
00000250: 42ea 4ebf bdfc 2bbe 78b8 033f f325 b4bf
00000260: 3ded 69bf 080b 9fbe fccb 033e 28f4 8cbf
00000270: 3cc2 0fbe 0314 773f 1dfc 173f 6177 983e
00000280: e92c ff3c 0df6 153f 81a6 593f 278c 543f
00000290: d375 bebf cf1e 57bf 4904 863e 8889 ab3f
000002a0: 628f a83f aadc cebe ff0a 30bd 6023 743f
000002b0: 7877 773e ea04 403f 272c 213e a5c2 44bf
000002c0: 2706 b2be 66e0 42be f7a2 94bf e3f8 82bd
000002d0: ad3f bcbd ff2c 863e 7d11 61bf e88e 9a3e
000002e0: 16aa fd3e 8491 13bf 9ee9 1a3f 8237 15bf
000002f0: cd6b b4bf d0f0 9fbe b154 55bf 244d 30c0
00000300: f21f 9d3c 6c75 973f b680 2e3f 2fc1 6dbf
00000310: dd14 1cbf 1f2a b7bf a59e 303f 008a f4bc
00000320: a086 89bf b675 0c3f ee96 a8bf 240a ba3e
00000330: 8dc4 84bf dce7 eb3c 964f 1f3e 6f5f b93c
00000340: 2f0a a8be 86ea de3e 4077 babd e27c 083f
00000350: dde3 4f3e 385b 623e 7dbe 9abe 4ce8 b5bf
00000360: 9e3f a83f 890a 9abf a02d 5d3f 1023 443f
00000370: 0f13 c03e d74f 9dbf 1e77 79be 4fe6 c53c
00000380: 3235 89bf e437 bc3e 020c fd3e 310e 82bf
00000390: 04a6 3e3f 9703 33bf 3a5f 2f3e a0b1 fabf
000003a0: 6179 a83e 76af 743e f466 85bf 505e 8e3e
000003b0: aa43 443e a540 cabc bca7 8f3e 12ae 85bf
000003c0: b78c 01c0 d0bc 20c0 a800 9e3d 0806 aabf
000003d0: a386 1e3d d99a 8abc 7c44 73bf 105f 9a3e
000003e0: 15b8 713e 90df b13f 4fb9 d4bd c453 a2bf
000003f0: ac9a 543e f4d4 debf 8140 ee3f 8dbd 09bf

fc2.bias f4 [300]
0.38492998 -0.058907866 -0.7241618 0.13671568 -0.10314602 -0.12968811 -0.11703559 -0.77949595
-0.12417965 -0.11467228 -0.10508774 -0.084859475 -0.111825384 -0.123824514 -0.09969548 -0.096828476
0.013499954 -1.2297261 -0.14400691 -0.088943936 -0.10032063 -0.07355669 -0.093790434 0.4565026
-0.063309506 -0.086137466 -0.07651937 -0.3249743 -0.06997874 -0.10788902 0.2869499 -0.037013523
-0.12232462 -0.08998472 -0.1110291 -0.08776269 -0.0984627 -0.053398985 -0.0849112 -0.12236277
-1.3091908 1.8037063 -0.10163967 -0.07593484 -0.10670723 0.6313435 -0.073291756 -0.073261045
-0.07488533 -0.121541694 -0.11948229 -0.12564208 -0.2112868 -0.13858616 -0.076669134 -0.07834416
-0.091349 -0.13722153 -0.08912761 -0.1078467 -0.049697418 -0.118986405 -0.10682298 -0.12102587
-0.11390799 1.718586 -0.118442625 -0.14852743 1.2728035 -0.4296258 -0.13888523 -0.115135536
0.42608643 -0.08235486 -0.06603644 -0.080566965 -0.10014205 -0.07918045 -0.066504575 -0.055192843
-0.0643968 -0.09147116 -0.13369277 -0.042235505 -0.1170054 -0.09736376 -0.037682753 -0.08212634
-0.19909345 -0.040334474 -0.07184392 -0.10875067 -0.07047577 -0.037008855 -0.2662537 -0.069956176
-0.08532844 -0.117833875 1.1371119 -0.09402597 0.51464576 -0.16168481 -0.093745194 0.049777158
-0.59607077 -0.11373411 -0.09807424 -0.0532559 -0.060383197 0.82116824 0.6221842 1.0921525
-0.084400326 -0.14923197 -0.6604943 -0.09943419 -0.1166966 -0.07529529 0.6979628 -0.10047448
-0.06828771 0.30868173 -0.15713596 0.8836434 -0.11674099 -0.034368176 -0.86842716 -0.08192278
-0.096128985 -0.63707525 -0.059484683 -0.097404115 0.5822496 -0.08355963 -0.16481781 -0.11760288
-0.11431893 -0.053390637 -0.10530304 2.4962742 -0.10695123 -0.09609855 -0.12653373 0.43811905
-0.10420872 -0.06495257 0.1643469 -0.06881866 -0.12377934 -0.15259343 -0.011987584 -0.071319476
-0.076171674 -0.06526423 -0.10183374 -0.06274287 -0.25075755 -0.06514251 -0.058848154 1.1419282
-0.052441955 -0.11797156 -0.26241493 0.27363953 -0.058487948 -0.06532036 -0.074970886 1.9039743
-0.07819361 -2.1997669 -0.10945644 -0.07875221 -0.14370316 -0.06965169 -0.07111716 -0.058544125
-0.09692648 -0.07055789 -0.09353089 0.38877362 -0.092367925 -0.055560663 -0.083860375 -1.1146879
-0.16198578 -0.08089749 0.072703205 -0.12801291 0.08871609 -0.11820751 -0.086009085 -0.09012286
-0.14273876 -0.07576071 -0.192403 0.12337054 -0.045051076 0.7196289 -0.07936379 -0.082312986
0.5585689 -0.1531741 -0.021341963 -0.4234047 -0.08929991 -0.056060772 -0.13647197 -0.0707209
1.3155421 -0.11530782 -0.035310343 -0.07695917 -0.124076106 -0.0069604116 -1.0397065 -0.33259207
-0.086610906 -0.086294435 -0.040015455 -0.07960967 1.4584873 -0.16202687 -0.1457018 -0.08253892
-0.08791783 -0.08223499 -0.11255539 -0.050091866 -0.10167387 -0.054657508 -0.05574208 -0.114861764
-0.093275666 -0.07031068 -0.20644298 -1.1319547 -0.08935445 -0.059167918 -0.068108134 -0.5840899
1.0528514 1.4387733 0.39722866 -0.09595749 -0.08091672 -0.1136466 0.1560244 -0.0678624
-0.11841196 0.12101441 -0.095266074 -1.2548147 -0.10404344 -0.085782 -0.1030444 -0.04459897
00000000: 8b15 c53e 6049 71bd ab62 39bf 32ff 0b3e
00000010: 383e d3bd f6cc 04be 5bb0 efbd 0c8d 47bf
00000020: e651 febd 4dd9 eabd 3e38 d7bd ceca adbd
00000030: b504 e5bd b597 fdbd 252d ccbd 024e c6bd
00000040: e92e 5d3c aa67 9dbf 8c76 13be 3d28 b6bd
00000050: e774 cdbd e4a4 96bd 3315 c0bd b5ba e93e
00000060: 6aa8 81bd d768 b0bd 30b6 9cbd 0863 a6be
00000070: 0351 8fbd ebf4 dcbd 19eb 923e 7e9b 17bd
00000080: 5585 fabd e949 b8bd 3a63 e3bd edbc b3bd
00000090: d0a6 c9bd e5b8 5abd ece5 adbd 5599 fabd
000000a0: 9093 a7bf d9df e63f 7628 d0bd ba83 9bbd
000000b0: 5289 dabd ba9f 213f fd19 96bd e309 96bd
000000c0: 7b5d 99bd daea f8bd 22b3 f4bd 51a8 00be
000000d0: 915b 58be 88e9 0dbe b504 9dbd e772 a0bd
000000e0: 2f15 bbbd cd83 0cbe 8988 b6bd bbde dcbd
000000f0: 858f 4bbd 25af f3bd 02c6 dabd 69dc f7bd
00000100: 9848 e9bd a0fa db3f 0c92 f2bd 9317 18be
00000110: 3aeb a23f eaf7 dbbe ee37 0ebe 2ecc ebbd
00000120: 0028 da3e aaa9 a8bd 1d3e 87bd 4b00 a5bd
00000130: 4617 cdbd 5c29 a2bd 8d33 88bd e411 62bd
00000140: 78e2 83bd 3b55 bbbd c2e6 08be 23ff 2cbd
00000150: 87a0 efbd a766 c7bd 3b59 1abd db31 a8bd
00000160: 27df 4bbe c335 25bd e822 93bd acb8 debd
00000170: 9a55 90bd 9996 17bd 6852 88be 2f45 8fbd
00000180: adc0 aebd e352 f1bd e28c 913f b090 c0bd
00000190: d3bf 033f b490 25be 7bfd bfbd 22e3 4b3d
000001a0: 1898 18bf 6eed e8bd 26db c8bd dc22 5abd
000001b0: 5f54 77bd 1538 523f 7747 1f3f a7cb 8b3f
000001c0: 14da acbd 44d0 18be 2816 29bf 27a4 cbbd
000001d0: a1fe eebd 6b34 9abd b1ad 323f 90c5 cdbd
000001e0: 6dda 8bbd 880b 9e3e 40e8 20be 7436 623f
000001f0: e615 efbd a5c5 0cbd 3e51 5ebf 21c7 a7bd
00000200: 46df c4bd 5d17 23bf 36a6 73bd cf7b c7bd
00000210: 4f0e 153f 5021 abbd 00c6 28be c7d9 f0bd
00000220: 0b20 eabd 24b0 5abd 1fa9 d7bd f5c2 1f40
00000230: 3f09 dbbd 51cf c4bd 0f92 01be 2451 e03e
00000240: 626b d5bd da05 85bd 8e4a 283e ccf0 8cbd
00000250: 0680 fdbd 7441 1cbe 9267 44bc f20f 92bd
00000260: e5ff 9bbd 41a9 85bd 358e d0bd 557f 80bd
00000270: 4b63 80be 7069 85bd c30a 71bd b42a 923f
00000280: 60cd 56bd 139b f1bd 405b 86be 7b1a 8c3e
00000290: 0f91 6fbd aec6 85bd 568a 99bd 6eb5 f33f
000002a0: f923 a0bd fbc8 0cc0 b32a e0bd d748 a1bd
000002b0: ec26 13be 8ca5 8ebd e0a5 91bd f7cb 6fbd
000002c0: 6481 c6bd a880 90bd 208d bfbd 560d c73e
000002d0: 652b bdbd 9493 63bd fdbe abbd 18ae 8ebf
000002e0: 9adf 25be 95ad a5bd 6be5 943d d115 03be
000002f0: c8b0 b53d c716 f2bd 8825 b0bd 5692 b8bd
00000300: 1c2a 12be 6e28 9bbd 4b05 45be b2a9 fc3d
00000310: 7a87 38bd 9939 383f 7c89 a2bd b693 a8bd
00000320: 5ffe 0e3f acd9 1cbe 57d5 aebc 80c8 d8be
00000330: dfe2 b6bd fb9f 65bd 4fbf 0bbe 1fd6 90bd
00000340: af63 a83f 8226 ecbd 94a1 10bd c59c 9dbd
00000350: 9d1b febd 2a14 e4bb 1a15 85bf 8249 aabe
00000360: 0f61 b1bd 23bb b0bd 3fe7 23bd 650a a3bd
00000370: b6af ba3f 5fea 25be da32 15be 2a0a a9bd
00000380: 430e b4bd d26a a8bd 7183 e6bd 212d 4dbd
00000390: 643a d0bd 8de0 5fbd cf51 64bd a53c ebbd
000003a0: 5007 bfbd 0cff 8fbd ca65 53be e4e3 90bf
000003b0: 77ff b6bd 0f5a 72bd 477c 8bbd ea86 15bf
000003c0: d6c3 863f b929 b83f 8e61 cb3e 5c85 c4bd
000003d0: aab7 a5bd 8cbf e8bd dcc4 1f3e 71fb 8abd
000003e0: f881 f2bd 67d6 f73d dc1a c3bd c59d a0bf
000003f0: ba14 d5bd 79ae afbd f108 d3bd 69ad 36bd
