checkpoint_actor_20_agents.pth (torch_old, 548262 bytes, 10 tensors)

fc1.weight f4 [400, 33]
00000000: 05a3 183e 159d 233f dced 27be 591c 4bc0
00000010: efb5 24bf 0a43 8ebf 6eba bb3f 39c6 80be
00000020: 528f cf3e 4ec0 8b3e 6c3b cfbd b801 fb3d
00000030: c47e 43be bcbf afbe 82f2 49be d01c 9fbe
00000040: c609 42bf 85a9 f9be 4722 b63e 5e5c 6c3e
00000050: c655 633e 939c 4ebe 5a5c e5bd a6fd 3fbe
00000060: 1012 053e b430 01bf 80f7 4b3f c4ff 43bc
00000070: 02ff 32bf 0483 593c 5f38 8037 a042 7abb
00000080: c39e 33c1 245b a43f f017 18be 9fa7 723f
00000090: c4f8 613f 5061 d9bf 1305 2a40 d84f 40c0
000000a0: a947 c13d 5cbc c73e 6435 303f b283 373f
000000b0: 050f ddbd 5ee1 12bf 82dd 4bbf 7cc6 96bc
000000c0: 1f2e ccbf 7e1c 1ebf 47e7 c2bd 4723 d2bd
000000d0: 6240 a93e b778 e9bd 14fc bb3e 1e25 51be
000000e0: 4e50 283d 5841 083f 0270 e4be 7026 983f
000000f0: ac40 91bc 7488 183f 33bd 12bd d35e b5bc
00000100: 3e57 a63c 769b cac0 83b6 49bf e8d3 0640
00000110: c585 733d 1f6c 06bf 79d1 08bf fc16 293f
00000120: 7a88 95bf c6a9 bc3e fe89 9b3e 3438 06bf
00000130: 528d 393e 520f fe3c 688a 3fbd 3b28 dd3f
00000140: 0232 babf afb6 293f 5a14 d5bd de15 933e
00000150: af22 43bd d8ea b93d 1e66 82be e283 d53e
00000160: 7f43 443f cb14 7f3f e1a5 5b3d 818e cfbc
00000170: 0d91 23bf 3c57 0c3d 3870 c33e 1b7d 413d
00000180: 596d d33c 493c 2f3d 0c24 b1c0 42c1 d03c
00000190: c45d a53e 7b46 1b3f 593e 70bc a808 1b3e
000001a0: 8ce6 b3be 91fe 923f 6cc5 5e3f d168 f03f
000001b0: 8533 1a40 155d 1c3f 3c9d 5c3f 3624 473e
000001c0: 022e 253f 0e43 acbf b70f e93e 1232 1d3f
000001d0: 83cd 5bbf b67c 873f fcb6 b03d 13f6 453f
000001e0: 1c5a 24be 3998 643e 2816 31bf 4ac5 fabe
000001f0: d93c febf 9d1d b4bf 946c dfbc 6fac a2bf
00000200: a32a e6bc 51dc 8bbb 72c9 9a3c cd84 f23f
00000210: 53a0 28be 1cf6 2fbf 2af6 2e3f 002c b2be
00000220: 2126 0ebf c96a 843f 59f8 0f40 1c49 bfbf
00000230: 1a6a e5bf f90c b4be 2976 883e 3104 65bf
00000240: 17ca 913f 2b1e 323f 028e 8cbf ff56 79bf
00000250: 3989 05be 8bf2 c8be 74d2 4bbe 2470 ae3f
00000260: ada1 d43e 2968 0a3f 9de2 8abf aea6 eabd
00000270: dc8b ac3d 3ee5 febf 4479 6fbf 5c38 86bc
00000280: 2db9 b8bf a02d 8cba b61e 5a3b bae0 abbc
00000290: df99 c33f e7b5 0c3f 71dc b53e 2972 7c3f
000002a0: 1ce3 6cbf d9d0 fdbf 747b 3e40 bdf2 2e40
000002b0: f853 b73f c06a 0ec0 70c3 bebe ecd3 edbd
000002c0: 4aa4 103d 05fb 923d abbd b73f 8e6b c03e
000002d0: bc73 0cbd 60f4 0b3f d68d 8b3e 5543 c83f
000002e0: 7fd2 23c0 4915 56bf 8a08 b23e d313 cb3e
000002f0: 5254 d9bd c3e1 243e aa53 693e 00e4 193d
00000300: 78a3 32bc 3fb7 0bbf d98b 0d3d 40d4 613b
00000310: 7a17 bebc c237 eebf c3fd 2dc0 3dea aa3e
00000320: b3ab 973e f5ac 93be c1a6 33c0 7893 203f
00000330: caae c73f 669e 603e 312c afbf e0ea 75bf
00000340: 53ba 9dbf 6e6c 55be 420d 593b a8b6 cd3e
00000350: 65a4 ed3d 757f 633e b04f 36be 8d63 033f
00000360: 0779 9abd da25 033f d6ad 353e dbc8 103e
00000370: 60da 62be 3c91 76bf 6ab6 dc3e 36f8 903f
00000380: 2d2e 2d3f 1793 513c ba64 d63f b5ba 2b3d
00000390: e4bf 9aba 600e 1dbc 1e09 8240 d07c 973f
000003a0: 6fe6 9fbf e5ce f03f df6e 8ac0 21c8 5ebf
000003b0: 6490 3ac0 2d64 9cbd 1bf3 4d3f 75ad 8d3f
000003c0: 5a72 8abf f126 0e3e 5413 2fbe 8d87 543f
000003d0: d047 3ebf 262a 0f40 5aa3 1bbf 53e3 333e
000003e0: 1f78 e1be 897d 5c3f a9d8 a4bd aec2 7cbe
000003f0: cc0e e3bd d5ba f4be 8a0a adbd bfae 373f
0.14905937 0.63911563 -0.1639933 -3.1736052 -0.6434011 -1.1114209 1.4666269 -0.25151232
0.40539032 0.27295154 -0.10118756 0.12256187 -0.19091326 -0.3432597 -0.19721416 -0.3107667
-0.75796163 -0.48762146 0.35573027 0.2308211 0.22200689 -0.20176916 -0.11199255 -0.18749103
0.12995172 -0.5046494 0.7967453 -0.011962835 -0.6992036 0.013275865 1.5285039e-05 -0.0038186684
-11.22626 1.2840314 -0.14852881 0.9478702 0.8827021 -1.6982822 2.6565597 -3.0048733
0.09437496 0.39010894 0.6883147 0.71685326 -0.107938804 -0.57375133 -0.7963487 -0.018405192
-1.5951575 -0.61762226 -0.09516769 -0.10260635 0.33056933 -0.11399978 0.36715758 -0.20424315
0.04109221 0.53224707 -0.44616705 1.188673 -0.017731033 0.5958321 -0.035824966 -0.022139942
0.020305272 -6.331477 -0.78794116 2.1066837 0.059453744 -0.5250873 -0.5344463 0.66050696
-1.1682274 0.36848277 0.30378717 -0.5242951 0.18120316 0.031013165 -0.046762854 1.7277902
-1.4546511 0.6629438 -0.104042724 0.2872762 -0.0476405 0.09077996 -0.25468534 0.4170218
0.7666549 0.996411 0.05362499 -0.025336506 -0.63893205 0.03426288 0.38171554 0.04723845
0.025808977 0.0427821 -5.5356503 0.025482778 0.322981 0.6065442 -0.014663302 0.15140021
-0.3513683 1.1483938 0.8701999 1.8781987 2.4093945 0.6107953 0.8617742 0.19447407
0.6452333 -1.3457963 0.45519802 0.61404526 -0.8586046 1.0584934 0.086286515 0.77328604
-0.16049999 0.22323693 -0.6917443 -0.48978645 -1.9862319 -1.4071537 -0.027273454 -1.2708873
-0.028096503 -0.004268207 0.018894885 1.8946778 -0.16467409 -0.6873491 0.68344367 -0.34799194
-0.5552693 1.0345088 2.249533 -1.4944186 -1.7923005 -0.35166147 0.2665265 -0.8945952
1.1389798 0.6957728 -1.0980837 -0.9739837 -0.13040628 -0.39247546 -0.199045 1.3627973
0.415296 0.54065186 -1.0850407 -0.11457573 0.084251136 -1.9913709 -0.9354441 -0.016384296
-1.4431511 -0.001069475 0.0033282465 -0.020981181 1.5281333 0.5496506 0.35519746 0.98611695
-0.9253404 -1.982936 2.976285 2.7335656 1.43225 -2.2252655 -0.37258482 -0.116126865
0.03531293 0.071767844 1.4354757 0.37582058 -0.03429006 0.5466976 0.2725665 1.5645548
-2.5597227 -0.8362623 0.3477214 0.39663562 -0.10611786 0.16101746 0.22785822 0.037570953
-0.010903232 -0.54576486 0.034557197 0.0034458786 -0.023204554 -1.8610766 -2.7186134 0.33381835
0.29623184 -0.28842893 -2.8070529 0.6272502 1.5600216 0.21935424 -1.3685361 -0.96061516
-1.2322487 -0.20842144 0.0033119475 0.40178418 0.116036214 0.2221659 -0.17803836 0.5132378
-0.075426154 0.5122963 0.17742094 0.1413912 -0.22153616 -0.9631536 0.4310792 1.1325748
0.67648584 0.012791417 1.6749489 0.041926105 -0.0011806455 -0.009585947 4.063613 1.1834965
-1.2492198 1.8813139 -4.326034 -0.8702412 -2.915063 -0.076362945 0.80449075 1.106856
-1.0816147 0.13882042 -0.17097217 0.83019334 -0.7432833 2.2369475 -0.6079613 0.17567186
-0.44036958 0.8612905 -0.08049137 -0.2468364 -0.11086807 -0.47798792 -0.08449276 0.71751016

fc1.bias f4 [400]
00000000: b01c a5bd b675 92bd 6b59 2d3e f381 e23c
00000010: 0396 17be 9311 1ebe 123f 19be e135 00be
00000020: adb0 d6bd cfcb bdbd c673 043e 2d6b 93bd
00000030: 890d 243e 65c0 24bd c5ea 0fbe edd1 82bd
00000040: 3f8c 9dbd f529 f6bd 8bef 25be c138 da3b
00000050: 8571 0abe 4862 4dbd b8cf 39bd 59e4 cdbd
00000060: f45b d1bb 0106 0abe bacb 67bd da8a 1d3e
00000070: c292 243e 47e4 6a3c 97d4 243d 3f1c 1e3e
00000080: b653 2b3e 47c8 a8bd e7a4 df3c 8c89 0dbd
00000090: 164f f5bd f441 1e3e 607d 0d3e c04b fd3b
000000a0: 1171 123e 523a 3d3d 58ac eb3d 0fe1 8f3d
000000b0: 16b3 a83d 024f 803d bfe9 b23d 7a9f 1c3e
000000c0: 199c 8a3d cf66 e3bd 6fed 823d 12ad 313e
000000d0: 9a8c 133e 64bf df3d d314 87bd 7827 303e
000000e0: 9535 023d 6227 c0bd 5de1 e5bb 9727 013e
000000f0: 7a40 23be 3a9d 23bd a6f2 043e 4945 44bd
00000100: 6445 8fbd fa69 40bd 7d9f 693d 1270 08be
00000110: 95cb b23c bb1d 363d 861f 3c3d 2ea9 65bb
00000120: ea41 af3d 6db6 25bc 0156 0b3e 6ae4 eb3d
00000130: 6e21 f7bd 56bd 0cbd 21bc 0a3e b09c 8ebc
00000140: 2702 5abd 74ea 33bc b79b 24bd 6210 7bbd
00000150: ded8 1a3d e941 163e 3374 ce3c 17c9 c83d
00000160: d10c 093e 82fc e7bd b022 fcbd 3728 d2bc
00000170: 34c1 563d a5d9 a9bc 16db a6bd f886 f4bd
00000180: 7601 bb3b ef47 043e fde4 f53b c736 2a3e
00000190: a23d a9bd 0bb5 223e 03a9 e4bd ca23 0e3e
000001a0: a91c 9b3c 508f 313e 08a5 283e 3706 75bd
000001b0: 619e 4dbc 2daa 41bd 5f2b 1e3d 2eba afbd
000001c0: d972 24bd 0434 d8bd e584 d83d 9bcc 0c3e
000001d0: 2818 9d3c eb82 a9bb b0b2 05be 3872 22be
000001e0: 0885 09be f5fb 03be 4930 13be a34c a73d
000001f0: ffc8 07be d88e a93d 235a ed3d 8551 8aba
00000200: 97f2 273d a9bc de3d 6b9d 21be ba59 193e
00000210: 1590 2f3e 0be8 293e 3590 8bbd 9682 db3d
00000220: fb54 81bd daee d93c a9aa 163e 7bf0 153d
00000230: d24b 823d 977c 3dbd 573a a9bd ecb0 103e
00000240: 89f3 20be 14ad f43c abd4 8bbc 73f7 47bd
00000250: 0f85 2dbe 10dd d3bd fb84 cbbd ce67 d73c
00000260: 0709 8b3d a00e 22be cf54 89bd 41eb 29be
00000270: 2d18 f43d 72f1 23be 86ab bebc 4a12 d6bc
00000280: 9866 c6bd 28f3 ff3d dd71 993d f69a b93d
00000290: 5b9f fb3d 96f1 b1bd 25ba ae3d d443 103e
000002a0: b554 23bd f05d 70bc a2a9 843c c674 2ebe
000002b0: 794e 99bc 8529 aabc e2f7 01be f068 023e
000002c0: e0a1 1cbe 7b76 8dbd 3b1c d23d 3fb3 db3c
000002d0: e2b6 8f3d 2b8c 053c 8434 26be 26ff ffbd
000002e0: 5ed1 71bd 2353 f0bd d373 ddbd 8563 67bd
000002f0: 24f3 1e3e e426 0a3e 1b57 0e3d fa76 e5bd
00000300: 212b d6bd fc8f 2e3e c25b ae3c a94b a03c
00000310: 4650 cabd b5d9 b5bd 1169 ae3d b0ac 74bc
00000320: 8c2e 96bc d021 b0bd 82f6 03be ef93 e6bd
00000330: e6ee 2ebe 8741 233e e60f d43c 27bf c83c
00000340: 6a29 063e a272 b33d 30cd d5bc 8427 dc3d
00000350: 7373 343b 4fed 2dbe 7bc4 103e c28e d1bd
00000360: 96d0 06be d5dc 22bd 5c33 293d 751e 0c3e
00000370: fe2d 30be e4b1 26be 593e edbd 069e d0bd
00000380: 1552 2f3e fda8 31bb 8951 013e 944c 473d
00000390: 7b3e d03d f45a b8bd 0179 9b3d 7bb2 813d
000003a0: d907 733d c2f1 05be 1477 76bd 47d4 173e
000003b0: 27f8 17bd 6f7f 01be 24e2 16be 3aab 11bd
000003c0: ae77 a43d e28e 57bd 092d fd3d 5379 973d
000003d0: 869b 0ebe 8050 1f3b 31d5 223e 3d04 de3d
000003e0: 6556 80bd 8d8c 04be ff37 3e3d 4051 ab3d
000003f0: a61e 10bd 9d7d 17be f3bb 2b3e 9c42 ac3d
-0.08062112 -0.07151358 0.16928641 0.027649855 -0.14803319 -0.15436392 -0.14965466 -0.12520553
-0.10482917 -0.09267389 0.12934789 -0.071981765 0.16020788 -0.040222544 -0.14054401 -0.063876964
-0.076927654 -0.120197214 -0.1620466 0.0066595976 -0.13519867 -0.050142556 -0.04536411 -0.100533195
-0.0063891355 -0.13478853 -0.056590773 0.15384999 0.16071609 0.014336652 0.040241804 0.15440463
0.16731152 -0.08241325 0.027300311 -0.034555003 -0.11977975 0.15454847 0.13817358 0.0077299774
0.14300944 0.046198197 0.11507481 0.070253484 0.08237283 0.062650695 0.0873599 0.1529521
0.067680545 -0.111035936 0.06392943 0.17351177 0.14409104 0.10925177 -0.06595769 0.17202556
0.03178938 -0.09382512 -0.007015391 0.12612759 -0.15942565 -0.039944865 0.12983188 -0.047917638
-0.06995657 -0.046976067 0.057036866 -0.13324001 0.021825591 0.044461947 0.0459285 -0.0035043466
0.08557494 -0.0101142945 0.13607027 0.11518176 -0.12066923 -0.034360252 0.13548328 -0.017408699
-0.05322471 -0.010981191 -0.040187564 -0.06129492 0.037804477 0.1467358 0.025201892 0.0980398
0.13383795 -0.11327459 -0.123113036 -0.025653942 0.052430347 -0.020733664 -0.08147256 -0.11939806
0.0057069613 0.12918065 0.007504104 0.16622458 -0.08263709 0.15889375 -0.11165049 0.1388084
0.018934565 0.17339826 0.16469204 -0.05982038 -0.0125499675 -0.047281433 0.03861558 -0.08580433
-0.04014859 -0.10556796 0.105722226 0.13749926 0.019176558 -0.0051730773 -0.13056445 -0.15863883
-0.13429654 -0.12889083 -0.14373888 0.08168914 -0.13260268 0.082791984 0.11589458 -0.0010552859
0.041002836 0.10875828 -0.15782706 0.14975634 0.17144807 0.16592424 -0.06814615 0.10718267
-0.06315037 0.026603151 0.14713539 0.036606293 0.06362118 -0.046261396 -0.082630806 0.1412999
-0.15717901 0.029867686 -0.017069181 -0.04881997 -0.16945289 -0.10344899 -0.099374734 0.026294615
0.06788831 -0.15825891 -0.06705629 -0.16593648 0.11918674 -0.16010073 -0.023275148 -0.026131768
-0.09687537 0.1249755 0.07492421 0.090627596 0.12286254 -0.08688657 0.08531598 0.14088374
-0.039875705 -0.014670834 0.016194168 -0.17036733 -0.018714176 -0.020771751 -0.12692216 0.12735343
-0.15296125 -0.06907364 0.10259291 0.02681887 0.07017304 0.008151094 -0.1623097 -0.124998376
-0.05903756 -0.11734607 -0.10813107 -0.056491394 0.15522438 0.13491398 0.03475104 -0.112043336
-0.10457445 0.17047113 0.021283988 0.019567328 -0.09878592 -0.08879415 0.085161336 -0.01493375
-0.018332742 -0.08600199 -0.12887004 -0.11258685 -0.1708332 0.15942965 0.025886487 0.024505211
0.13101736 0.08762099 -0.026098818 0.107497245 0.0027534633 -0.16985057 0.14137451 -0.10232307
-0.13165507 -0.039761383 0.041308746 0.13683493 -0.17205045 -0.16278797 -0.115841575 -0.101863906
0.17121156 -0.0027108782 0.1262876 0.048657015 0.10168167 -0.09001723 0.07591439 0.063328706
0.059333656 -0.13080505 -0.060172155 0.14827071 -0.03710189 -0.12646268 -0.14734703 -0.035563685
0.080306396 -0.052626498 0.123621054 0.07396188 -0.13926515 0.0024309456 0.15901639 0.10840652
-0.062664784 -0.12944241 0.04644012 0.083651066 -0.03518548 -0.14794011 0.16770916 0.08411142

bn1.weight f4 [400]
00000000: b254 c33f d644 823f 7d5e 893f 7ba8 3e3f
00000010: 1d7f 3a3f d13a b53e 19de 373f 3080 4d3f
00000020: d58e 463f e8ff 0e3f 6ac2 153f 91cd 803f
00000030: 1052 623e 04a0 783f c5a7 103f 412e e03e
00000040: cb19 593f 960b 8f3f f0ce b83f 2ae2 503f
00000050: 000e 953e 3262 f63e 1ea4 993e 94c9 893f
00000060: 4267 8c3f ee1e 3f3e 3d1b 56bb 3da8 8b3f
00000070: 9339 843f f26e 5e3f 6ab6 2b3f dc37 8b3f
00000080: 35ea c43e 376f 603f 409d 023f 127b 7b3f
00000090: 90f5 fa3e f7a9 993f e30e c13f e3da 793f
000000a0: b4c0 7d3f 2805 453f 6730 7d3f 4b4a 8a3f
000000b0: bc94 8d3e dc4c 893f 2a14 283f eae3 923f
000000c0: b9a3 a73e caec 353f 0be1 083f 6803 033f
000000d0: 0c51 473f 298c 483f d2ee 813f a015 5f3f
000000e0: 4c49 253f c8bb 1d3f 38c9 7f3f b68b 993e
000000f0: 5bca 4b3e c18c 3d3f 32b4 3a3f 663e aa3e
00000100: 286d 293f 01a7 443f 250c 303f 5727 ca3f
00000110: 1606 5e3f 22da 453f 6f88 623f 2184 543f
00000120: 8a10 263f 747e 1a3f dd17 4d3f 57db 7e3f
00000130: 93fb 0d3f c79a 8c3f 6f2b 2dbf 956c 873f
00000140: 7d9a 1a3f 5442 323f 0041 a63f 1601 af3e
00000150: 239c 683f a81f 1d3e 3bd4 2d3f f8e5 c53e
00000160: 7b70 583f 3b8a 233f 40fe 533f 8475 723f
00000170: eb8d 883f 4f0a 813f 9f03 1f3f 4175 793f
00000180: 8319 353f 8188 a13e dcd8 703f 2afc ad3e
00000190: d1bc 413f 4782 983f 1b46 293e dbf4 df3e
000001a0: f2de 483f d411 453f 4e13 743f 4ff2 6d3f
000001b0: 3af0 1f3f 5d48 093f 16a3 3a3f 22b2 52bc
000001c0: 8eb6 483f ecdc 083f d344 423f 2fdf cd3e
000001d0: 1003 ed3e 0d3d c33f d70b 05bb 48e1 e63e
000001e0: 0d2a 2b3f 33eb af3a 508f 213f a53e 853f
000001f0: fb14 243f d8da 923f 2bb3 513f dbe4 973f
00000200: 6935 9b3f ece3 453f 5154 5b3f 9c5b 893f
00000210: 3349 883e 9c9d 153f 3ee7 1e3f 15ff d03e
00000220: a5d6 1a3f 2dc3 963f e13b b93e b582 913f
00000230: 5c44 933e 4c21 1b3f ced5 2a3f 403d c63f
00000240: a76f 913f 6ec9 403f 3ce8 943f e264 763f
00000250: 4730 b53e 2a9d 2b3f c8c6 283f 7e8c d43e
00000260: c47f b83f 3169 6b3f 7285 7a3f 00a1 873e
00000270: a90d 473f c729 6c3f 1bb5 2c3f 48ec 5d3f
00000280: 4a7d a93f bc74 133e 80f6 4c3e 9c2d 2f3f
00000290: 4180 663f 3f69 c43e ceeb 903f 8f2a 803f
000002a0: 50cd 2f3f b85e bd3e 82b4 093f be65 8c3f
000002b0: c604 353f 50f2 413f 2163 5b3f 7296 8f3f
000002c0: b9d0 573f 9158 673f 00c8 523f 9ce6 6e3f
000002d0: 4b36 2a3f 9e8b 643f fdb6 6e3f f9b5 2c3f
000002e0: 8b3d 443f 6687 af3e 5666 eb3e 6010 203f
000002f0: 804c e23e c224 cc3b 4502 7c3f b4d4 c53f
00000300: bc48 4a3f 0eed 013f 606e 5b3f 84bc 1f3f
00000310: 2ed3 5b3f 1906 2abf efc2 763f eddc f239
00000320: 3484 223f 5eea 6a3f 8ad7 443f b8f3 053f
00000330: 8d58 4a3f f6b8 473f 84d7 4a3f c5b2 6f3e
00000340: 716d 8b3f 242b 5c3f c02f 013f 381f c03e
00000350: d4e4 963e 825e 563f df60 2b3f 05e0 a13e
00000360: 4a57 dc3e 9b12 983f f08f 823f 10bd 4f3f
00000370: d175 483f 53c5 3c3f 9342 873e 8a82 673f
00000380: 7dc0 d73e c80d 5f3f 1f17 853f 4cdc cc3e
00000390: e6de 513f f63c 463f a342 623f 85c7 b33e
000003a0: 19f8 ae3f 4515 443f d4be e83e 850d a23f
000003b0: a657 a73e 80fa 2c3f da93 023f 7a2c 0a40
000003c0: e206 0d3f 8344 723f d2e9 903f 051c 8b3f
000003d0: 08bc 913a c67d c73f f856 973f e8ef ef3e
000003e0: 9666 6c3f f7df 423f 2885 cc3f 0891 9f3f
000003f0: f8bc 473f 31fb 6e3f c544 423f b1d7 2d3f
1.5260222 1.0177257 1.073196 0.7447583 0.7285021 0.35396436 0.7182327 0.80273724
0.77561694 0.5585923 0.5849978 1.0062734 0.22101617 0.97119164 0.56505996 0.4378529
0.8480498 1.1175411 1.4438152 0.815951 0.29112244 0.48121792 0.30008024 1.0764642
1.0969012 0.18664142 -0.0032670044 1.0910717 1.033007 0.8688804 0.67075217 1.0876422
0.38459936 0.876697 0.51021194 0.98234665 0.49015474 1.2004994 1.5082668 0.9759962
0.99122167 0.7696099 0.9890198 1.0803922 0.27652538 1.0726581 0.6565577 1.1475804
0.32742098 0.71064436 0.5346839 0.5117707 0.7785804 0.7833887 1.0151007 0.8714237
0.6456497 0.61614656 0.9991641 0.29989403 0.19901411 0.740429 0.72931206 0.3325073
0.66182184 0.7681733 0.6876853 1.5793256 0.86728036 0.7728597 0.8848943 0.8301411
0.64868987 0.603492 0.8011454 0.99553436 0.55461997 1.0984734 -0.676444 1.0580012
0.6039198 0.6963246 1.2988586 0.34180516 0.90863246 0.15344107 0.67901963 0.38652015
0.8454663 0.638828 0.8280983 0.94710565 1.066831 1.0081271 0.621149 0.9744454
0.7074205 0.31549457 0.940809 0.33981448 0.75678736 1.1914757 0.1653065 0.43741497
0.7846519 0.7698033 0.95341957 0.9294786 0.6247593 0.5362604 0.729051 -0.012859853
0.78403556 0.534621 0.7588627 0.40209338 0.462914 1.5253006 -0.0020301247 0.4509375
0.6686104 0.0013421535 0.631093 1.0409743 0.64094514 1.1473036 0.81914014 1.1866716
1.2125674 0.77300906 0.8567553 1.0731082 0.26618347 0.5844362 0.620716 0.40819612
0.6048377 1.1778313 0.36178496 1.1368014 0.28763092 0.6059768 0.6673249 1.5487442
1.1362199 0.7530736 1.1633372 0.96247685 0.35388395 0.6703669 0.65928316 0.41513437
1.4413991 0.91957384 0.9785987 0.2649002 0.7775522 0.9225125 0.67463845 0.8668866
1.324136 0.144 0.20015907 0.6842897 0.9003945 0.38361546 1.1321962 1.0012988
0.68672657 0.36986327 0.5379106 1.0968549 0.7071041 0.75760365 0.85698134 1.1217787
0.8430286 0.90369517 0.82336426 0.9332063 0.66489094 0.8927554 0.9324797 0.6746517
0.7665641 0.34282988 0.45976514 0.62524986 0.4419899 0.006229968 0.98440963 1.5455537
0.79017234 0.5075234 0.85715294 0.62397027 0.8586911 -0.66415554 0.96391195 0.0004632244
0.63482976 0.91763866 0.76891387 0.5232501 0.7904137 0.78016603 0.792351 0.23408039
1.0892774 0.8600333 0.50463486 0.37523818 0.29471457 0.8373796 0.6694469 0.31616226
0.43035346 1.1880678 1.0200176 0.8114786 0.78304774 0.7373859 0.2641798 0.9043356
0.42139044 0.87130404 1.0397681 0.40011823 0.8198074 0.7743677 0.8838293 0.3511316
1.3669463 0.76594955 0.4545809 1.2660376 0.32684058 0.6756973 0.51006854 2.1589646
0.5508863 0.9463579 1.1321356 1.0867926 0.001111866 1.5585258 1.1823416 0.4686272
0.92344034 0.76122993 1.5978136 1.2466135 0.7802272 0.9335204 0.75886184 0.67907244

bn1.bias f4 [400]
00000000: 5d87 cabf c69b 35bf 53c0 b0bf 9e29 b2bf
00000010: 0896 a7bf f1ca c9bf 5caf 53bf 50c5 52bf
00000020: 84e8 91bf 1d0b cdbf 90da f2be 9c81 8abf
00000030: 3603 aebf 44c9 d53e 3215 07c0 03a4 2cbf
00000040: 71e6 9fbf 7f24 d2bf 25da 90bf 3670 abbf
00000050: f87d cfbf 5b08 f1be b15c fcbf 082e 93bf
00000060: 64c6 65bf 4184 933f 9869 d7bc 283a 79bf
00000070: 1459 c2bf f646 8bbf 3f30 36bf 1188 ddbf
00000080: 03c2 e0bf 58ee b0bf 1b56 11bf fcf1 a5bf
00000090: f7a8 92bf 800d 21bf 66e1 003f d0cd 8fbf
000000a0: 49f4 88bf e580 7fbf f42b e0bf 38c4 1fbf
000000b0: eaa5 b4bf 2ee8 2bbf efae 96bf effc babe
000000c0: 583c c4bf 9e34 18bf 1c6b b0be 1d96 88bf
000000d0: b503 4abf edec 7dbf 15c5 7bbf b360 c6bf
000000e0: c88d a8bf 36a2 65bf 08d5 98bf 2ce1 e6bf
000000f0: 5298 a1bf 14f4 a7bf 7f43 33bf 1d56 c2bf
00000100: c446 b3bf a4ed 7fbf f06f 23bf 5a9a 19bf
00000110: d7df 44bf 1148 65bf 31d3 c4bf 95a1 3ebf
00000120: df75 9cbf 2130 afbf 2a85 95be 1fbe edbf
00000130: 4867 9ebe 750c b2bf b9f3 49bf 800a eabf
00000140: 5a59 a4be 8790 42bf 3178 61bf e085 133e
00000150: c18f 94bf 35fb 87bf c0e6 a9bf def6 c2bf
00000160: 8724 493e 1bc4 15bf 0b6b b6bf af9f 85bf
00000170: 75a3 303f 1c51 c2bf fba1 95bf da75 38bf
00000180: d27a 613d 78ec 88bf 438b a7bf d345 01c0
00000190: e256 cebf ff86 00bf 112e 84bf e94e d2bf
000001a0: ba57 b23e 153a 1d3c 3dc7 7fbe b9e8 a6bf
000001b0: 6b7a 74bf 4ecf cdbf 4d4d 49bf 0c94 f4bd
000001c0: 1125 95bf c585 04bf ab80 acbf 4d45 c3bf
000001d0: 1363 75bf 7587 f2be 2168 f7bc fe3f 3bbf
000001e0: 9253 bebf 92c3 afbc b60e 48bf d358 39bf
000001f0: 3fbc 4abf 2544 9fbf 0004 91bf 2aab 98bf
00000200: ccd6 c3be e725 80bf e6f7 c83e f85e a3bf
00000210: 5e84 b6bf b975 52bf 7784 3abf 4803 b1bf
00000220: b4aa 61bf 5c0b 3cbf 229b 48bd 19d1 84bf
00000230: 04df c5bf a27c 84bf adda 8dbf 1f99 63bf
00000240: 8359 8dbf 0016 8fbf 3241 7abf 8c48 a6bf
00000250: 61be 1dbe 556b a1bf 0b51 62bf e733 93bf
00000260: 239c c6bf ece1 d2bf 2917 39bf 2793 8ebf
00000270: 0284 8bbf 8938 9bbf 0d8e a2bf c1f2 c4be
00000280: ce61 19bd ff4b 85bf 2a65 30bf 97b4 37bf
00000290: 7a05 acbf ac00 1fbf 0930 eebf 20dd b2bf
000002a0: 5299 80bf ca16 e4bf 8576 98bf 3d0c 8cbf
000002b0: aecf 66bf d1e7 d0be 7970 95bf 4cc8 b8bf
000002c0: 846b 99bf ca60 01bf 2347 4dbf 797c 12bf
000002d0: 83fa 72bf 9f78 d5bf 8c31 a8bf 6881 d7bf
000002e0: 194a 10bf f766 0ec0 0eb2 e4be 62a0 eebe
000002f0: 73a3 f0bf 86e3 b1bd 361f 89bf 7526 07c0
00000300: baeb 9dbf 6f78 b5be 841c eabf 122e dbbe
00000310: c50d 0dbf 5b60 50bf afb4 43bf 80a4 a9bc
00000320: 82ba 72be f072 b8bf dc8d 5bbf b2f4 8abf
00000330: 68d7 39bf 7f11 9bbf 07cc 48bf 0045 c1bf
00000340: 99c5 b9bf 83db 1dbf 6f94 903d 4d69 89bf
00000350: 0770 d5bf c565 a8be af4d f3bf 9964 d0bf
00000360: 3804 e9bf acd1 21bf 2b4d a1bf d63e d1bf
00000370: 4eb4 fbbe 288f c0bf 6df6 ffbf d43b a3bf
00000380: b085 c7bf ca99 e7be 1471 60bf 1059 b1bf
00000390: c436 74bf 4b03 bebe e624 30be db4e b1bf
000003a0: 4d75 e1bf 839f ccbf d76c 0dbf fa50 93bf
000003b0: 2193 bdbf 6196 f4be 5703 bdbf 09d9 62bf
000003c0: b4ca 93bf 980e 1cbf 50e9 e5bf 70d1 4ebf
000003d0: d7d6 79bc 9b82 e5bf 62c6 62bf 5a7e 8cbf
000003e0: 50d7 8abf 2f0a 28bf 0c4e 0cbf f501 7dbf
000003f0: 0b6f ccbf bfbe 43bf 0072 38be e460 c9bf
-1.582256 -0.70940816 -1.3808693 -1.391895 -1.3092661 -1.5765058 -0.8268945 -0.82332325
-1.1399083 -1.6019017 -0.47432375 -1.0820804 -1.359473 0.41755116 -2.1106687 -0.6743776
-1.24922 -1.6417388 -1.1316572 -1.3393619 -1.6210318 -0.47076687 -1.9715787 -1.1498423
-0.89755845 1.1524736 -0.026295468 -0.97354364 -1.5183434 -1.088103 -0.7116737 -1.7307149
-1.7559208 -1.3822737 -0.5677201 -1.2964473 -1.1457814 -0.62911224 0.5034393 -1.1234684
-1.069955 -0.9980605 -1.7513413 -0.6240878 -1.4113133 -0.67151153 -1.1772135 -0.36521098
-1.5330915 -0.5945529 -0.34456718 -1.0670811 -0.78911906 -0.99189645 -0.983476 -1.549826
-1.3168268 -0.8970064 -1.1940012 -1.8037467 -1.262461 -1.3121362 -0.70024866 -1.518253
-1.4005971 -0.99971986 -0.6384268 -0.60001147 -0.7690405 -0.8956309 -1.537695 -0.74465305
-1.2223471 -1.3686563 -0.2920316 -1.8573645 -0.30938172 -1.3910052 -0.78887516 -1.8284454
-0.3209942 -0.7600178 -0.8807402 0.14406538 -1.160637 -1.0623537 -1.3273544 -1.5231588
0.1964284 -0.5850236 -1.4251417 -1.0439357 0.68999416 -1.5181003 -1.1690058 -0.7205483
0.05504877 -1.0697165 -1.3089374 -2.0198867 -1.6120265 -0.5020599 -1.0326558 -1.6430331
0.34832555 0.009596367 -0.24978347 -1.3039771 -0.95499295 -1.6078889 -0.78633577 -0.119423
-1.1651937 -0.51766616 -1.3476766 -1.5255524 -0.958543 -0.4736897 -0.03020102 -0.7314452
-1.4869254 -0.02145556 -0.7814745 -0.7240116 -0.7919349 -1.2442671 -1.1329346 -1.1927235
-0.38249815 -1.0011567 0.39251631 -1.2763357 -1.4259145 -0.8221088 -0.72858375 -1.3829126
-0.881511 -0.73454833 -0.04897607 -1.0376312 -1.5458684 -1.0350535 -1.108236 -0.8890552
-1.1042942 -1.1178589 -0.9775573 -1.299089 -0.15404655 -1.261088 -0.8840491 -1.1500214
-1.5516399 -1.6475196 -0.72300965 -1.1138657 -1.089966 -1.2126628 -1.26996 -0.38466457
-0.03744679 -1.0413817 -0.68904364 -0.71759933 -1.3439171 -0.621104 -1.8608409 -1.3973732
-1.004679 -1.7819455 -1.1911169 -1.0941235 -0.90160644 -0.40801862 -1.1674949 -1.4436126
-1.1985936 -0.50538313 -0.8018667 -0.5722118 -0.949135 -1.6677436 -1.314012 -1.6836367
-0.56363064 -2.2250345 -0.44667095 -0.46606737 -1.8799881 -0.08685975 -1.071265 -2.1117222
-1.2337563 -0.35443446 -1.8289952 -0.42808586 -0.55099136 -0.81397027 -0.76447576 -0.020708323
-0.2370396 -1.4410076 -0.85763335 -1.0855925 -0.7259431 -1.2114714 -0.7843632 -1.5099182
-1.4513427 -0.61663073 0.070595615 -1.073526 -1.6674813 -0.32890144 -1.9008082 -1.62807
-1.8204412 -0.6321056 -1.2601675 -1.6347301 -0.49161 -1.5043688 -1.9997078 -1.2752633
-1.5587673 -0.4523452 -0.87672544 -1.3855305 -0.95396066 -0.37111887 -0.17201576 -1.385219
-1.7613922 -1.5986179 -0.552442 -1.1509087 -1.4810525 -0.4777098 -1.4766644 -0.8861242
-1.1546235 -0.6095977 -1.7961826 -0.80788326 -0.015248976 -1.7930483 -0.8858396 -1.097606
-1.0846958 -0.6564054 -0.5480659 -0.9883111 -1.5971388 -0.7646293 -0.18012238 -1.5732694

bn1.running_mean f4 [400]
00000000: 8143 64c0 5632 783f 2b71 32c0 4fe5 4540
00000010: 2fc6 9b40 ec46 70c0 79e0 d8bf 9e4d e1c0
00000020: 7ddb 8340 5255 ebbf fac8 143f 5f79 b93f
00000030: 7ae3 90c0 a367 4340 6605 74c0 26fa a240
00000040: fe5c 9b3f 5966 8ac0 dac3 06c0 9ef5 84c0
00000050: f6d2 adc0 d149 d9c0 db0d a4c0 bbe8 14c0
00000060: b910 cb3f 5438 a2c0 ef8d dabc 3360 f93f
00000070: 6a28 05c0 5764 55bf a773 44c0 0496 14c1
00000080: 9c51 bd40 a5e5 8240 d59b dac0 c27c aac0
00000090: 400e cabf 2baf b240 d803 513f fbfe 773f
000000a0: 4b8a a4c0 b308 a23f d145 2441 1b68 bfbc
000000b0: d4d9 b8be d855 56bf de11 5940 8c68 e940
000000c0: 1ec5 95c0 1c62 e040 0844 84c0 b455 21c0
000000d0: b644 97c0 2ea2 17c1 6ddf f43f 76b6 dc3d
000000e0: 898f 7640 5df9 bfc0 7f08 8b3f 9159 523f
000000f0: 1db9 91c0 f850 aac0 f452 b840 e449 0dc1
00000100: 45c2 1c41 c8cf 69c0 16d4 5cc0 b49a 0c40
00000110: f105 63c0 b213 f6c0 66d3 bcc0 eed0 2dc0
00000120: 8dfb fdbf 1112 afc0 c9c1 bb40 791d d040
00000130: 42aa 1241 1502 67c0 bbfd ea3e 88a7 abc0
00000140: b9bb 2d40 1157 eebf 611d 22c0 7df0 a440
00000150: 6cfb 03bf cf88 40c0 f5b9 2840 121d 8abc
00000160: 6279 7740 64ce d6be ab7d 13c0 0ff6 47be
00000170: 1003 b4bf 89a9 b0c0 62ce cec0 efc6 e3c0
00000180: 9fd2 6bc0 a5ff f5bf c91a 81c0 ba55 8c3f
00000190: da73 bd40 6b6d b23f f7e2 0dc0 e088 81c0
000001a0: ee1e 02c0 b05e 8b40 9bf4 a940 d61f 9fc0
000001b0: 3d3f 11c0 781b 53bf b66a 9240 456b 0a3f
000001c0: 899d 49c0 9128 9740 38aa 8bbf 383e 8bc0
000001d0: 44a6 d0c0 93fb d93f ca64 5fbe ee45 c4c0
000001e0: d8b2 71c0 9438 f0be 18f3 bbc0 0c65 5340
000001f0: cd5a e340 c96e 3240 1dec 6140 c877 5540
00000200: e480 50c0 dc29 cebf c72d 17bf ceea 10c1
00000210: 2327 c6bf 564c d340 4518 91c0 bc37 1b41
00000220: 89a1 0ac0 5a1e 1041 04a5 3d40 d2ec 5d40
00000230: 829a 87c0 e56c 94c0 09cd 3ec0 0c3f 1c3f
00000240: b148 6ac0 a5aa 33c0 b3b3 5340 5b9d 9cc0
00000250: 0347 1941 5745 edc0 4950 9ec0 f564 d73f
00000260: 33df 2ebf ae39 afbf 84e1 b840 1cd2 9b40
00000270: a7f8 3fc0 d215 c93f 63e2 b6c0 3b52 0040
00000280: f98f c0bf a1e3 a6bd 912e 4140 e3b3 893f
00000290: 6357 27bf 791e b3bd fd22 a7c0 9171 d4c0
000002a0: c622 8140 8159 00c1 506f 4fc0 82ea 6c3f
000002b0: ee89 07c0 5e2c c43f 8d9a 17c0 5ac4 f5bf
000002c0: 368d 3ac0 c013 67c0 e769 ca40 67f6 29c0
000002d0: edb3 8840 2f6e ffc0 d0ae dbc0 6829 6640
000002e0: 6c1d a840 6dd0 103e 85e1 a9c0 2437 2cc0
000002f0: 1865 133f 9193 bf3e 312d 71c0 feab 80c0
00000300: 33ad 8ec0 75c6 b2c0 664b 24c0 7c9f 0540
00000310: eddb 3d41 7622 46c0 68c8 0f40 7d2a 3c3e
00000320: d467 953f 6475 bfc0 bafa 6940 0eb2 01c0
00000330: c8b2 46bf 2b8e 1741 aa35 e83f 0f10 9240
00000340: 18ab 8940 3678 2ac0 9795 13bd b26f a8c0
00000350: 62a5 54c0 ef6e 1f3f e483 5ec0 ce15 83c0
00000360: 9c1d 6f3d eb96 d0bf aa14 04c1 7eac 4c3f
00000370: ccb4 8440 8644 10c0 cd64 55bf 1147 d1be
00000380: 80be 45c0 ad0d 3440 e800 e83f 3204 a9c0
00000390: e405 46c0 cb1e 1cc0 f4cc f63f a5e5 8abf
000003a0: 56ad 80bf 4f91 bec0 c15c 5840 b52b 17c0
000003b0: 0203 d4c0 b9d2 9f40 17b0 673f fbd2 b93f
000003c0: 75b4 403f 0f74 8bc0 d6a6 5d3e e263 8f40
000003d0: 1ad9 dcbe 97f1 8340 b889 e5bf b23a 0dc0
000003e0: 3426 83c0 04cc 06bf 7e1b 02c0 900c 8c40
000003f0: bf26 2f41 5129 cc3e a52b 2c40 2f4b 8a40
-3.56662 0.96951807 -2.7881572 3.092121 4.8679423 -3.7543287 -1.6943504 -7.0407248
4.120543 -1.8385413 0.58119166 1.4490165 -4.527768 3.0532005 -3.8128295 5.0930357
1.2137754 -4.3249936 -2.1057038 -4.1549826 -5.432002 -6.790261 -5.1266913 -2.3267047
1.5864478 -5.069376 -0.026679007 1.9482483 -2.0805917 -0.8335623 -3.0695589 -9.286625
5.916212 4.090533 -6.8315225 -5.327729 -1.5785599 5.583883 0.8164649 0.96873444
-5.1418815 1.2658905 10.267045 -0.023365071 -0.3610369 -0.8372474 3.3917155 7.294012
-4.680312 7.0119762 -4.1333046 -2.520856 -4.7271376 -9.477095 1.9130684 0.10776989
3.8525107 -5.99919 1.0861968 0.8216792 -4.553847 -5.322384 5.760126 -8.83054
9.797429 -3.653307 -3.4504447 2.1969423 -3.5472376 -7.689904 -5.9008055 -2.715877
-1.9842392 -5.4709554 5.8674054 6.5035977 9.166567 -3.609502 0.45896706 -5.3642006
2.7145827 -1.862032 -2.5330431 5.1543565 -0.51555514 -3.0083501 2.63635 -0.016859565
3.8667836 -0.4195434 -2.3045452 -0.19527458 -1.4063435 -5.520695 -6.462693 -7.118034
-3.6847303 -1.9218642 -4.0345197 1.0963662 5.920392 1.3939642 -2.2169778 -4.0479584
-2.0331378 4.3553085 5.311109 -4.972636 -2.2694848 -0.8246379 4.575526 0.5406993
-3.1502402 4.723702 -1.0911322 -4.351345 -6.520296 1.7029899 -0.21815792 -6.1335363
-3.7765408 -0.46918166 -5.8734245 3.3030424 7.104834 2.7880118 3.5300362 3.3354359
-3.2578669 -1.6106524 -0.59054226 -9.057325 -1.5480694 6.6030684 -4.5342126 9.701107
-2.1661093 9.00741 2.9631968 3.4675794 -4.237611 -4.638293 -2.9812644 0.610337
-3.6606867 -2.8072903 3.307843 -4.8942084 9.579837 -7.4147143 -4.9473004 1.6827685
-0.68309325 -1.3689477 5.777529 4.869398 -2.9995515 1.5709784 -5.715135 2.005019
-1.5043937 -0.081488855 3.0184672 1.0758022 -0.65367717 -0.087460466 -5.223021 -6.638863
4.035495 -8.021852 -3.241169 0.9254533 -2.1177936 1.532604 -2.368808 -1.9200547
-2.9148688 -3.6105804 6.3254275 -2.6556642 4.2719636 -7.9822 -6.8650894 3.5962772
5.2535915 0.14142008 -5.3087792 -2.6908655 0.5757613 0.37417272 -3.7683833 -4.020995
-4.4586425 -5.5867257 -2.567102 2.0878592 11.866193 -3.0958533 2.2466068 0.18375583
1.1672311 -5.98308 3.6559281 -2.0264926 -0.7761655 9.472209 1.8141377 4.5644603
4.3021355 -2.663587 -0.036031332 -5.2636347 -3.3225942 0.62278646 -3.4768 -4.0964117
0.058377847 -1.6296057 -8.255045 0.799507 4.14707 -2.2541823 -0.83356935 -0.40874532
-3.0897522 2.8133347 1.8125277 -5.281762 -3.0941095 -2.4393795 1.9281297 -1.0851332
-1.0052898 -5.955238 3.3806612 -2.3620427 -6.625367 4.994473 0.90503067 1.4517511
0.75275356 -4.3579173 0.21645674 4.4809427 -0.43134385 4.123241 -1.7932653 -2.2067075
-4.0984135 -0.52655053 -2.032928 4.3765335 10.9469595 0.39875272 2.6901639 4.3216777

bn1.running_var f4 [400]
00000000: e03d a542 a694 5b42 37cf 4c42 2a44 ba42
00000010: e3e3 1943 5cce 7042 7f25 3743 eb38 9442
00000020: 18d7 b043 c76e 1143 62c7 7d42 5262 7a42
00000030: 1523 8e42 564b 9641 8dd7 f042 ad8c 4643
00000040: 610d cb42 347d 6242 6723 8242 f815 0543
00000050: e340 db42 b535 ba42 2428 1e43 4e91 c342
00000060: e171 a242 4136 2243 2cc6 963e 89cf 5042
00000070: 587f fd41 a96f 3143 1435 e142 68e2 a242
00000080: 001b ff42 1936 f342 b29d 8a42 47f0 4542
00000090: a719 d742 0178 4d42 b7f3 ce42 29d7 3642
000000a0: a13e f141 fcea 5f42 e492 0f43 5dfc f840
000000b0: bea6 3543 c520 4342 8e07 3442 0445 7742
000000c0: 7f82 1f43 8115 ea42 2663 8442 407f d642
000000d0: f28d d042 b181 2d42 3631 5843 874c 2c43
000000e0: 3cc0 4942 083a 8142 e07a 2e42 af3c 3042
000000f0: 09d8 8942 4e4f c242 3395 b342 a778 a442
00000100: 3240 e642 b68b cc42 f49b 2343 2c55 8a42
00000110: 342a fb42 369a db42 e8d7 8643 f40a 9543
00000120: fca8 2542 4e54 a542 8329 9942 f377 1543
00000130: f60c 8042 4561 0043 25a3 ed42 ee3b 7342
00000140: bd2f d042 c061 1643 3488 5042 f79b 9f41
00000150: 0583 aa42 560b 1442 a05e 0543 0363 b742
00000160: 6c1e db41 3542 0442 9d93 9a41 fcb6 1943
00000170: 1739 a242 26e9 1342 a933 de42 c0bd 0542
00000180: 523e 1e41 831c 5043 4759 9e42 ac11 d442
00000190: b7f0 5b42 1406 6141 0162 8c42 607c 1443
000001a0: c59f 8641 7384 9441 3bf8 3d42 b13a 4542
000001b0: 11ec a542 a317 1843 1f90 7d42 5cee ce3f
000001c0: 1efd c142 cc61 a442 d63f 3542 6207 0c43
000001d0: 225c 3542 f266 5142 fd06 7e3f 4008 5d42
000001e0: d8b7 4d42 a11c 233f a0b4 0f42 08b9 ed42
000001f0: b26e 5b42 a3d0 6642 2ce0 9342 1b17 9a42
00000200: 51fa 2042 962d 1242 a191 4342 275c 7e42
00000210: 13d0 1442 c5c0 7a43 99c2 f142 150b 9743
00000220: c4a2 2c41 2bc1 a042 0257 6341 cdca a142
00000230: 79fb b042 8623 1343 bbbd fe41 7443 8042
00000240: 9bb3 2043 fd53 8442 b662 5742 0519 2543
00000250: c862 1b42 ab2f f342 bd93 9342 e9c4 b943
00000260: be4f 4a41 7f56 3b42 6824 9143 26bf 1243
00000270: a0d4 f541 c4b8 6e43 1dc8 8343 63fe 8441
00000280: bc1b a742 9072 8442 61bb 1043 6559 2742
00000290: c0ef 0243 d5fb 3f42 8a32 be42 2336 f342
000002a0: e3ba 3f41 b9b5 ec42 4d66 3243 e96e 6842
000002b0: 9121 0542 8696 9242 df30 ae43 7049 2743
000002c0: d9a5 e941 4cd9 bd42 32dc 2d43 af9e 0242
000002d0: 5386 b642 7c73 7c42 b69c 3c43 ebba 8e42
000002e0: 7c27 a443 96b2 3f42 3375 3842 a94b 4b42
000002f0: a74f 1543 fc02 883e bbad 0343 5872 5b42
00000300: da4e b942 77a6 f842 20cf ec42 5751 2b42
00000310: 0c7f 1043 88a5 0642 0aa6 2c42 e8e0 043f
00000320: 4d6d 3a42 100a bd42 e57a 7d42 6ec8 2c43
00000330: 1cdc 7d42 63c9 1843 b385 a043 2368 1843
00000340: d75b ba42 9476 8042 c33c a341 d6b4 7943
00000350: 4220 1a43 8903 0a42 d7f8 d142 36c7 fb42
00000360: 51da 9b42 08de 1b41 a71d 0842 323f 5543
00000370: a2d1 0a42 8b7c 9042 d7ba cf42 dde2 4242
00000380: fe5d 0943 4d75 d942 7ca0 8b42 0a66 3b43
00000390: 1905 5143 9e9d a142 c200 fb41 f8b5 7043
000003a0: e496 0f43 2392 4b43 9b55 d642 e222 3242
000003b0: ae58 b342 6555 4743 c0cc 2842 ed6c cf42
000003c0: e479 5e42 6893 0742 ee04 2442 fe47 6743
000003d0: 2135 7d3f 2aaa 8342 e747 9942 0d12 c242
000003e0: d771 e942 b047 1e42 5280 6f41 4bba 3742
000003f0: 291f af42 0b71 0b41 cbbb 0142 8091 1143
82.62085 54.895164 51.20236 93.13313 153.89018 60.201523 183.14647 74.11117
353.68042 145.43272 63.44471 62.596016 71.06852 18.786785 120.421 198.54951
101.52613 56.62227 65.069145 133.08582 109.62673 93.1049 158.1568 97.7838
81.22242 162.21193 0.29448068 52.20267 31.68718 177.43617 112.60367 81.4422
127.552734 121.60566 69.308 49.484646 107.5501 51.36719 103.476006 45.710117
30.15558 55.979477 143.57379 7.780806 181.65134 48.782 45.007378 61.817398
159.50975 117.042 66.19365 107.248535 104.27724 43.37665 216.19223 172.29893
50.43773 64.61334 43.619995 44.05926 68.92194 97.15489 89.791405 82.23565
115.12538 102.27287 163.60919 69.16635 125.58243 109.80119 269.68677 298.08557
41.415024 82.66466 76.58108 149.46855 64.025314 128.37996 118.81864 60.808525
104.09324 150.38184 52.13301 19.951155 85.2559 37.01107 133.36963 91.69338
27.389854 33.064655 19.322077 153.71478 81.1115 36.977684 111.1009 33.435303
9.890215 208.11137 79.17437 106.034515 54.985073 14.063984 70.191414 148.48584
16.828012 18.564672 47.492413 49.307316 82.96107 152.09233 63.390743 1.6166492
96.99437 82.19101 45.31234 140.02884 45.339973 52.350533 0.99229413 55.258057
51.429535 0.6371556 35.92639 118.86139 54.8581 57.703747 73.937836 77.04513
40.24445 36.544518 48.892216 63.589993 37.203197 250.753 120.88007 302.08658
10.789738 80.37728 14.208742 80.896095 88.49116 147.13876 31.842642 64.131744
160.70158 66.16404 53.846397 165.09773 38.846466 121.5931 73.78855 371.53836
12.644468 46.83447 290.28442 146.74667 30.72882 238.72174 263.5634 16.624212
83.55417 66.223755 144.73195 41.8373 130.93652 47.99593 95.09871 121.605736
11.983127 118.35493 178.39961 58.10831 33.28278 73.29399 348.3818 167.28687
29.20598 94.92441 173.86014 32.654964 91.26235 63.112778 188.61215 71.365074
328.30847 47.9244 46.114452 50.823887 149.31114 0.26564777 131.67863 54.861664
92.65401 124.32513 118.40454 42.829433 144.49628 33.66165 43.162148 0.5190568
46.60674 94.51965 63.370014 172.78293 63.46495 152.78667 321.04453 152.40678
93.179375 64.2316 20.404669 249.70639 154.126 34.503452 104.986015 125.889084
77.9264 9.741707 34.028957 213.24686 34.70472 72.24325 103.86492 48.721546
137.36716 108.7291 69.813446 187.39859 209.01991 80.807846 31.37537 240.71082
143.58942 203.57085 107.1672 44.534065 89.6732 199.33357 42.19995 103.712746
55.619034 33.89395 41.004814 231.28122 0.98909193 65.83235 76.640434 97.035255
116.72234 39.570007 14.968828 45.931927 87.56086 8.715098 32.43339 145.56836

fc2.weight f4 [300, 400]
00000000: daff 133f 4ac8 6fbf 670f adbf 11c7 81bf
00000010: 0fbf 0ac0 b417 06bf b016 eebc cd9a 223f
00000020: 4b87 853e f87e 10be 02a9 91bf 0d4d 13be
00000030: 7a73 32bf bae0 9abf cb46 efbf 2ee3 cdbf
00000040: 4e02 cabe 23a3 c1bf cb0f c5bf c52c f3bf
00000050: 43e9 ef3f 97a5 873f 2ab5 b83d 89f7 fa3e
00000060: 74dd 973f 6dd7 e33e bdb2 4fbd fe59 83bf
00000070: 77b2 67bf 2d4b 91bf 4807 b9be 0094 bdbf
00000080: 3d9a 1dbf fea7 bdbf 0c5b 7cbf e165 1cc0
00000090: f761 973e 467d 9ebe a266 87c0 c54d e6bf
000000a0: c627 84be 2b78 983e ceb0 433e 2102 0abc
000000b0: 4794 54bf c6d6 233e 1cca 4d40 5d02 78bf
000000c0: a56b d1bf b42a 773f 0eaf 5f3f d6cd 503d
000000d0: 8e2e 9a3e 7dfb 00bf eb7a 9bbf c7cb 2b3d
000000e0: 3f69 29bf 8d03 953e 3a7d 0140 0ba7 f23e
000000f0: 1efa 60bc e7fa 7a3f ac6d 5ebe 2e34 58be
00000100: 2bb4 eabe 6d37 bebe 5e7e 213f f790 31bf
00000110: f240 2c3f 292e ed3e 1e12 423e caa2 a63e
00000120: c754 1fbf 55a3 073f d777 ffbe 57e1 db3d
00000130: 35e1 2f3f f8a7 573f 6b04 c1bf ecf6 52bf
00000140: 9ec1 ca3e 633c 12bf 89dc 5bbc 45fc 8abf
00000150: 82c4 3bbf edfb 1c3e f95d 12be 28fe cbbf
00000160: e2ab 4b3f ec43 1b3e 11b9 413f 9d15 15bf
00000170: 71eb 85bf a877 10c0 53f1 c9bf 38fb 12c0
00000180: 6c44 0d3f c33e e6bf 5617 0a3f 5fc5 613f
00000190: 364a fb3d f8d2 19be 9d18 033e a71a 2cc0
000001a0: 0472 87be f5f1 c63f cd56 f8be d7b5 febe
000001b0: 8396 7cbf c9de 3cc0 8c0d 813f 6ca0 c43c
000001c0: 5ccf c93e 58db 21bf eea6 b4bf 419f 933f
000001d0: 93a8 c7bf 0d93 30bf ee5b a3bd 33c0 843f
000001e0: ad89 113d c21d f83c 4e2d b9bf 31ab 9abf
000001f0: 03b2 e5be da26 e1bf 6617 093f 4093 f7bf
00000200: b41c 2c3e e55c bcbf dd61 e1bd e653 543f
00000210: 0010 21bd 0eb9 64be 5e48 fd3d 8c71 a93f
00000220: 3810 653f d250 ecbf 8c3a ff3e cc30 25bf
00000230: de7a d9be 9521 c93e a35e c33e 4f52 d8bf
00000240: 5b28 1fbe 3aed 55bf 884a 2a3f bb23 4b3e
00000250: 9b6a 1a3f e5e1 983f 9ec0 953e dd7b 86bf
00000260: b4fb 7cbf 7453 0dc0 1baa d43d 1b1a 10c0
00000270: bc28 20c0 9a3e b9bf 5660 a43f 1110 0abf
00000280: b065 dbbe 328f e93e 821c 0c3f 9c77 13bf
00000290: 962e 3f3f 9df6 bc3e cdf9 dbbe 1a26 b03e
000002a0: e721 6abe 5e61 c93e d576 9abe 2d4e 17c0
000002b0: a4e4 f0bf 9d59 223e fb92 e4bf 4887 9f3e
000002c0: d90c 263e 1031 4c3f d21e 8fbe a639 203e
000002d0: 2bdc b2bf fe74 05bf be40 213f a2e3 b2bf
000002e0: 2a29 09c0 3ab7 5abf fe02 f6bf 1f6a 19c0
000002f0: 4976 ff3e 843b e9bc 65d3 e6bf c63c 4cbf
00000300: 63fe 02bf a643 9d3f bd61 47bf 87a3 b13f
00000310: 8ae7 03be 67e3 dbbf 651e 02bf 5f99 54bd
00000320: ba0d 063f f2ee 95bf 1041 8a3e c20e 563e
00000330: 9660 e53e ad17 9f3e 54b9 773f 2905 68be
00000340: 43b1 8abf 2ad7 683f 1c46 dcbf a47d b23e
00000350: 9000 22be c57a dabc 8802 94bf 2668 423f
00000360: 17e6 d5be 32f2 2ebf b51f 8bbf 77b6 2fbf
00000370: b202 893f 1881 26bf f63d 9cbe 3279 15bf
00000380: 7cb1 05bf 8fb8 31bf 6710 9fbe 6755 9a3e
00000390: 7d1e dd3e 4277 a03e 5d40 0ebf 6764 1c3f
000003a0: 5cd7 00bf 7c55 5e3e b159 a63c d1ff 45bf
000003b0: 16a3 633f fdd4 84bf 1193 cabf ed6c ddbf
000003c0: 1445 e53d 1d55 52bf 561c d0be 53d7 45bf
000003d0: 4774 3d3d 4a00 1dc0 ffeb b53e db64 33bf
000003e0: deb3 b5bf 7767 f8bf 703e b0bf b890 94bf
000003f0: 5623 42bf 6faa a5be 3ce7 66bf 6480 c53f
0.57812274 -0.9366499 -1.3520325 -1.0138875 -2.1679113 -0.5237992 -0.029063553 0.6351746
0.26079783 -0.14110935 -1.1379702 -0.14384861 -0.69707453 -1.2099831 -1.8693479 -1.6084955
-0.39454883 -1.512791 -1.5395445 -1.8998038 1.8743061 1.0597409 0.09018929 0.4901698
1.1864457 0.44500294 -0.050707567 -1.0261838 -0.9050669 -1.1351067 -0.36138368 -1.4810791
-0.61563474 -1.4816892 -0.98576427 -2.4437182 0.2956693 -0.3095495 -4.2312784 -1.7992483
-0.25811595 0.2977918 0.19110414 -0.008423359 -0.83038753 0.15999898 3.2154608 -0.96878606
-1.6360976 0.96549535 0.8737649 0.05097755 0.30113643 -0.5038374 -1.2146887 0.041942384
-0.6617622 0.29104272 2.0232682 0.4739307 -0.013731508 0.98039097 -0.21721524 -0.21113655
-0.45840582 -0.37151662 0.63083446 -0.69361824 0.672866 0.4632428 0.18952224 0.32546073
-0.62238735 0.529836 -0.49896118 0.107363395 0.68703014 0.84240675 -1.5079473 -0.8240802
0.39600843 -0.5712339 -0.013419279 -1.0858237 -0.7334672 0.15330477 -0.1429366 -1.5936937
0.7955915 0.15162629 0.75673014 -0.58236104 -1.0462476 -2.2573032 -1.5776771 -2.2965832
0.5518253 -1.7987903 0.5394186 0.8819179 0.12270014 -0.15021884 0.12802358 -2.6891267
-0.26454175 1.554259 -0.48503724 -0.49748108 -0.9866716 -2.9510977 1.0082259 0.024002276
0.39416015 -0.63225317 -1.4113443 1.1532975 -1.559832 -0.6897438 -0.079765186 1.0371155
0.03553169 0.030287627 -1.4466951 -1.2083493 -0.44862375 -1.7589982 0.5355133 -1.9341812
0.16807824 -1.4715849 -0.11004994 0.8294052 -0.0393219 -0.22336218 0.123673186 1.3237777
0.8947787 -1.8462164 0.49849355 -0.64527583 -0.42476553 0.39283434 0.3815814 -1.6900119
-0.15542738 -0.83565104 0.66519976 0.19837849 0.6031892 1.1943938 0.29248518 -1.050655
-0.9882157 -2.2082186 0.103840075 -2.2515934 -2.5024862 -1.447223 1.2841899 -0.53930765
-0.4285102 0.45617062 0.54731 -0.57604384 0.7468046 0.369069 -0.4296402 0.3440407
-0.22864495 0.39332098 -0.30168787 -2.3641465 -1.8819776 0.15854497 -1.7857355 0.311579
0.16215838 0.79762363 -0.27953202 0.15646991 -1.397344 -0.5213164 0.62989414 -1.3975718
-2.1431375 -0.8543583 -1.9219663 -2.397102 0.49894932 -0.028470762 -1.8033262 -0.7978023
-0.51169413 1.228627 -0.7788351 1.387803 -0.12881294 -1.7178773 -0.5082763 -0.05190408
0.52364695 -1.1713545 0.27002764 0.20904067 0.44800252 0.3107275 0.96767163 -0.22658218
-1.0835346 0.90953314 -1.7208896 0.3486148 -0.15820527 -0.02666987 -1.1563272 0.7594017
-0.41777107 -0.6833831 -1.0869051 -0.68637794 1.0703948 -0.6504073 -0.30516022 -0.58388054
-0.52223945 -0.6942224 -0.31067201 0.30143282 0.43187323 0.31340986 -0.5556696 0.610907
-0.5032861 0.21712297 0.02030644 -0.7734347 0.88920724 -1.0377499 -1.5826131 -1.7298867
0.11194816 -0.8216112 -0.4064662 -0.77281684 0.04625347 -2.4531426 0.35531613 -0.7007577
-1.4195516 -1.9406575 -1.3769054 -1.1606665 -0.7583517 -0.32356593 -0.90196586 1.5429807

fc2.bias f4 [300]
00000000: d429 a63f 83da 743d 04c1 57bf b9dc 18be
00000010: be09 9a3d bcac 833d a4b1 a6bf 4ee3 6bbc
00000020: 4dc4 903e 455f 9b3c 7a12 dc3d 5f9b eabd
00000030: 10c6 c6be 4682 113e cdd6 1d3f 0b74 69be
00000040: 5af5 c0be 5ace cdbf 7210 a2bd 88b6 55bf
00000050: d99c e7bf f095 06c0 91ae 013d 5077 af3e
00000060: dfb3 863e a8d6 79bf dc0f abbe 3959 aabe
00000070: e81f 6bbf e61e 3abf 80bd c6bf d50b 64bf
00000080: 8d1d 2ac0 3085 c6bf aeab 05bf f079 28bf
00000090: fbd2 08c0 de64 2bbf 2acc 22be a67d cc3e
000000a0: 11be 30bf e492 33c0 b13a f6bf b4a6 0cc0
000000b0: 95a5 86be 6eb9 d2be ae13 50be 5613 4bbf
000000c0: d572 063f 0941 43be d383 a8be 1264 ef3e
000000d0: 3536 85be b6e2 4ac0 3264 8cbe be24 72bc
000000e0: 3243 1bbd 6ee3 adbf c2c8 323f 83f1 393e
000000f0: 05fc c73e 837f e03e cee1 a83e 3ac9 ebbd
00000100: d485 08c0 666e 0bbf 44f9 4abe 84bf 1abf
00000110: ca6a 0bbe e5f0 66be 9a94 7b3e 399a 42bf
00000120: 249e 0c3e f37a c0bf d6c9 59bd 45a4 143d
00000130: 328a 5b3e 4ce7 f43d 82a6 ec3d 6170 dabf
00000140: 3f53 c0bf 3d7e 0abf a3b0 adbe 7a95 b9bd
00000150: a74e b3bd 1180 86be b5e4 2ac0 9658 f0bd
00000160: 7c51 653e 5a56 3ebe 8097 30be 33b1 75bf
00000170: 7aef 21be 1430 a2be 71ab 573e c082 01bf
00000180: aa34 21be 111d 05c0 c0aa 81bf 7e39 b0bf
00000190: fd64 63bd 83c5 8dbe 4160 8dbf b168 2bbe
000001a0: d7d2 fabe ae2b f9be a6d0 64bf 60ab cfbd
000001b0: fca2 6e3f df66 70be 3c0f 00bf aa91 e9bf
000001c0: 524b 7d3e f881 18be ca28 b93d 43eb d53d
000001d0: 6251 35be a1eb 96bc 5fa9 ebbd 1355 4cbf
000001e0: b2c5 fbbf 9662 803e f554 a63e bd52 a7bf
000001f0: 4009 13bf 5263 053e e584 cf3d 8dda 50be
00000200: 4a39 95bc 1c8d bbbd 1d5e df3d 139e bebe
00000210: 2ab3 77bd 66b1 9cbf e6d5 49bf a059 cd3d
00000220: 49e9 b8bb 62f2 acbd 4181 02bf be87 16bf
00000230: 1375 cc3f 6b98 28bf 2d4e 783e 77bb 853e
00000240: c982 0fc0 6e46 f53e 2d06 c4bf b952 28be
00000250: f4a8 6c3e 6d1f 84be 1a53 61be 0004 bc3d
00000260: a4e4 9bbe 6d70 a1be 9e10 3b3d b35d 48bd
00000270: 2efa 13bf c791 fbbe 2a94 20bf bf1e 8dbf
00000280: f550 adbf f541 883e e5ab 07be dc01 bcbd
00000290: 4d56 0ebd 498b cd3e 10f4 f2bd a34e adbf
000002a0: 1f3f 88bf 7476 46be 23fa b53d cd17 b1be
000002b0: 3b96 3fbb 44cb 1a3e 222b 6b3f cb75 1a3f
000002c0: a865 f23e 5397 8fbf f263 f8be 18ae 64be
000002d0: e7b7 e5be fe84 a3bf b6c8 07be 059d 50bf
000002e0: 983b d7be 8a76 1dc0 6db0 01be 14e7 1b3f
000002f0: 2b37 15bf 12f5 6bbe c71d 993d 80c3 e33c
00000300: c86c a73c 8e5d 8bbd e47d b7bf 724b a5bf
00000310: e2f0 9a3e 9c41 07be 262e 77bf ca77 0fc0
00000320: 364d 2f3d c417 1cbd 883b 8bbf a406 27bf
00000330: 4aa2 42be 26f6 373e f3db 4b3d 552c 5dbe
00000340: c16c bfbc 0897 bbbe 75e8 ac3d c27f 1dc0
00000350: f657 9dbf 3037 7abf a14a 753e 5d81 0d3f
00000360: 8f55 6cbf d0e9 613e a0af a7be e1ad 88bf
00000370: 3703 acbf 69f7 bcbd cb8f 4c3e 162f 133e
00000380: f8b8 13c0 d721 4fbe 9b02 fb3d 2661 b2bf
00000390: 33cb 2dbd 1f3b 723f fc8d 7dbf d628 5ebe
000003a0: d744 61bf ae04 ecbe 0cb9 47bf 253c c8bf
000003b0: 9bec f0bf 2452 26bf 3893 e0be 3cec 16be
000003c0: 5aef babe f3b0 abbf 16f3 afbf 0fd0 bdbf
000003d0: 7764 e03d d965 cbbf f68b b4bd b6fd 94be
000003e0: 8251 393e 0933 ac3e 969a e7be 5f0d 9abe
000003f0: cdef 38bd 3ce1 f33e 7eb8 953f 3f67 a4bf
1.2981515 0.0597787 -0.84278893 -0.14927949 0.075213894 0.06429431 -1.3022962 -0.014397455
0.28274766 0.018966326 0.107457116 -0.11455416 -0.38822985 0.14209852 0.61655885 -0.22798173
-0.37687188 -1.6078598 -0.07913293 -0.83481646 -1.8094741 -2.1029015 0.03166062 0.34270716
0.26309106 -0.97593164 -0.33410537 -0.33271196 -0.9184556 -0.727034 -1.5526581 -0.89080554
-2.6580536 -1.5509396 -0.5221509 -0.6581106 -2.1378772 -0.66950786 -0.15898195 0.39939612
-0.6904002 -2.8058405 -1.9236661 -2.1976748 -0.26298204 -0.41157097 -0.20320007 -0.7932638
0.5251897 -0.19067778 -0.32913074 0.46756035 -0.2601792 -3.1700873 -0.27420193 -0.014779268
-0.03790588 -1.3585031 0.6983758 0.18158536 0.39059463 0.43847284 0.32984775 -0.1151299
-2.1331682 -0.5446533 -0.1982165 -0.6044848 -0.13614956 -0.22552831 0.24568406 -0.76016575
0.13732201 -1.5037521 -0.053171 0.036289472 0.21439436 0.11958179 0.11555196 -1.7065545
-1.5025405 -0.54098874 -0.33923826 -0.090617135 -0.08755236 -0.26269582 -2.6702092 -0.117356464
0.22394365 -0.18587628 -0.17245293 -0.9597351 -0.1581401 -0.31677306 0.21061493 -0.50590134
-0.15742746 -2.079899 -1.0130234 -1.3767545 -0.05551623 -0.27689752 -1.1044999 -0.16739155
-0.48988983 -0.48666137 -0.8938087 -0.10140109 0.93217444 -0.23476742 -0.50023246 -1.8247578
0.24735764 -0.14893329 0.09040983 0.10445263 -0.17706826 -0.018422903 -0.11506914 -0.7981731
-1.9669707 0.25075215 0.32486692 -1.3072125 -0.5743599 0.13026169 0.101327695 -0.2039587
-0.018215794 -0.09157774 0.109066226 -0.37229976 -0.0604736 -1.2241638 -0.7884201 0.1002686
-0.005643044 -0.08444668 -0.50978476 -0.58800876 1.5973228 -0.6585757 0.24248572 0.26119587
-2.2423575 0.47905296 -1.5314385 -0.16437806 0.23111326 -0.25805226 -0.22004357 0.091804504
-0.30447876 -0.31531087 0.045670144 -0.048917484 -0.5780362 -0.49134657 -0.6272608 -1.1025008
-1.3540331 0.2661282 -0.13249166 -0.09180042 -0.03475027 0.4014533 -0.118629575 -1.3539623
-1.0644263 -0.19381124 0.088856004 -0.3458847 -0.0029233831 0.15116602 0.9186269 0.6033599
0.47343183 -1.1218055 -0.48513752 -0.22332036 -0.4486687 -1.2774961 -0.13260159 -0.8148959
-0.42037654 -2.46036 -0.12664957 0.6089947 -0.58287305 -0.23042706 0.07476383 0.027803183
0.020437613 -0.068049535 -1.4335294 -1.2913649 0.30261904 -0.13208622 -0.9655479 -2.2416863
0.042798243 -0.038108602 -1.0877542 -0.6524451 -0.19007221 0.17964992 0.049770307 -0.21598943
-0.023367288 -0.36638665 0.08442775 -2.4609227 -1.2292469 -0.9774046 0.2395425 0.5527552
-0.9231805 0.22061849 -0.3275118 -1.0678064 -1.3438481 -0.09226877 0.19976728 0.1437343
-2.3081646 -0.20227753 0.12256356 -1.3935897 -0.042430114 0.9462146 -0.99044776 -0.21695265
-0.87995666 -0.4609732 -0.78016734 -1.5643355 -1.8822206 -0.64969087 -0.4386232 -0.14738554
-0.36510736 -1.3413376 -1.3746059 -1.482912 0.10956662 -1.5890456 -0.08815758 -0.29099816
0.18097499 0.33632687 -0.45235127 -0.30088326 -0.045150567 0.47632778 1.1696928 -1.2844008
